layer {
  name: "RGB"
  type: "Python"
  top: "RGB"
  top: "DEP"
  python_param {
    module: "nyud_layers"
    layer: "NYUDSegDataLayer"
    param_str: "{\'do_test_scale\': 1.2, \'seed\': 1337, \'do_aug\': True, \'nyud_dir\': \'./data\', \'tops\': [\'color\', \'hha\'], \'split\': \'test\'}"
  }
}
layer {
  name: "RGBconv1"
  type: "Convolution"
  bottom: "RGB"
  top: "RGBconv1"
  param {
    lr_mult: 0.1
    decay_mult: 1
  }
  convolution_param {
    num_output: 64
    bias_term: false
    pad: 3
    kernel_size: 7
    stride: 2
  }
}
layer {
  name: "RGBbn_conv1"
  type: "BatchNorm"
  bottom: "RGBconv1"
  top: "RGBconv1"
  param {
    lr_mult: 0
    decay_mult: 0
  }
  param {
    lr_mult: 0
    decay_mult: 0
  }
  param {
    lr_mult: 0
    decay_mult: 0
  }
  batch_norm_param {
    use_global_stats: true
  }
}
layer {
  name: "RGBscale_conv1"
  type: "Scale"
  bottom: "RGBconv1"
  top: "RGBconv1"
  param {
    lr_mult: 0.1
    decay_mult: 1
  }
  param {
    lr_mult: 0.1
    decay_mult: 1
  }
  scale_param {
    bias_term: true
  }
}
layer {
  name: "RGBconv1_relu"
  type: "ReLU"
  bottom: "RGBconv1"
  top: "RGBconv1"
}
layer {
  name: "RGBpool1"
  type: "Pooling"
  bottom: "RGBconv1"
  top: "RGBpool1"
  pooling_param {
    pool: MAX
    kernel_size: 3
    stride: 2
    pad: 0
  }
}
layer {
  name: "RGBres2a_branch1"
  type: "Convolution"
  bottom: "RGBpool1"
  top: "RGBres2a_branch1"
  param {
    lr_mult: 0.1
    decay_mult: 1
  }
  convolution_param {
    num_output: 256
    bias_term: false
    pad: 0
    kernel_size: 1
    stride: 1
  }
}
layer {
  name: "RGBbn2a_branch1"
  type: "BatchNorm"
  bottom: "RGBres2a_branch1"
  top: "RGBres2a_branch1"
  param {
    lr_mult: 0
    decay_mult: 0
  }
  param {
    lr_mult: 0
    decay_mult: 0
  }
  param {
    lr_mult: 0
    decay_mult: 0
  }
  batch_norm_param {
    use_global_stats: true
  }
}
layer {
  name: "RGBscale2a_branch1"
  type: "Scale"
  bottom: "RGBres2a_branch1"
  top: "RGBres2a_branch1"
  param {
    lr_mult: 0.1
    decay_mult: 1
  }
  param {
    lr_mult: 0.1
    decay_mult: 1
  }
  scale_param {
    bias_term: true
  }
}
layer {
  name: "RGBres2a_branch2a"
  type: "Convolution"
  bottom: "RGBpool1"
  top: "RGBres2a_branch2a"
  param {
    lr_mult: 0.1
    decay_mult: 1
  }
  convolution_param {
    num_output: 64
    bias_term: false
    pad: 0
    kernel_size: 1
    stride: 1
  }
}
layer {
  name: "RGBbn2a_branch2a"
  type: "BatchNorm"
  bottom: "RGBres2a_branch2a"
  top: "RGBres2a_branch2a"
  param {
    lr_mult: 0
    decay_mult: 0
  }
  param {
    lr_mult: 0
    decay_mult: 0
  }
  param {
    lr_mult: 0
    decay_mult: 0
  }
  batch_norm_param {
    use_global_stats: true
  }
}
layer {
  name: "RGBscale2a_branch2a"
  type: "Scale"
  bottom: "RGBres2a_branch2a"
  top: "RGBres2a_branch2a"
  param {
    lr_mult: 0.1
    decay_mult: 1
  }
  param {
    lr_mult: 0.1
    decay_mult: 1
  }
  scale_param {
    bias_term: true
  }
}
layer {
  name: "RGBres2a_branch2a_relu"
  type: "ReLU"
  bottom: "RGBres2a_branch2a"
  top: "RGBres2a_branch2a"
}
layer {
  name: "RGBres2a_branch2b"
  type: "Convolution"
  bottom: "RGBres2a_branch2a"
  top: "RGBres2a_branch2b"
  param {
    lr_mult: 0.1
    decay_mult: 1
  }
  convolution_param {
    num_output: 64
    bias_term: false
    pad: 1
    kernel_size: 3
    stride: 1
  }
}
layer {
  name: "RGBbn2a_branch2b"
  type: "BatchNorm"
  bottom: "RGBres2a_branch2b"
  top: "RGBres2a_branch2b"
  param {
    lr_mult: 0
    decay_mult: 0
  }
  param {
    lr_mult: 0
    decay_mult: 0
  }
  param {
    lr_mult: 0
    decay_mult: 0
  }
  batch_norm_param {
    use_global_stats: true
  }
}
layer {
  name: "RGBscale2a_branch2b"
  type: "Scale"
  bottom: "RGBres2a_branch2b"
  top: "RGBres2a_branch2b"
  param {
    lr_mult: 0.1
    decay_mult: 1
  }
  param {
    lr_mult: 0.1
    decay_mult: 1
  }
  scale_param {
    bias_term: true
  }
}
layer {
  name: "RGBres2a_branch2b_relu"
  type: "ReLU"
  bottom: "RGBres2a_branch2b"
  top: "RGBres2a_branch2b"
}
layer {
  name: "RGBres2a_branch2c"
  type: "Convolution"
  bottom: "RGBres2a_branch2b"
  top: "RGBres2a_branch2c"
  param {
    lr_mult: 0.1
    decay_mult: 1
  }
  convolution_param {
    num_output: 256
    bias_term: false
    pad: 0
    kernel_size: 1
    stride: 1
  }
}
layer {
  name: "RGBbn2a_branch2c"
  type: "BatchNorm"
  bottom: "RGBres2a_branch2c"
  top: "RGBres2a_branch2c"
  param {
    lr_mult: 0
    decay_mult: 0
  }
  param {
    lr_mult: 0
    decay_mult: 0
  }
  param {
    lr_mult: 0
    decay_mult: 0
  }
  batch_norm_param {
    use_global_stats: true
  }
}
layer {
  name: "RGBscale2a_branch2c"
  type: "Scale"
  bottom: "RGBres2a_branch2c"
  top: "RGBres2a_branch2c"
  param {
    lr_mult: 0.1
    decay_mult: 1
  }
  param {
    lr_mult: 0.1
    decay_mult: 1
  }
  scale_param {
    bias_term: true
  }
}
layer {
  name: "RGBres2a"
  type: "Eltwise"
  bottom: "RGBres2a_branch1"
  bottom: "RGBres2a_branch2c"
  top: "RGBres2a"
  eltwise_param {
    operation: SUM
  }
}
layer {
  name: "RGBres2a_relu"
  type: "ReLU"
  bottom: "RGBres2a"
  top: "RGBres2a"
}
layer {
  name: "RGBres2b_branch2a"
  type: "Convolution"
  bottom: "RGBres2a"
  top: "RGBres2b_branch2a"
  param {
    lr_mult: 0.1
    decay_mult: 1
  }
  convolution_param {
    num_output: 64
    bias_term: false
    pad: 0
    kernel_size: 1
    stride: 1
  }
}
layer {
  name: "RGBbn2b_branch2a"
  type: "BatchNorm"
  bottom: "RGBres2b_branch2a"
  top: "RGBres2b_branch2a"
  param {
    lr_mult: 0
    decay_mult: 0
  }
  param {
    lr_mult: 0
    decay_mult: 0
  }
  param {
    lr_mult: 0
    decay_mult: 0
  }
  batch_norm_param {
    use_global_stats: true
  }
}
layer {
  name: "RGBscale2b_branch2a"
  type: "Scale"
  bottom: "RGBres2b_branch2a"
  top: "RGBres2b_branch2a"
  param {
    lr_mult: 0.1
    decay_mult: 1
  }
  param {
    lr_mult: 0.1
    decay_mult: 1
  }
  scale_param {
    bias_term: true
  }
}
layer {
  name: "RGBres2b_branch2a_relu"
  type: "ReLU"
  bottom: "RGBres2b_branch2a"
  top: "RGBres2b_branch2a"
}
layer {
  name: "RGBres2b_branch2b"
  type: "Convolution"
  bottom: "RGBres2b_branch2a"
  top: "RGBres2b_branch2b"
  param {
    lr_mult: 0.1
    decay_mult: 1
  }
  convolution_param {
    num_output: 64
    bias_term: false
    pad: 1
    kernel_size: 3
    stride: 1
  }
}
layer {
  name: "RGBbn2b_branch2b"
  type: "BatchNorm"
  bottom: "RGBres2b_branch2b"
  top: "RGBres2b_branch2b"
  param {
    lr_mult: 0
    decay_mult: 0
  }
  param {
    lr_mult: 0
    decay_mult: 0
  }
  param {
    lr_mult: 0
    decay_mult: 0
  }
  batch_norm_param {
    use_global_stats: true
  }
}
layer {
  name: "RGBscale2b_branch2b"
  type: "Scale"
  bottom: "RGBres2b_branch2b"
  top: "RGBres2b_branch2b"
  param {
    lr_mult: 0.1
    decay_mult: 1
  }
  param {
    lr_mult: 0.1
    decay_mult: 1
  }
  scale_param {
    bias_term: true
  }
}
layer {
  name: "RGBres2b_branch2b_relu"
  type: "ReLU"
  bottom: "RGBres2b_branch2b"
  top: "RGBres2b_branch2b"
}
layer {
  name: "RGBres2b_branch2c"
  type: "Convolution"
  bottom: "RGBres2b_branch2b"
  top: "RGBres2b_branch2c"
  param {
    lr_mult: 0.1
    decay_mult: 1
  }
  convolution_param {
    num_output: 256
    bias_term: false
    pad: 0
    kernel_size: 1
    stride: 1
  }
}
layer {
  name: "RGBbn2b_branch2c"
  type: "BatchNorm"
  bottom: "RGBres2b_branch2c"
  top: "RGBres2b_branch2c"
  param {
    lr_mult: 0
    decay_mult: 0
  }
  param {
    lr_mult: 0
    decay_mult: 0
  }
  param {
    lr_mult: 0
    decay_mult: 0
  }
  batch_norm_param {
    use_global_stats: true
  }
}
layer {
  name: "RGBscale2b_branch2c"
  type: "Scale"
  bottom: "RGBres2b_branch2c"
  top: "RGBres2b_branch2c"
  param {
    lr_mult: 0.1
    decay_mult: 1
  }
  param {
    lr_mult: 0.1
    decay_mult: 1
  }
  scale_param {
    bias_term: true
  }
}
layer {
  name: "RGBres2b"
  type: "Eltwise"
  bottom: "RGBres2a"
  bottom: "RGBres2b_branch2c"
  top: "RGBres2b"
  eltwise_param {
    operation: SUM
  }
}
layer {
  name: "RGBres2b_relu"
  type: "ReLU"
  bottom: "RGBres2b"
  top: "RGBres2b"
}
layer {
  name: "RGBres2c_branch2a"
  type: "Convolution"
  bottom: "RGBres2b"
  top: "RGBres2c_branch2a"
  param {
    lr_mult: 0.1
    decay_mult: 1
  }
  convolution_param {
    num_output: 64
    bias_term: false
    pad: 0
    kernel_size: 1
    stride: 1
  }
}
layer {
  name: "RGBbn2c_branch2a"
  type: "BatchNorm"
  bottom: "RGBres2c_branch2a"
  top: "RGBres2c_branch2a"
  param {
    lr_mult: 0
    decay_mult: 0
  }
  param {
    lr_mult: 0
    decay_mult: 0
  }
  param {
    lr_mult: 0
    decay_mult: 0
  }
  batch_norm_param {
    use_global_stats: true
  }
}
layer {
  name: "RGBscale2c_branch2a"
  type: "Scale"
  bottom: "RGBres2c_branch2a"
  top: "RGBres2c_branch2a"
  param {
    lr_mult: 0.1
    decay_mult: 1
  }
  param {
    lr_mult: 0.1
    decay_mult: 1
  }
  scale_param {
    bias_term: true
  }
}
layer {
  name: "RGBres2c_branch2a_relu"
  type: "ReLU"
  bottom: "RGBres2c_branch2a"
  top: "RGBres2c_branch2a"
}
layer {
  name: "RGBres2c_branch2b"
  type: "Convolution"
  bottom: "RGBres2c_branch2a"
  top: "RGBres2c_branch2b"
  param {
    lr_mult: 0.1
    decay_mult: 1
  }
  convolution_param {
    num_output: 64
    bias_term: false
    pad: 1
    kernel_size: 3
    stride: 1
  }
}
layer {
  name: "RGBbn2c_branch2b"
  type: "BatchNorm"
  bottom: "RGBres2c_branch2b"
  top: "RGBres2c_branch2b"
  param {
    lr_mult: 0
    decay_mult: 0
  }
  param {
    lr_mult: 0
    decay_mult: 0
  }
  param {
    lr_mult: 0
    decay_mult: 0
  }
  batch_norm_param {
    use_global_stats: true
  }
}
layer {
  name: "RGBscale2c_branch2b"
  type: "Scale"
  bottom: "RGBres2c_branch2b"
  top: "RGBres2c_branch2b"
  param {
    lr_mult: 0.1
    decay_mult: 1
  }
  param {
    lr_mult: 0.1
    decay_mult: 1
  }
  scale_param {
    bias_term: true
  }
}
layer {
  name: "RGBres2c_branch2b_relu"
  type: "ReLU"
  bottom: "RGBres2c_branch2b"
  top: "RGBres2c_branch2b"
}
layer {
  name: "RGBres2c_branch2c"
  type: "Convolution"
  bottom: "RGBres2c_branch2b"
  top: "RGBres2c_branch2c"
  param {
    lr_mult: 0.1
    decay_mult: 1
  }
  convolution_param {
    num_output: 256
    bias_term: false
    pad: 0
    kernel_size: 1
    stride: 1
  }
}
layer {
  name: "RGBbn2c_branch2c"
  type: "BatchNorm"
  bottom: "RGBres2c_branch2c"
  top: "RGBres2c_branch2c"
  param {
    lr_mult: 0
    decay_mult: 0
  }
  param {
    lr_mult: 0
    decay_mult: 0
  }
  param {
    lr_mult: 0
    decay_mult: 0
  }
  batch_norm_param {
    use_global_stats: true
  }
}
layer {
  name: "RGBscale2c_branch2c"
  type: "Scale"
  bottom: "RGBres2c_branch2c"
  top: "RGBres2c_branch2c"
  param {
    lr_mult: 0.1
    decay_mult: 1
  }
  param {
    lr_mult: 0.1
    decay_mult: 1
  }
  scale_param {
    bias_term: true
  }
}
layer {
  name: "RGBres2c"
  type: "Eltwise"
  bottom: "RGBres2b"
  bottom: "RGBres2c_branch2c"
  top: "RGBres2c"
  eltwise_param {
    operation: SUM
  }
}
layer {
  name: "RGBres2c_relu"
  type: "ReLU"
  bottom: "RGBres2c"
  top: "RGBres2c"
}
layer {
  name: "RGBres3a_branch1"
  type: "Convolution"
  bottom: "RGBres2c"
  top: "RGBres3a_branch1"
  param {
    lr_mult: 0.1
    decay_mult: 1
  }
  convolution_param {
    num_output: 512
    bias_term: false
    pad: 0
    kernel_size: 1
    stride: 2
  }
}
layer {
  name: "RGBbn3a_branch1"
  type: "BatchNorm"
  bottom: "RGBres3a_branch1"
  top: "RGBres3a_branch1"
  param {
    lr_mult: 0
    decay_mult: 0
  }
  param {
    lr_mult: 0
    decay_mult: 0
  }
  param {
    lr_mult: 0
    decay_mult: 0
  }
  batch_norm_param {
    use_global_stats: true
  }
}
layer {
  name: "RGBscale3a_branch1"
  type: "Scale"
  bottom: "RGBres3a_branch1"
  top: "RGBres3a_branch1"
  param {
    lr_mult: 0.1
    decay_mult: 1
  }
  param {
    lr_mult: 0.1
    decay_mult: 1
  }
  scale_param {
    bias_term: true
  }
}
layer {
  name: "RGBres3a_branch2a"
  type: "Convolution"
  bottom: "RGBres2c"
  top: "RGBres3a_branch2a"
  param {
    lr_mult: 0.1
    decay_mult: 1
  }
  convolution_param {
    num_output: 128
    bias_term: false
    pad: 0
    kernel_size: 1
    stride: 2
  }
}
layer {
  name: "RGBbn3a_branch2a"
  type: "BatchNorm"
  bottom: "RGBres3a_branch2a"
  top: "RGBres3a_branch2a"
  param {
    lr_mult: 0
    decay_mult: 0
  }
  param {
    lr_mult: 0
    decay_mult: 0
  }
  param {
    lr_mult: 0
    decay_mult: 0
  }
  batch_norm_param {
    use_global_stats: true
  }
}
layer {
  name: "RGBscale3a_branch2a"
  type: "Scale"
  bottom: "RGBres3a_branch2a"
  top: "RGBres3a_branch2a"
  param {
    lr_mult: 0.1
    decay_mult: 1
  }
  param {
    lr_mult: 0.1
    decay_mult: 1
  }
  scale_param {
    bias_term: true
  }
}
layer {
  name: "RGBres3a_branch2a_relu"
  type: "ReLU"
  bottom: "RGBres3a_branch2a"
  top: "RGBres3a_branch2a"
}
layer {
  name: "RGBres3a_branch2b"
  type: "Convolution"
  bottom: "RGBres3a_branch2a"
  top: "RGBres3a_branch2b"
  param {
    lr_mult: 0.1
    decay_mult: 1
  }
  convolution_param {
    num_output: 128
    bias_term: false
    pad: 1
    kernel_size: 3
    stride: 1
  }
}
layer {
  name: "RGBbn3a_branch2b"
  type: "BatchNorm"
  bottom: "RGBres3a_branch2b"
  top: "RGBres3a_branch2b"
  param {
    lr_mult: 0
    decay_mult: 0
  }
  param {
    lr_mult: 0
    decay_mult: 0
  }
  param {
    lr_mult: 0
    decay_mult: 0
  }
  batch_norm_param {
    use_global_stats: true
  }
}
layer {
  name: "RGBscale3a_branch2b"
  type: "Scale"
  bottom: "RGBres3a_branch2b"
  top: "RGBres3a_branch2b"
  param {
    lr_mult: 0.1
    decay_mult: 1
  }
  param {
    lr_mult: 0.1
    decay_mult: 1
  }
  scale_param {
    bias_term: true
  }
}
layer {
  name: "RGBres3a_branch2b_relu"
  type: "ReLU"
  bottom: "RGBres3a_branch2b"
  top: "RGBres3a_branch2b"
}
layer {
  name: "RGBres3a_branch2c"
  type: "Convolution"
  bottom: "RGBres3a_branch2b"
  top: "RGBres3a_branch2c"
  param {
    lr_mult: 0.1
    decay_mult: 1
  }
  convolution_param {
    num_output: 512
    bias_term: false
    pad: 0
    kernel_size: 1
    stride: 1
  }
}
layer {
  name: "RGBbn3a_branch2c"
  type: "BatchNorm"
  bottom: "RGBres3a_branch2c"
  top: "RGBres3a_branch2c"
  param {
    lr_mult: 0
    decay_mult: 0
  }
  param {
    lr_mult: 0
    decay_mult: 0
  }
  param {
    lr_mult: 0
    decay_mult: 0
  }
  batch_norm_param {
    use_global_stats: true
  }
}
layer {
  name: "RGBscale3a_branch2c"
  type: "Scale"
  bottom: "RGBres3a_branch2c"
  top: "RGBres3a_branch2c"
  param {
    lr_mult: 0.1
    decay_mult: 1
  }
  param {
    lr_mult: 0.1
    decay_mult: 1
  }
  scale_param {
    bias_term: true
  }
}
layer {
  name: "RGBres3a"
  type: "Eltwise"
  bottom: "RGBres3a_branch1"
  bottom: "RGBres3a_branch2c"
  top: "RGBres3a"
  eltwise_param {
    operation: SUM
  }
}
layer {
  name: "RGBres3a_relu"
  type: "ReLU"
  bottom: "RGBres3a"
  top: "RGBres3a"
}
layer {
  name: "RGBres3b1_branch2a"
  type: "Convolution"
  bottom: "RGBres3a"
  top: "RGBres3b1_branch2a"
  param {
    lr_mult: 0.1
    decay_mult: 1
  }
  convolution_param {
    num_output: 128
    bias_term: false
    pad: 0
    kernel_size: 1
    stride: 1
  }
}
layer {
  name: "RGBbn3b1_branch2a"
  type: "BatchNorm"
  bottom: "RGBres3b1_branch2a"
  top: "RGBres3b1_branch2a"
  param {
    lr_mult: 0
    decay_mult: 0
  }
  param {
    lr_mult: 0
    decay_mult: 0
  }
  param {
    lr_mult: 0
    decay_mult: 0
  }
  batch_norm_param {
    use_global_stats: true
  }
}
layer {
  name: "RGBscale3b1_branch2a"
  type: "Scale"
  bottom: "RGBres3b1_branch2a"
  top: "RGBres3b1_branch2a"
  param {
    lr_mult: 0.1
    decay_mult: 1
  }
  param {
    lr_mult: 0.1
    decay_mult: 1
  }
  scale_param {
    bias_term: true
  }
}
layer {
  name: "RGBres3b1_branch2a_relu"
  type: "ReLU"
  bottom: "RGBres3b1_branch2a"
  top: "RGBres3b1_branch2a"
}
layer {
  name: "RGBres3b1_branch2b"
  type: "Convolution"
  bottom: "RGBres3b1_branch2a"
  top: "RGBres3b1_branch2b"
  param {
    lr_mult: 0.1
    decay_mult: 1
  }
  convolution_param {
    num_output: 128
    bias_term: false
    pad: 1
    kernel_size: 3
    stride: 1
  }
}
layer {
  name: "RGBbn3b1_branch2b"
  type: "BatchNorm"
  bottom: "RGBres3b1_branch2b"
  top: "RGBres3b1_branch2b"
  param {
    lr_mult: 0
    decay_mult: 0
  }
  param {
    lr_mult: 0
    decay_mult: 0
  }
  param {
    lr_mult: 0
    decay_mult: 0
  }
  batch_norm_param {
    use_global_stats: true
  }
}
layer {
  name: "RGBscale3b1_branch2b"
  type: "Scale"
  bottom: "RGBres3b1_branch2b"
  top: "RGBres3b1_branch2b"
  param {
    lr_mult: 0.1
    decay_mult: 1
  }
  param {
    lr_mult: 0.1
    decay_mult: 1
  }
  scale_param {
    bias_term: true
  }
}
layer {
  name: "RGBres3b1_branch2b_relu"
  type: "ReLU"
  bottom: "RGBres3b1_branch2b"
  top: "RGBres3b1_branch2b"
}
layer {
  name: "RGBres3b1_branch2c"
  type: "Convolution"
  bottom: "RGBres3b1_branch2b"
  top: "RGBres3b1_branch2c"
  param {
    lr_mult: 0.1
    decay_mult: 1
  }
  convolution_param {
    num_output: 512
    bias_term: false
    pad: 0
    kernel_size: 1
    stride: 1
  }
}
layer {
  name: "RGBbn3b1_branch2c"
  type: "BatchNorm"
  bottom: "RGBres3b1_branch2c"
  top: "RGBres3b1_branch2c"
  param {
    lr_mult: 0
    decay_mult: 0
  }
  param {
    lr_mult: 0
    decay_mult: 0
  }
  param {
    lr_mult: 0
    decay_mult: 0
  }
  batch_norm_param {
    use_global_stats: true
  }
}
layer {
  name: "RGBscale3b1_branch2c"
  type: "Scale"
  bottom: "RGBres3b1_branch2c"
  top: "RGBres3b1_branch2c"
  param {
    lr_mult: 0.1
    decay_mult: 1
  }
  param {
    lr_mult: 0.1
    decay_mult: 1
  }
  scale_param {
    bias_term: true
  }
}
layer {
  name: "RGBres3b1"
  type: "Eltwise"
  bottom: "RGBres3a"
  bottom: "RGBres3b1_branch2c"
  top: "RGBres3b1"
  eltwise_param {
    operation: SUM
  }
}
layer {
  name: "RGBres3b1_relu"
  type: "ReLU"
  bottom: "RGBres3b1"
  top: "RGBres3b1"
}
layer {
  name: "RGBres3b2_branch2a"
  type: "Convolution"
  bottom: "RGBres3b1"
  top: "RGBres3b2_branch2a"
  param {
    lr_mult: 0.1
    decay_mult: 1
  }
  convolution_param {
    num_output: 128
    bias_term: false
    pad: 0
    kernel_size: 1
    stride: 1
  }
}
layer {
  name: "RGBbn3b2_branch2a"
  type: "BatchNorm"
  bottom: "RGBres3b2_branch2a"
  top: "RGBres3b2_branch2a"
  param {
    lr_mult: 0
    decay_mult: 0
  }
  param {
    lr_mult: 0
    decay_mult: 0
  }
  param {
    lr_mult: 0
    decay_mult: 0
  }
  batch_norm_param {
    use_global_stats: true
  }
}
layer {
  name: "RGBscale3b2_branch2a"
  type: "Scale"
  bottom: "RGBres3b2_branch2a"
  top: "RGBres3b2_branch2a"
  param {
    lr_mult: 0.1
    decay_mult: 1
  }
  param {
    lr_mult: 0.1
    decay_mult: 1
  }
  scale_param {
    bias_term: true
  }
}
layer {
  name: "RGBres3b2_branch2a_relu"
  type: "ReLU"
  bottom: "RGBres3b2_branch2a"
  top: "RGBres3b2_branch2a"
}
layer {
  name: "RGBres3b2_branch2b"
  type: "Convolution"
  bottom: "RGBres3b2_branch2a"
  top: "RGBres3b2_branch2b"
  param {
    lr_mult: 0.1
    decay_mult: 1
  }
  convolution_param {
    num_output: 128
    bias_term: false
    pad: 1
    kernel_size: 3
    stride: 1
  }
}
layer {
  name: "RGBbn3b2_branch2b"
  type: "BatchNorm"
  bottom: "RGBres3b2_branch2b"
  top: "RGBres3b2_branch2b"
  param {
    lr_mult: 0
    decay_mult: 0
  }
  param {
    lr_mult: 0
    decay_mult: 0
  }
  param {
    lr_mult: 0
    decay_mult: 0
  }
  batch_norm_param {
    use_global_stats: true
  }
}
layer {
  name: "RGBscale3b2_branch2b"
  type: "Scale"
  bottom: "RGBres3b2_branch2b"
  top: "RGBres3b2_branch2b"
  param {
    lr_mult: 0.1
    decay_mult: 1
  }
  param {
    lr_mult: 0.1
    decay_mult: 1
  }
  scale_param {
    bias_term: true
  }
}
layer {
  name: "RGBres3b2_branch2b_relu"
  type: "ReLU"
  bottom: "RGBres3b2_branch2b"
  top: "RGBres3b2_branch2b"
}
layer {
  name: "RGBres3b2_branch2c"
  type: "Convolution"
  bottom: "RGBres3b2_branch2b"
  top: "RGBres3b2_branch2c"
  param {
    lr_mult: 0.1
    decay_mult: 1
  }
  convolution_param {
    num_output: 512
    bias_term: false
    pad: 0
    kernel_size: 1
    stride: 1
  }
}
layer {
  name: "RGBbn3b2_branch2c"
  type: "BatchNorm"
  bottom: "RGBres3b2_branch2c"
  top: "RGBres3b2_branch2c"
  param {
    lr_mult: 0
    decay_mult: 0
  }
  param {
    lr_mult: 0
    decay_mult: 0
  }
  param {
    lr_mult: 0
    decay_mult: 0
  }
  batch_norm_param {
    use_global_stats: true
  }
}
layer {
  name: "RGBscale3b2_branch2c"
  type: "Scale"
  bottom: "RGBres3b2_branch2c"
  top: "RGBres3b2_branch2c"
  param {
    lr_mult: 0.1
    decay_mult: 1
  }
  param {
    lr_mult: 0.1
    decay_mult: 1
  }
  scale_param {
    bias_term: true
  }
}
layer {
  name: "RGBres3b2"
  type: "Eltwise"
  bottom: "RGBres3b1"
  bottom: "RGBres3b2_branch2c"
  top: "RGBres3b2"
  eltwise_param {
    operation: SUM
  }
}
layer {
  name: "RGBres3b2_relu"
  type: "ReLU"
  bottom: "RGBres3b2"
  top: "RGBres3b2"
}
layer {
  name: "RGBres3b3_branch2a"
  type: "Convolution"
  bottom: "RGBres3b2"
  top: "RGBres3b3_branch2a"
  param {
    lr_mult: 0.1
    decay_mult: 1
  }
  convolution_param {
    num_output: 128
    bias_term: false
    pad: 0
    kernel_size: 1
    stride: 1
  }
}
layer {
  name: "RGBbn3b3_branch2a"
  type: "BatchNorm"
  bottom: "RGBres3b3_branch2a"
  top: "RGBres3b3_branch2a"
  param {
    lr_mult: 0
    decay_mult: 0
  }
  param {
    lr_mult: 0
    decay_mult: 0
  }
  param {
    lr_mult: 0
    decay_mult: 0
  }
  batch_norm_param {
    use_global_stats: true
  }
}
layer {
  name: "RGBscale3b3_branch2a"
  type: "Scale"
  bottom: "RGBres3b3_branch2a"
  top: "RGBres3b3_branch2a"
  param {
    lr_mult: 0.1
    decay_mult: 1
  }
  param {
    lr_mult: 0.1
    decay_mult: 1
  }
  scale_param {
    bias_term: true
  }
}
layer {
  name: "RGBres3b3_branch2a_relu"
  type: "ReLU"
  bottom: "RGBres3b3_branch2a"
  top: "RGBres3b3_branch2a"
}
layer {
  name: "RGBres3b3_branch2b"
  type: "Convolution"
  bottom: "RGBres3b3_branch2a"
  top: "RGBres3b3_branch2b"
  param {
    lr_mult: 0.1
    decay_mult: 1
  }
  convolution_param {
    num_output: 128
    bias_term: false
    pad: 1
    kernel_size: 3
    stride: 1
  }
}
layer {
  name: "RGBbn3b3_branch2b"
  type: "BatchNorm"
  bottom: "RGBres3b3_branch2b"
  top: "RGBres3b3_branch2b"
  param {
    lr_mult: 0
    decay_mult: 0
  }
  param {
    lr_mult: 0
    decay_mult: 0
  }
  param {
    lr_mult: 0
    decay_mult: 0
  }
  batch_norm_param {
    use_global_stats: true
  }
}
layer {
  name: "RGBscale3b3_branch2b"
  type: "Scale"
  bottom: "RGBres3b3_branch2b"
  top: "RGBres3b3_branch2b"
  param {
    lr_mult: 0.1
    decay_mult: 1
  }
  param {
    lr_mult: 0.1
    decay_mult: 1
  }
  scale_param {
    bias_term: true
  }
}
layer {
  name: "RGBres3b3_branch2b_relu"
  type: "ReLU"
  bottom: "RGBres3b3_branch2b"
  top: "RGBres3b3_branch2b"
}
layer {
  name: "RGBres3b3_branch2c"
  type: "Convolution"
  bottom: "RGBres3b3_branch2b"
  top: "RGBres3b3_branch2c"
  param {
    lr_mult: 0.1
    decay_mult: 1
  }
  convolution_param {
    num_output: 512
    bias_term: false
    pad: 0
    kernel_size: 1
    stride: 1
  }
}
layer {
  name: "RGBbn3b3_branch2c"
  type: "BatchNorm"
  bottom: "RGBres3b3_branch2c"
  top: "RGBres3b3_branch2c"
  param {
    lr_mult: 0
    decay_mult: 0
  }
  param {
    lr_mult: 0
    decay_mult: 0
  }
  param {
    lr_mult: 0
    decay_mult: 0
  }
  batch_norm_param {
    use_global_stats: true
  }
}
layer {
  name: "RGBscale3b3_branch2c"
  type: "Scale"
  bottom: "RGBres3b3_branch2c"
  top: "RGBres3b3_branch2c"
  param {
    lr_mult: 0.1
    decay_mult: 1
  }
  param {
    lr_mult: 0.1
    decay_mult: 1
  }
  scale_param {
    bias_term: true
  }
}
layer {
  name: "RGBres3b3"
  type: "Eltwise"
  bottom: "RGBres3b2"
  bottom: "RGBres3b3_branch2c"
  top: "RGBres3b3"
  eltwise_param {
    operation: SUM
  }
}
layer {
  name: "RGBres3b3_relu"
  type: "ReLU"
  bottom: "RGBres3b3"
  top: "RGBres3b3"
}
layer {
  name: "RGBres3b4_branch2a"
  type: "Convolution"
  bottom: "RGBres3b3"
  top: "RGBres3b4_branch2a"
  param {
    lr_mult: 0.1
    decay_mult: 1
  }
  convolution_param {
    num_output: 128
    bias_term: false
    pad: 0
    kernel_size: 1
    stride: 1
  }
}
layer {
  name: "RGBbn3b4_branch2a"
  type: "BatchNorm"
  bottom: "RGBres3b4_branch2a"
  top: "RGBres3b4_branch2a"
  param {
    lr_mult: 0
    decay_mult: 0
  }
  param {
    lr_mult: 0
    decay_mult: 0
  }
  param {
    lr_mult: 0
    decay_mult: 0
  }
  batch_norm_param {
    use_global_stats: true
  }
}
layer {
  name: "RGBscale3b4_branch2a"
  type: "Scale"
  bottom: "RGBres3b4_branch2a"
  top: "RGBres3b4_branch2a"
  param {
    lr_mult: 0.1
    decay_mult: 1
  }
  param {
    lr_mult: 0.1
    decay_mult: 1
  }
  scale_param {
    bias_term: true
  }
}
layer {
  name: "RGBres3b4_branch2a_relu"
  type: "ReLU"
  bottom: "RGBres3b4_branch2a"
  top: "RGBres3b4_branch2a"
}
layer {
  name: "RGBres3b4_branch2b"
  type: "Convolution"
  bottom: "RGBres3b4_branch2a"
  top: "RGBres3b4_branch2b"
  param {
    lr_mult: 0.1
    decay_mult: 1
  }
  convolution_param {
    num_output: 128
    bias_term: false
    pad: 1
    kernel_size: 3
    stride: 1
  }
}
layer {
  name: "RGBbn3b4_branch2b"
  type: "BatchNorm"
  bottom: "RGBres3b4_branch2b"
  top: "RGBres3b4_branch2b"
  param {
    lr_mult: 0
    decay_mult: 0
  }
  param {
    lr_mult: 0
    decay_mult: 0
  }
  param {
    lr_mult: 0
    decay_mult: 0
  }
  batch_norm_param {
    use_global_stats: true
  }
}
layer {
  name: "RGBscale3b4_branch2b"
  type: "Scale"
  bottom: "RGBres3b4_branch2b"
  top: "RGBres3b4_branch2b"
  param {
    lr_mult: 0.1
    decay_mult: 1
  }
  param {
    lr_mult: 0.1
    decay_mult: 1
  }
  scale_param {
    bias_term: true
  }
}
layer {
  name: "RGBres3b4_branch2b_relu"
  type: "ReLU"
  bottom: "RGBres3b4_branch2b"
  top: "RGBres3b4_branch2b"
}
layer {
  name: "RGBres3b4_branch2c"
  type: "Convolution"
  bottom: "RGBres3b4_branch2b"
  top: "RGBres3b4_branch2c"
  param {
    lr_mult: 0.1
    decay_mult: 1
  }
  convolution_param {
    num_output: 512
    bias_term: false
    pad: 0
    kernel_size: 1
    stride: 1
  }
}
layer {
  name: "RGBbn3b4_branch2c"
  type: "BatchNorm"
  bottom: "RGBres3b4_branch2c"
  top: "RGBres3b4_branch2c"
  param {
    lr_mult: 0
    decay_mult: 0
  }
  param {
    lr_mult: 0
    decay_mult: 0
  }
  param {
    lr_mult: 0
    decay_mult: 0
  }
  batch_norm_param {
    use_global_stats: true
  }
}
layer {
  name: "RGBscale3b4_branch2c"
  type: "Scale"
  bottom: "RGBres3b4_branch2c"
  top: "RGBres3b4_branch2c"
  param {
    lr_mult: 0.1
    decay_mult: 1
  }
  param {
    lr_mult: 0.1
    decay_mult: 1
  }
  scale_param {
    bias_term: true
  }
}
layer {
  name: "RGBres3b4"
  type: "Eltwise"
  bottom: "RGBres3b3"
  bottom: "RGBres3b4_branch2c"
  top: "RGBres3b4"
  eltwise_param {
    operation: SUM
  }
}
layer {
  name: "RGBres3b4_relu"
  type: "ReLU"
  bottom: "RGBres3b4"
  top: "RGBres3b4"
}
layer {
  name: "RGBres3b5_branch2a"
  type: "Convolution"
  bottom: "RGBres3b4"
  top: "RGBres3b5_branch2a"
  param {
    lr_mult: 0.1
    decay_mult: 1
  }
  convolution_param {
    num_output: 128
    bias_term: false
    pad: 0
    kernel_size: 1
    stride: 1
  }
}
layer {
  name: "RGBbn3b5_branch2a"
  type: "BatchNorm"
  bottom: "RGBres3b5_branch2a"
  top: "RGBres3b5_branch2a"
  param {
    lr_mult: 0
    decay_mult: 0
  }
  param {
    lr_mult: 0
    decay_mult: 0
  }
  param {
    lr_mult: 0
    decay_mult: 0
  }
  batch_norm_param {
    use_global_stats: true
  }
}
layer {
  name: "RGBscale3b5_branch2a"
  type: "Scale"
  bottom: "RGBres3b5_branch2a"
  top: "RGBres3b5_branch2a"
  param {
    lr_mult: 0.1
    decay_mult: 1
  }
  param {
    lr_mult: 0.1
    decay_mult: 1
  }
  scale_param {
    bias_term: true
  }
}
layer {
  name: "RGBres3b5_branch2a_relu"
  type: "ReLU"
  bottom: "RGBres3b5_branch2a"
  top: "RGBres3b5_branch2a"
}
layer {
  name: "RGBres3b5_branch2b"
  type: "Convolution"
  bottom: "RGBres3b5_branch2a"
  top: "RGBres3b5_branch2b"
  param {
    lr_mult: 0.1
    decay_mult: 1
  }
  convolution_param {
    num_output: 128
    bias_term: false
    pad: 1
    kernel_size: 3
    stride: 1
  }
}
layer {
  name: "RGBbn3b5_branch2b"
  type: "BatchNorm"
  bottom: "RGBres3b5_branch2b"
  top: "RGBres3b5_branch2b"
  param {
    lr_mult: 0
    decay_mult: 0
  }
  param {
    lr_mult: 0
    decay_mult: 0
  }
  param {
    lr_mult: 0
    decay_mult: 0
  }
  batch_norm_param {
    use_global_stats: true
  }
}
layer {
  name: "RGBscale3b5_branch2b"
  type: "Scale"
  bottom: "RGBres3b5_branch2b"
  top: "RGBres3b5_branch2b"
  param {
    lr_mult: 0.1
    decay_mult: 1
  }
  param {
    lr_mult: 0.1
    decay_mult: 1
  }
  scale_param {
    bias_term: true
  }
}
layer {
  name: "RGBres3b5_branch2b_relu"
  type: "ReLU"
  bottom: "RGBres3b5_branch2b"
  top: "RGBres3b5_branch2b"
}
layer {
  name: "RGBres3b5_branch2c"
  type: "Convolution"
  bottom: "RGBres3b5_branch2b"
  top: "RGBres3b5_branch2c"
  param {
    lr_mult: 0.1
    decay_mult: 1
  }
  convolution_param {
    num_output: 512
    bias_term: false
    pad: 0
    kernel_size: 1
    stride: 1
  }
}
layer {
  name: "RGBbn3b5_branch2c"
  type: "BatchNorm"
  bottom: "RGBres3b5_branch2c"
  top: "RGBres3b5_branch2c"
  param {
    lr_mult: 0
    decay_mult: 0
  }
  param {
    lr_mult: 0
    decay_mult: 0
  }
  param {
    lr_mult: 0
    decay_mult: 0
  }
  batch_norm_param {
    use_global_stats: true
  }
}
layer {
  name: "RGBscale3b5_branch2c"
  type: "Scale"
  bottom: "RGBres3b5_branch2c"
  top: "RGBres3b5_branch2c"
  param {
    lr_mult: 0.1
    decay_mult: 1
  }
  param {
    lr_mult: 0.1
    decay_mult: 1
  }
  scale_param {
    bias_term: true
  }
}
layer {
  name: "RGBres3b5"
  type: "Eltwise"
  bottom: "RGBres3b4"
  bottom: "RGBres3b5_branch2c"
  top: "RGBres3b5"
  eltwise_param {
    operation: SUM
  }
}
layer {
  name: "RGBres3b5_relu"
  type: "ReLU"
  bottom: "RGBres3b5"
  top: "RGBres3b5"
}
layer {
  name: "RGBres3b6_branch2a"
  type: "Convolution"
  bottom: "RGBres3b5"
  top: "RGBres3b6_branch2a"
  param {
    lr_mult: 0.1
    decay_mult: 1
  }
  convolution_param {
    num_output: 128
    bias_term: false
    pad: 0
    kernel_size: 1
    stride: 1
  }
}
layer {
  name: "RGBbn3b6_branch2a"
  type: "BatchNorm"
  bottom: "RGBres3b6_branch2a"
  top: "RGBres3b6_branch2a"
  param {
    lr_mult: 0
    decay_mult: 0
  }
  param {
    lr_mult: 0
    decay_mult: 0
  }
  param {
    lr_mult: 0
    decay_mult: 0
  }
  batch_norm_param {
    use_global_stats: true
  }
}
layer {
  name: "RGBscale3b6_branch2a"
  type: "Scale"
  bottom: "RGBres3b6_branch2a"
  top: "RGBres3b6_branch2a"
  param {
    lr_mult: 0.1
    decay_mult: 1
  }
  param {
    lr_mult: 0.1
    decay_mult: 1
  }
  scale_param {
    bias_term: true
  }
}
layer {
  name: "RGBres3b6_branch2a_relu"
  type: "ReLU"
  bottom: "RGBres3b6_branch2a"
  top: "RGBres3b6_branch2a"
}
layer {
  name: "RGBres3b6_branch2b"
  type: "Convolution"
  bottom: "RGBres3b6_branch2a"
  top: "RGBres3b6_branch2b"
  param {
    lr_mult: 0.1
    decay_mult: 1
  }
  convolution_param {
    num_output: 128
    bias_term: false
    pad: 1
    kernel_size: 3
    stride: 1
  }
}
layer {
  name: "RGBbn3b6_branch2b"
  type: "BatchNorm"
  bottom: "RGBres3b6_branch2b"
  top: "RGBres3b6_branch2b"
  param {
    lr_mult: 0
    decay_mult: 0
  }
  param {
    lr_mult: 0
    decay_mult: 0
  }
  param {
    lr_mult: 0
    decay_mult: 0
  }
  batch_norm_param {
    use_global_stats: true
  }
}
layer {
  name: "RGBscale3b6_branch2b"
  type: "Scale"
  bottom: "RGBres3b6_branch2b"
  top: "RGBres3b6_branch2b"
  param {
    lr_mult: 0.1
    decay_mult: 1
  }
  param {
    lr_mult: 0.1
    decay_mult: 1
  }
  scale_param {
    bias_term: true
  }
}
layer {
  name: "RGBres3b6_branch2b_relu"
  type: "ReLU"
  bottom: "RGBres3b6_branch2b"
  top: "RGBres3b6_branch2b"
}
layer {
  name: "RGBres3b6_branch2c"
  type: "Convolution"
  bottom: "RGBres3b6_branch2b"
  top: "RGBres3b6_branch2c"
  param {
    lr_mult: 0.1
    decay_mult: 1
  }
  convolution_param {
    num_output: 512
    bias_term: false
    pad: 0
    kernel_size: 1
    stride: 1
  }
}
layer {
  name: "RGBbn3b6_branch2c"
  type: "BatchNorm"
  bottom: "RGBres3b6_branch2c"
  top: "RGBres3b6_branch2c"
  param {
    lr_mult: 0
    decay_mult: 0
  }
  param {
    lr_mult: 0
    decay_mult: 0
  }
  param {
    lr_mult: 0
    decay_mult: 0
  }
  batch_norm_param {
    use_global_stats: true
  }
}
layer {
  name: "RGBscale3b6_branch2c"
  type: "Scale"
  bottom: "RGBres3b6_branch2c"
  top: "RGBres3b6_branch2c"
  param {
    lr_mult: 0.1
    decay_mult: 1
  }
  param {
    lr_mult: 0.1
    decay_mult: 1
  }
  scale_param {
    bias_term: true
  }
}
layer {
  name: "RGBres3b6"
  type: "Eltwise"
  bottom: "RGBres3b5"
  bottom: "RGBres3b6_branch2c"
  top: "RGBres3b6"
  eltwise_param {
    operation: SUM
  }
}
layer {
  name: "RGBres3b6_relu"
  type: "ReLU"
  bottom: "RGBres3b6"
  top: "RGBres3b6"
}
layer {
  name: "RGBres3b7_branch2a"
  type: "Convolution"
  bottom: "RGBres3b6"
  top: "RGBres3b7_branch2a"
  param {
    lr_mult: 0.1
    decay_mult: 1
  }
  convolution_param {
    num_output: 128
    bias_term: false
    pad: 0
    kernel_size: 1
    stride: 1
  }
}
layer {
  name: "RGBbn3b7_branch2a"
  type: "BatchNorm"
  bottom: "RGBres3b7_branch2a"
  top: "RGBres3b7_branch2a"
  param {
    lr_mult: 0
    decay_mult: 0
  }
  param {
    lr_mult: 0
    decay_mult: 0
  }
  param {
    lr_mult: 0
    decay_mult: 0
  }
  batch_norm_param {
    use_global_stats: true
  }
}
layer {
  name: "RGBscale3b7_branch2a"
  type: "Scale"
  bottom: "RGBres3b7_branch2a"
  top: "RGBres3b7_branch2a"
  param {
    lr_mult: 0.1
    decay_mult: 1
  }
  param {
    lr_mult: 0.1
    decay_mult: 1
  }
  scale_param {
    bias_term: true
  }
}
layer {
  name: "RGBres3b7_branch2a_relu"
  type: "ReLU"
  bottom: "RGBres3b7_branch2a"
  top: "RGBres3b7_branch2a"
}
layer {
  name: "RGBres3b7_branch2b"
  type: "Convolution"
  bottom: "RGBres3b7_branch2a"
  top: "RGBres3b7_branch2b"
  param {
    lr_mult: 0.1
    decay_mult: 1
  }
  convolution_param {
    num_output: 128
    bias_term: false
    pad: 1
    kernel_size: 3
    stride: 1
  }
}
layer {
  name: "RGBbn3b7_branch2b"
  type: "BatchNorm"
  bottom: "RGBres3b7_branch2b"
  top: "RGBres3b7_branch2b"
  param {
    lr_mult: 0
    decay_mult: 0
  }
  param {
    lr_mult: 0
    decay_mult: 0
  }
  param {
    lr_mult: 0
    decay_mult: 0
  }
  batch_norm_param {
    use_global_stats: true
  }
}
layer {
  name: "RGBscale3b7_branch2b"
  type: "Scale"
  bottom: "RGBres3b7_branch2b"
  top: "RGBres3b7_branch2b"
  param {
    lr_mult: 0.1
    decay_mult: 1
  }
  param {
    lr_mult: 0.1
    decay_mult: 1
  }
  scale_param {
    bias_term: true
  }
}
layer {
  name: "RGBres3b7_branch2b_relu"
  type: "ReLU"
  bottom: "RGBres3b7_branch2b"
  top: "RGBres3b7_branch2b"
}
layer {
  name: "RGBres3b7_branch2c"
  type: "Convolution"
  bottom: "RGBres3b7_branch2b"
  top: "RGBres3b7_branch2c"
  param {
    lr_mult: 0.1
    decay_mult: 1
  }
  convolution_param {
    num_output: 512
    bias_term: false
    pad: 0
    kernel_size: 1
    stride: 1
  }
}
layer {
  name: "RGBbn3b7_branch2c"
  type: "BatchNorm"
  bottom: "RGBres3b7_branch2c"
  top: "RGBres3b7_branch2c"
  param {
    lr_mult: 0
    decay_mult: 0
  }
  param {
    lr_mult: 0
    decay_mult: 0
  }
  param {
    lr_mult: 0
    decay_mult: 0
  }
  batch_norm_param {
    use_global_stats: true
  }
}
layer {
  name: "RGBscale3b7_branch2c"
  type: "Scale"
  bottom: "RGBres3b7_branch2c"
  top: "RGBres3b7_branch2c"
  param {
    lr_mult: 0.1
    decay_mult: 1
  }
  param {
    lr_mult: 0.1
    decay_mult: 1
  }
  scale_param {
    bias_term: true
  }
}
layer {
  name: "RGBres3b7"
  type: "Eltwise"
  bottom: "RGBres3b6"
  bottom: "RGBres3b7_branch2c"
  top: "RGBres3b7"
  eltwise_param {
    operation: SUM
  }
}
layer {
  name: "RGBres3b7_relu"
  type: "ReLU"
  bottom: "RGBres3b7"
  top: "RGBres3b7"
}
layer {
  name: "RGBres4a_branch1"
  type: "Convolution"
  bottom: "RGBres3b7"
  top: "RGBres4a_branch1"
  param {
    lr_mult: 0.1
    decay_mult: 1
  }
  convolution_param {
    num_output: 1024
    bias_term: false
    pad: 0
    kernel_size: 1
    stride: 2
  }
}
layer {
  name: "RGBbn4a_branch1"
  type: "BatchNorm"
  bottom: "RGBres4a_branch1"
  top: "RGBres4a_branch1"
  param {
    lr_mult: 0
    decay_mult: 0
  }
  param {
    lr_mult: 0
    decay_mult: 0
  }
  param {
    lr_mult: 0
    decay_mult: 0
  }
  batch_norm_param {
    use_global_stats: true
  }
}
layer {
  name: "RGBscale4a_branch1"
  type: "Scale"
  bottom: "RGBres4a_branch1"
  top: "RGBres4a_branch1"
  param {
    lr_mult: 0.1
    decay_mult: 1
  }
  param {
    lr_mult: 0.1
    decay_mult: 1
  }
  scale_param {
    bias_term: true
  }
}
layer {
  name: "RGBres4a_branch2a"
  type: "Convolution"
  bottom: "RGBres3b7"
  top: "RGBres4a_branch2a"
  param {
    lr_mult: 0.1
    decay_mult: 1
  }
  convolution_param {
    num_output: 256
    bias_term: false
    pad: 0
    kernel_size: 1
    stride: 2
  }
}
layer {
  name: "RGBbn4a_branch2a"
  type: "BatchNorm"
  bottom: "RGBres4a_branch2a"
  top: "RGBres4a_branch2a"
  param {
    lr_mult: 0
    decay_mult: 0
  }
  param {
    lr_mult: 0
    decay_mult: 0
  }
  param {
    lr_mult: 0
    decay_mult: 0
  }
  batch_norm_param {
    use_global_stats: true
  }
}
layer {
  name: "RGBscale4a_branch2a"
  type: "Scale"
  bottom: "RGBres4a_branch2a"
  top: "RGBres4a_branch2a"
  param {
    lr_mult: 0.1
    decay_mult: 1
  }
  param {
    lr_mult: 0.1
    decay_mult: 1
  }
  scale_param {
    bias_term: true
  }
}
layer {
  name: "RGBres4a_branch2a_relu"
  type: "ReLU"
  bottom: "RGBres4a_branch2a"
  top: "RGBres4a_branch2a"
}
layer {
  name: "RGBres4a_branch2b"
  type: "Convolution"
  bottom: "RGBres4a_branch2a"
  top: "RGBres4a_branch2b"
  param {
    lr_mult: 0.1
    decay_mult: 1
  }
  convolution_param {
    num_output: 256
    bias_term: false
    pad: 1
    kernel_size: 3
    stride: 1
  }
}
layer {
  name: "RGBbn4a_branch2b"
  type: "BatchNorm"
  bottom: "RGBres4a_branch2b"
  top: "RGBres4a_branch2b"
  param {
    lr_mult: 0
    decay_mult: 0
  }
  param {
    lr_mult: 0
    decay_mult: 0
  }
  param {
    lr_mult: 0
    decay_mult: 0
  }
  batch_norm_param {
    use_global_stats: true
  }
}
layer {
  name: "RGBscale4a_branch2b"
  type: "Scale"
  bottom: "RGBres4a_branch2b"
  top: "RGBres4a_branch2b"
  param {
    lr_mult: 0.1
    decay_mult: 1
  }
  param {
    lr_mult: 0.1
    decay_mult: 1
  }
  scale_param {
    bias_term: true
  }
}
layer {
  name: "RGBres4a_branch2b_relu"
  type: "ReLU"
  bottom: "RGBres4a_branch2b"
  top: "RGBres4a_branch2b"
}
layer {
  name: "RGBres4a_branch2c"
  type: "Convolution"
  bottom: "RGBres4a_branch2b"
  top: "RGBres4a_branch2c"
  param {
    lr_mult: 0.1
    decay_mult: 1
  }
  convolution_param {
    num_output: 1024
    bias_term: false
    pad: 0
    kernel_size: 1
    stride: 1
  }
}
layer {
  name: "RGBbn4a_branch2c"
  type: "BatchNorm"
  bottom: "RGBres4a_branch2c"
  top: "RGBres4a_branch2c"
  param {
    lr_mult: 0
    decay_mult: 0
  }
  param {
    lr_mult: 0
    decay_mult: 0
  }
  param {
    lr_mult: 0
    decay_mult: 0
  }
  batch_norm_param {
    use_global_stats: true
  }
}
layer {
  name: "RGBscale4a_branch2c"
  type: "Scale"
  bottom: "RGBres4a_branch2c"
  top: "RGBres4a_branch2c"
  param {
    lr_mult: 0.1
    decay_mult: 1
  }
  param {
    lr_mult: 0.1
    decay_mult: 1
  }
  scale_param {
    bias_term: true
  }
}
layer {
  name: "RGBres4a"
  type: "Eltwise"
  bottom: "RGBres4a_branch1"
  bottom: "RGBres4a_branch2c"
  top: "RGBres4a"
  eltwise_param {
    operation: SUM
  }
}
layer {
  name: "RGBres4a_relu"
  type: "ReLU"
  bottom: "RGBres4a"
  top: "RGBres4a"
}
layer {
  name: "RGBres4b1_branch2a"
  type: "Convolution"
  bottom: "RGBres4a"
  top: "RGBres4b1_branch2a"
  param {
    lr_mult: 0.1
    decay_mult: 1
  }
  convolution_param {
    num_output: 256
    bias_term: false
    pad: 0
    kernel_size: 1
    stride: 1
  }
}
layer {
  name: "RGBbn4b1_branch2a"
  type: "BatchNorm"
  bottom: "RGBres4b1_branch2a"
  top: "RGBres4b1_branch2a"
  param {
    lr_mult: 0
    decay_mult: 0
  }
  param {
    lr_mult: 0
    decay_mult: 0
  }
  param {
    lr_mult: 0
    decay_mult: 0
  }
  batch_norm_param {
    use_global_stats: true
  }
}
layer {
  name: "RGBscale4b1_branch2a"
  type: "Scale"
  bottom: "RGBres4b1_branch2a"
  top: "RGBres4b1_branch2a"
  param {
    lr_mult: 0.1
    decay_mult: 1
  }
  param {
    lr_mult: 0.1
    decay_mult: 1
  }
  scale_param {
    bias_term: true
  }
}
layer {
  name: "RGBres4b1_branch2a_relu"
  type: "ReLU"
  bottom: "RGBres4b1_branch2a"
  top: "RGBres4b1_branch2a"
}
layer {
  name: "RGBres4b1_branch2b"
  type: "Convolution"
  bottom: "RGBres4b1_branch2a"
  top: "RGBres4b1_branch2b"
  param {
    lr_mult: 0.1
    decay_mult: 1
  }
  convolution_param {
    num_output: 256
    bias_term: false
    pad: 1
    kernel_size: 3
    stride: 1
  }
}
layer {
  name: "RGBbn4b1_branch2b"
  type: "BatchNorm"
  bottom: "RGBres4b1_branch2b"
  top: "RGBres4b1_branch2b"
  param {
    lr_mult: 0
    decay_mult: 0
  }
  param {
    lr_mult: 0
    decay_mult: 0
  }
  param {
    lr_mult: 0
    decay_mult: 0
  }
  batch_norm_param {
    use_global_stats: true
  }
}
layer {
  name: "RGBscale4b1_branch2b"
  type: "Scale"
  bottom: "RGBres4b1_branch2b"
  top: "RGBres4b1_branch2b"
  param {
    lr_mult: 0.1
    decay_mult: 1
  }
  param {
    lr_mult: 0.1
    decay_mult: 1
  }
  scale_param {
    bias_term: true
  }
}
layer {
  name: "RGBres4b1_branch2b_relu"
  type: "ReLU"
  bottom: "RGBres4b1_branch2b"
  top: "RGBres4b1_branch2b"
}
layer {
  name: "RGBres4b1_branch2c"
  type: "Convolution"
  bottom: "RGBres4b1_branch2b"
  top: "RGBres4b1_branch2c"
  param {
    lr_mult: 0.1
    decay_mult: 1
  }
  convolution_param {
    num_output: 1024
    bias_term: false
    pad: 0
    kernel_size: 1
    stride: 1
  }
}
layer {
  name: "RGBbn4b1_branch2c"
  type: "BatchNorm"
  bottom: "RGBres4b1_branch2c"
  top: "RGBres4b1_branch2c"
  param {
    lr_mult: 0
    decay_mult: 0
  }
  param {
    lr_mult: 0
    decay_mult: 0
  }
  param {
    lr_mult: 0
    decay_mult: 0
  }
  batch_norm_param {
    use_global_stats: true
  }
}
layer {
  name: "RGBscale4b1_branch2c"
  type: "Scale"
  bottom: "RGBres4b1_branch2c"
  top: "RGBres4b1_branch2c"
  param {
    lr_mult: 0.1
    decay_mult: 1
  }
  param {
    lr_mult: 0.1
    decay_mult: 1
  }
  scale_param {
    bias_term: true
  }
}
layer {
  name: "RGBres4b1"
  type: "Eltwise"
  bottom: "RGBres4a"
  bottom: "RGBres4b1_branch2c"
  top: "RGBres4b1"
  eltwise_param {
    operation: SUM
  }
}
layer {
  name: "RGBres4b1_relu"
  type: "ReLU"
  bottom: "RGBres4b1"
  top: "RGBres4b1"
}
layer {
  name: "RGBres4b2_branch2a"
  type: "Convolution"
  bottom: "RGBres4b1"
  top: "RGBres4b2_branch2a"
  param {
    lr_mult: 0.1
    decay_mult: 1
  }
  convolution_param {
    num_output: 256
    bias_term: false
    pad: 0
    kernel_size: 1
    stride: 1
  }
}
layer {
  name: "RGBbn4b2_branch2a"
  type: "BatchNorm"
  bottom: "RGBres4b2_branch2a"
  top: "RGBres4b2_branch2a"
  param {
    lr_mult: 0
    decay_mult: 0
  }
  param {
    lr_mult: 0
    decay_mult: 0
  }
  param {
    lr_mult: 0
    decay_mult: 0
  }
  batch_norm_param {
    use_global_stats: true
  }
}
layer {
  name: "RGBscale4b2_branch2a"
  type: "Scale"
  bottom: "RGBres4b2_branch2a"
  top: "RGBres4b2_branch2a"
  param {
    lr_mult: 0.1
    decay_mult: 1
  }
  param {
    lr_mult: 0.1
    decay_mult: 1
  }
  scale_param {
    bias_term: true
  }
}
layer {
  name: "RGBres4b2_branch2a_relu"
  type: "ReLU"
  bottom: "RGBres4b2_branch2a"
  top: "RGBres4b2_branch2a"
}
layer {
  name: "RGBres4b2_branch2b"
  type: "Convolution"
  bottom: "RGBres4b2_branch2a"
  top: "RGBres4b2_branch2b"
  param {
    lr_mult: 0.1
    decay_mult: 1
  }
  convolution_param {
    num_output: 256
    bias_term: false
    pad: 1
    kernel_size: 3
    stride: 1
  }
}
layer {
  name: "RGBbn4b2_branch2b"
  type: "BatchNorm"
  bottom: "RGBres4b2_branch2b"
  top: "RGBres4b2_branch2b"
  param {
    lr_mult: 0
    decay_mult: 0
  }
  param {
    lr_mult: 0
    decay_mult: 0
  }
  param {
    lr_mult: 0
    decay_mult: 0
  }
  batch_norm_param {
    use_global_stats: true
  }
}
layer {
  name: "RGBscale4b2_branch2b"
  type: "Scale"
  bottom: "RGBres4b2_branch2b"
  top: "RGBres4b2_branch2b"
  param {
    lr_mult: 0.1
    decay_mult: 1
  }
  param {
    lr_mult: 0.1
    decay_mult: 1
  }
  scale_param {
    bias_term: true
  }
}
layer {
  name: "RGBres4b2_branch2b_relu"
  type: "ReLU"
  bottom: "RGBres4b2_branch2b"
  top: "RGBres4b2_branch2b"
}
layer {
  name: "RGBres4b2_branch2c"
  type: "Convolution"
  bottom: "RGBres4b2_branch2b"
  top: "RGBres4b2_branch2c"
  param {
    lr_mult: 0.1
    decay_mult: 1
  }
  convolution_param {
    num_output: 1024
    bias_term: false
    pad: 0
    kernel_size: 1
    stride: 1
  }
}
layer {
  name: "RGBbn4b2_branch2c"
  type: "BatchNorm"
  bottom: "RGBres4b2_branch2c"
  top: "RGBres4b2_branch2c"
  param {
    lr_mult: 0
    decay_mult: 0
  }
  param {
    lr_mult: 0
    decay_mult: 0
  }
  param {
    lr_mult: 0
    decay_mult: 0
  }
  batch_norm_param {
    use_global_stats: true
  }
}
layer {
  name: "RGBscale4b2_branch2c"
  type: "Scale"
  bottom: "RGBres4b2_branch2c"
  top: "RGBres4b2_branch2c"
  param {
    lr_mult: 0.1
    decay_mult: 1
  }
  param {
    lr_mult: 0.1
    decay_mult: 1
  }
  scale_param {
    bias_term: true
  }
}
layer {
  name: "RGBres4b2"
  type: "Eltwise"
  bottom: "RGBres4b1"
  bottom: "RGBres4b2_branch2c"
  top: "RGBres4b2"
  eltwise_param {
    operation: SUM
  }
}
layer {
  name: "RGBres4b2_relu"
  type: "ReLU"
  bottom: "RGBres4b2"
  top: "RGBres4b2"
}
layer {
  name: "RGBres4b3_branch2a"
  type: "Convolution"
  bottom: "RGBres4b2"
  top: "RGBres4b3_branch2a"
  param {
    lr_mult: 0.1
    decay_mult: 1
  }
  convolution_param {
    num_output: 256
    bias_term: false
    pad: 0
    kernel_size: 1
    stride: 1
  }
}
layer {
  name: "RGBbn4b3_branch2a"
  type: "BatchNorm"
  bottom: "RGBres4b3_branch2a"
  top: "RGBres4b3_branch2a"
  param {
    lr_mult: 0
    decay_mult: 0
  }
  param {
    lr_mult: 0
    decay_mult: 0
  }
  param {
    lr_mult: 0
    decay_mult: 0
  }
  batch_norm_param {
    use_global_stats: true
  }
}
layer {
  name: "RGBscale4b3_branch2a"
  type: "Scale"
  bottom: "RGBres4b3_branch2a"
  top: "RGBres4b3_branch2a"
  param {
    lr_mult: 0.1
    decay_mult: 1
  }
  param {
    lr_mult: 0.1
    decay_mult: 1
  }
  scale_param {
    bias_term: true
  }
}
layer {
  name: "RGBres4b3_branch2a_relu"
  type: "ReLU"
  bottom: "RGBres4b3_branch2a"
  top: "RGBres4b3_branch2a"
}
layer {
  name: "RGBres4b3_branch2b"
  type: "Convolution"
  bottom: "RGBres4b3_branch2a"
  top: "RGBres4b3_branch2b"
  param {
    lr_mult: 0.1
    decay_mult: 1
  }
  convolution_param {
    num_output: 256
    bias_term: false
    pad: 1
    kernel_size: 3
    stride: 1
  }
}
layer {
  name: "RGBbn4b3_branch2b"
  type: "BatchNorm"
  bottom: "RGBres4b3_branch2b"
  top: "RGBres4b3_branch2b"
  param {
    lr_mult: 0
    decay_mult: 0
  }
  param {
    lr_mult: 0
    decay_mult: 0
  }
  param {
    lr_mult: 0
    decay_mult: 0
  }
  batch_norm_param {
    use_global_stats: true
  }
}
layer {
  name: "RGBscale4b3_branch2b"
  type: "Scale"
  bottom: "RGBres4b3_branch2b"
  top: "RGBres4b3_branch2b"
  param {
    lr_mult: 0.1
    decay_mult: 1
  }
  param {
    lr_mult: 0.1
    decay_mult: 1
  }
  scale_param {
    bias_term: true
  }
}
layer {
  name: "RGBres4b3_branch2b_relu"
  type: "ReLU"
  bottom: "RGBres4b3_branch2b"
  top: "RGBres4b3_branch2b"
}
layer {
  name: "RGBres4b3_branch2c"
  type: "Convolution"
  bottom: "RGBres4b3_branch2b"
  top: "RGBres4b3_branch2c"
  param {
    lr_mult: 0.1
    decay_mult: 1
  }
  convolution_param {
    num_output: 1024
    bias_term: false
    pad: 0
    kernel_size: 1
    stride: 1
  }
}
layer {
  name: "RGBbn4b3_branch2c"
  type: "BatchNorm"
  bottom: "RGBres4b3_branch2c"
  top: "RGBres4b3_branch2c"
  param {
    lr_mult: 0
    decay_mult: 0
  }
  param {
    lr_mult: 0
    decay_mult: 0
  }
  param {
    lr_mult: 0
    decay_mult: 0
  }
  batch_norm_param {
    use_global_stats: true
  }
}
layer {
  name: "RGBscale4b3_branch2c"
  type: "Scale"
  bottom: "RGBres4b3_branch2c"
  top: "RGBres4b3_branch2c"
  param {
    lr_mult: 0.1
    decay_mult: 1
  }
  param {
    lr_mult: 0.1
    decay_mult: 1
  }
  scale_param {
    bias_term: true
  }
}
layer {
  name: "RGBres4b3"
  type: "Eltwise"
  bottom: "RGBres4b2"
  bottom: "RGBres4b3_branch2c"
  top: "RGBres4b3"
  eltwise_param {
    operation: SUM
  }
}
layer {
  name: "RGBres4b3_relu"
  type: "ReLU"
  bottom: "RGBres4b3"
  top: "RGBres4b3"
}
layer {
  name: "RGBres4b4_branch2a"
  type: "Convolution"
  bottom: "RGBres4b3"
  top: "RGBres4b4_branch2a"
  param {
    lr_mult: 0.1
    decay_mult: 1
  }
  convolution_param {
    num_output: 256
    bias_term: false
    pad: 0
    kernel_size: 1
    stride: 1
  }
}
layer {
  name: "RGBbn4b4_branch2a"
  type: "BatchNorm"
  bottom: "RGBres4b4_branch2a"
  top: "RGBres4b4_branch2a"
  param {
    lr_mult: 0
    decay_mult: 0
  }
  param {
    lr_mult: 0
    decay_mult: 0
  }
  param {
    lr_mult: 0
    decay_mult: 0
  }
  batch_norm_param {
    use_global_stats: true
  }
}
layer {
  name: "RGBscale4b4_branch2a"
  type: "Scale"
  bottom: "RGBres4b4_branch2a"
  top: "RGBres4b4_branch2a"
  param {
    lr_mult: 0.1
    decay_mult: 1
  }
  param {
    lr_mult: 0.1
    decay_mult: 1
  }
  scale_param {
    bias_term: true
  }
}
layer {
  name: "RGBres4b4_branch2a_relu"
  type: "ReLU"
  bottom: "RGBres4b4_branch2a"
  top: "RGBres4b4_branch2a"
}
layer {
  name: "RGBres4b4_branch2b"
  type: "Convolution"
  bottom: "RGBres4b4_branch2a"
  top: "RGBres4b4_branch2b"
  param {
    lr_mult: 0.1
    decay_mult: 1
  }
  convolution_param {
    num_output: 256
    bias_term: false
    pad: 1
    kernel_size: 3
    stride: 1
  }
}
layer {
  name: "RGBbn4b4_branch2b"
  type: "BatchNorm"
  bottom: "RGBres4b4_branch2b"
  top: "RGBres4b4_branch2b"
  param {
    lr_mult: 0
    decay_mult: 0
  }
  param {
    lr_mult: 0
    decay_mult: 0
  }
  param {
    lr_mult: 0
    decay_mult: 0
  }
  batch_norm_param {
    use_global_stats: true
  }
}
layer {
  name: "RGBscale4b4_branch2b"
  type: "Scale"
  bottom: "RGBres4b4_branch2b"
  top: "RGBres4b4_branch2b"
  param {
    lr_mult: 0.1
    decay_mult: 1
  }
  param {
    lr_mult: 0.1
    decay_mult: 1
  }
  scale_param {
    bias_term: true
  }
}
layer {
  name: "RGBres4b4_branch2b_relu"
  type: "ReLU"
  bottom: "RGBres4b4_branch2b"
  top: "RGBres4b4_branch2b"
}
layer {
  name: "RGBres4b4_branch2c"
  type: "Convolution"
  bottom: "RGBres4b4_branch2b"
  top: "RGBres4b4_branch2c"
  param {
    lr_mult: 0.1
    decay_mult: 1
  }
  convolution_param {
    num_output: 1024
    bias_term: false
    pad: 0
    kernel_size: 1
    stride: 1
  }
}
layer {
  name: "RGBbn4b4_branch2c"
  type: "BatchNorm"
  bottom: "RGBres4b4_branch2c"
  top: "RGBres4b4_branch2c"
  param {
    lr_mult: 0
    decay_mult: 0
  }
  param {
    lr_mult: 0
    decay_mult: 0
  }
  param {
    lr_mult: 0
    decay_mult: 0
  }
  batch_norm_param {
    use_global_stats: true
  }
}
layer {
  name: "RGBscale4b4_branch2c"
  type: "Scale"
  bottom: "RGBres4b4_branch2c"
  top: "RGBres4b4_branch2c"
  param {
    lr_mult: 0.1
    decay_mult: 1
  }
  param {
    lr_mult: 0.1
    decay_mult: 1
  }
  scale_param {
    bias_term: true
  }
}
layer {
  name: "RGBres4b4"
  type: "Eltwise"
  bottom: "RGBres4b3"
  bottom: "RGBres4b4_branch2c"
  top: "RGBres4b4"
  eltwise_param {
    operation: SUM
  }
}
layer {
  name: "RGBres4b4_relu"
  type: "ReLU"
  bottom: "RGBres4b4"
  top: "RGBres4b4"
}
layer {
  name: "RGBres4b5_branch2a"
  type: "Convolution"
  bottom: "RGBres4b4"
  top: "RGBres4b5_branch2a"
  param {
    lr_mult: 0.1
    decay_mult: 1
  }
  convolution_param {
    num_output: 256
    bias_term: false
    pad: 0
    kernel_size: 1
    stride: 1
  }
}
layer {
  name: "RGBbn4b5_branch2a"
  type: "BatchNorm"
  bottom: "RGBres4b5_branch2a"
  top: "RGBres4b5_branch2a"
  param {
    lr_mult: 0
    decay_mult: 0
  }
  param {
    lr_mult: 0
    decay_mult: 0
  }
  param {
    lr_mult: 0
    decay_mult: 0
  }
  batch_norm_param {
    use_global_stats: true
  }
}
layer {
  name: "RGBscale4b5_branch2a"
  type: "Scale"
  bottom: "RGBres4b5_branch2a"
  top: "RGBres4b5_branch2a"
  param {
    lr_mult: 0.1
    decay_mult: 1
  }
  param {
    lr_mult: 0.1
    decay_mult: 1
  }
  scale_param {
    bias_term: true
  }
}
layer {
  name: "RGBres4b5_branch2a_relu"
  type: "ReLU"
  bottom: "RGBres4b5_branch2a"
  top: "RGBres4b5_branch2a"
}
layer {
  name: "RGBres4b5_branch2b"
  type: "Convolution"
  bottom: "RGBres4b5_branch2a"
  top: "RGBres4b5_branch2b"
  param {
    lr_mult: 0.1
    decay_mult: 1
  }
  convolution_param {
    num_output: 256
    bias_term: false
    pad: 1
    kernel_size: 3
    stride: 1
  }
}
layer {
  name: "RGBbn4b5_branch2b"
  type: "BatchNorm"
  bottom: "RGBres4b5_branch2b"
  top: "RGBres4b5_branch2b"
  param {
    lr_mult: 0
    decay_mult: 0
  }
  param {
    lr_mult: 0
    decay_mult: 0
  }
  param {
    lr_mult: 0
    decay_mult: 0
  }
  batch_norm_param {
    use_global_stats: true
  }
}
layer {
  name: "RGBscale4b5_branch2b"
  type: "Scale"
  bottom: "RGBres4b5_branch2b"
  top: "RGBres4b5_branch2b"
  param {
    lr_mult: 0.1
    decay_mult: 1
  }
  param {
    lr_mult: 0.1
    decay_mult: 1
  }
  scale_param {
    bias_term: true
  }
}
layer {
  name: "RGBres4b5_branch2b_relu"
  type: "ReLU"
  bottom: "RGBres4b5_branch2b"
  top: "RGBres4b5_branch2b"
}
layer {
  name: "RGBres4b5_branch2c"
  type: "Convolution"
  bottom: "RGBres4b5_branch2b"
  top: "RGBres4b5_branch2c"
  param {
    lr_mult: 0.1
    decay_mult: 1
  }
  convolution_param {
    num_output: 1024
    bias_term: false
    pad: 0
    kernel_size: 1
    stride: 1
  }
}
layer {
  name: "RGBbn4b5_branch2c"
  type: "BatchNorm"
  bottom: "RGBres4b5_branch2c"
  top: "RGBres4b5_branch2c"
  param {
    lr_mult: 0
    decay_mult: 0
  }
  param {
    lr_mult: 0
    decay_mult: 0
  }
  param {
    lr_mult: 0
    decay_mult: 0
  }
  batch_norm_param {
    use_global_stats: true
  }
}
layer {
  name: "RGBscale4b5_branch2c"
  type: "Scale"
  bottom: "RGBres4b5_branch2c"
  top: "RGBres4b5_branch2c"
  param {
    lr_mult: 0.1
    decay_mult: 1
  }
  param {
    lr_mult: 0.1
    decay_mult: 1
  }
  scale_param {
    bias_term: true
  }
}
layer {
  name: "RGBres4b5"
  type: "Eltwise"
  bottom: "RGBres4b4"
  bottom: "RGBres4b5_branch2c"
  top: "RGBres4b5"
  eltwise_param {
    operation: SUM
  }
}
layer {
  name: "RGBres4b5_relu"
  type: "ReLU"
  bottom: "RGBres4b5"
  top: "RGBres4b5"
}
layer {
  name: "RGBres4b6_branch2a"
  type: "Convolution"
  bottom: "RGBres4b5"
  top: "RGBres4b6_branch2a"
  param {
    lr_mult: 0.1
    decay_mult: 1
  }
  convolution_param {
    num_output: 256
    bias_term: false
    pad: 0
    kernel_size: 1
    stride: 1
  }
}
layer {
  name: "RGBbn4b6_branch2a"
  type: "BatchNorm"
  bottom: "RGBres4b6_branch2a"
  top: "RGBres4b6_branch2a"
  param {
    lr_mult: 0
    decay_mult: 0
  }
  param {
    lr_mult: 0
    decay_mult: 0
  }
  param {
    lr_mult: 0
    decay_mult: 0
  }
  batch_norm_param {
    use_global_stats: true
  }
}
layer {
  name: "RGBscale4b6_branch2a"
  type: "Scale"
  bottom: "RGBres4b6_branch2a"
  top: "RGBres4b6_branch2a"
  param {
    lr_mult: 0.1
    decay_mult: 1
  }
  param {
    lr_mult: 0.1
    decay_mult: 1
  }
  scale_param {
    bias_term: true
  }
}
layer {
  name: "RGBres4b6_branch2a_relu"
  type: "ReLU"
  bottom: "RGBres4b6_branch2a"
  top: "RGBres4b6_branch2a"
}
layer {
  name: "RGBres4b6_branch2b"
  type: "Convolution"
  bottom: "RGBres4b6_branch2a"
  top: "RGBres4b6_branch2b"
  param {
    lr_mult: 0.1
    decay_mult: 1
  }
  convolution_param {
    num_output: 256
    bias_term: false
    pad: 1
    kernel_size: 3
    stride: 1
  }
}
layer {
  name: "RGBbn4b6_branch2b"
  type: "BatchNorm"
  bottom: "RGBres4b6_branch2b"
  top: "RGBres4b6_branch2b"
  param {
    lr_mult: 0
    decay_mult: 0
  }
  param {
    lr_mult: 0
    decay_mult: 0
  }
  param {
    lr_mult: 0
    decay_mult: 0
  }
  batch_norm_param {
    use_global_stats: true
  }
}
layer {
  name: "RGBscale4b6_branch2b"
  type: "Scale"
  bottom: "RGBres4b6_branch2b"
  top: "RGBres4b6_branch2b"
  param {
    lr_mult: 0.1
    decay_mult: 1
  }
  param {
    lr_mult: 0.1
    decay_mult: 1
  }
  scale_param {
    bias_term: true
  }
}
layer {
  name: "RGBres4b6_branch2b_relu"
  type: "ReLU"
  bottom: "RGBres4b6_branch2b"
  top: "RGBres4b6_branch2b"
}
layer {
  name: "RGBres4b6_branch2c"
  type: "Convolution"
  bottom: "RGBres4b6_branch2b"
  top: "RGBres4b6_branch2c"
  param {
    lr_mult: 0.1
    decay_mult: 1
  }
  convolution_param {
    num_output: 1024
    bias_term: false
    pad: 0
    kernel_size: 1
    stride: 1
  }
}
layer {
  name: "RGBbn4b6_branch2c"
  type: "BatchNorm"
  bottom: "RGBres4b6_branch2c"
  top: "RGBres4b6_branch2c"
  param {
    lr_mult: 0
    decay_mult: 0
  }
  param {
    lr_mult: 0
    decay_mult: 0
  }
  param {
    lr_mult: 0
    decay_mult: 0
  }
  batch_norm_param {
    use_global_stats: true
  }
}
layer {
  name: "RGBscale4b6_branch2c"
  type: "Scale"
  bottom: "RGBres4b6_branch2c"
  top: "RGBres4b6_branch2c"
  param {
    lr_mult: 0.1
    decay_mult: 1
  }
  param {
    lr_mult: 0.1
    decay_mult: 1
  }
  scale_param {
    bias_term: true
  }
}
layer {
  name: "RGBres4b6"
  type: "Eltwise"
  bottom: "RGBres4b5"
  bottom: "RGBres4b6_branch2c"
  top: "RGBres4b6"
  eltwise_param {
    operation: SUM
  }
}
layer {
  name: "RGBres4b6_relu"
  type: "ReLU"
  bottom: "RGBres4b6"
  top: "RGBres4b6"
}
layer {
  name: "RGBres4b7_branch2a"
  type: "Convolution"
  bottom: "RGBres4b6"
  top: "RGBres4b7_branch2a"
  param {
    lr_mult: 0.1
    decay_mult: 1
  }
  convolution_param {
    num_output: 256
    bias_term: false
    pad: 0
    kernel_size: 1
    stride: 1
  }
}
layer {
  name: "RGBbn4b7_branch2a"
  type: "BatchNorm"
  bottom: "RGBres4b7_branch2a"
  top: "RGBres4b7_branch2a"
  param {
    lr_mult: 0
    decay_mult: 0
  }
  param {
    lr_mult: 0
    decay_mult: 0
  }
  param {
    lr_mult: 0
    decay_mult: 0
  }
  batch_norm_param {
    use_global_stats: true
  }
}
layer {
  name: "RGBscale4b7_branch2a"
  type: "Scale"
  bottom: "RGBres4b7_branch2a"
  top: "RGBres4b7_branch2a"
  param {
    lr_mult: 0.1
    decay_mult: 1
  }
  param {
    lr_mult: 0.1
    decay_mult: 1
  }
  scale_param {
    bias_term: true
  }
}
layer {
  name: "RGBres4b7_branch2a_relu"
  type: "ReLU"
  bottom: "RGBres4b7_branch2a"
  top: "RGBres4b7_branch2a"
}
layer {
  name: "RGBres4b7_branch2b"
  type: "Convolution"
  bottom: "RGBres4b7_branch2a"
  top: "RGBres4b7_branch2b"
  param {
    lr_mult: 0.1
    decay_mult: 1
  }
  convolution_param {
    num_output: 256
    bias_term: false
    pad: 1
    kernel_size: 3
    stride: 1
  }
}
layer {
  name: "RGBbn4b7_branch2b"
  type: "BatchNorm"
  bottom: "RGBres4b7_branch2b"
  top: "RGBres4b7_branch2b"
  param {
    lr_mult: 0
    decay_mult: 0
  }
  param {
    lr_mult: 0
    decay_mult: 0
  }
  param {
    lr_mult: 0
    decay_mult: 0
  }
  batch_norm_param {
    use_global_stats: true
  }
}
layer {
  name: "RGBscale4b7_branch2b"
  type: "Scale"
  bottom: "RGBres4b7_branch2b"
  top: "RGBres4b7_branch2b"
  param {
    lr_mult: 0.1
    decay_mult: 1
  }
  param {
    lr_mult: 0.1
    decay_mult: 1
  }
  scale_param {
    bias_term: true
  }
}
layer {
  name: "RGBres4b7_branch2b_relu"
  type: "ReLU"
  bottom: "RGBres4b7_branch2b"
  top: "RGBres4b7_branch2b"
}
layer {
  name: "RGBres4b7_branch2c"
  type: "Convolution"
  bottom: "RGBres4b7_branch2b"
  top: "RGBres4b7_branch2c"
  param {
    lr_mult: 0.1
    decay_mult: 1
  }
  convolution_param {
    num_output: 1024
    bias_term: false
    pad: 0
    kernel_size: 1
    stride: 1
  }
}
layer {
  name: "RGBbn4b7_branch2c"
  type: "BatchNorm"
  bottom: "RGBres4b7_branch2c"
  top: "RGBres4b7_branch2c"
  param {
    lr_mult: 0
    decay_mult: 0
  }
  param {
    lr_mult: 0
    decay_mult: 0
  }
  param {
    lr_mult: 0
    decay_mult: 0
  }
  batch_norm_param {
    use_global_stats: true
  }
}
layer {
  name: "RGBscale4b7_branch2c"
  type: "Scale"
  bottom: "RGBres4b7_branch2c"
  top: "RGBres4b7_branch2c"
  param {
    lr_mult: 0.1
    decay_mult: 1
  }
  param {
    lr_mult: 0.1
    decay_mult: 1
  }
  scale_param {
    bias_term: true
  }
}
layer {
  name: "RGBres4b7"
  type: "Eltwise"
  bottom: "RGBres4b6"
  bottom: "RGBres4b7_branch2c"
  top: "RGBres4b7"
  eltwise_param {
    operation: SUM
  }
}
layer {
  name: "RGBres4b7_relu"
  type: "ReLU"
  bottom: "RGBres4b7"
  top: "RGBres4b7"
}
layer {
  name: "RGBres4b8_branch2a"
  type: "Convolution"
  bottom: "RGBres4b7"
  top: "RGBres4b8_branch2a"
  param {
    lr_mult: 0.1
    decay_mult: 1
  }
  convolution_param {
    num_output: 256
    bias_term: false
    pad: 0
    kernel_size: 1
    stride: 1
  }
}
layer {
  name: "RGBbn4b8_branch2a"
  type: "BatchNorm"
  bottom: "RGBres4b8_branch2a"
  top: "RGBres4b8_branch2a"
  param {
    lr_mult: 0
    decay_mult: 0
  }
  param {
    lr_mult: 0
    decay_mult: 0
  }
  param {
    lr_mult: 0
    decay_mult: 0
  }
  batch_norm_param {
    use_global_stats: true
  }
}
layer {
  name: "RGBscale4b8_branch2a"
  type: "Scale"
  bottom: "RGBres4b8_branch2a"
  top: "RGBres4b8_branch2a"
  param {
    lr_mult: 0.1
    decay_mult: 1
  }
  param {
    lr_mult: 0.1
    decay_mult: 1
  }
  scale_param {
    bias_term: true
  }
}
layer {
  name: "RGBres4b8_branch2a_relu"
  type: "ReLU"
  bottom: "RGBres4b8_branch2a"
  top: "RGBres4b8_branch2a"
}
layer {
  name: "RGBres4b8_branch2b"
  type: "Convolution"
  bottom: "RGBres4b8_branch2a"
  top: "RGBres4b8_branch2b"
  param {
    lr_mult: 0.1
    decay_mult: 1
  }
  convolution_param {
    num_output: 256
    bias_term: false
    pad: 1
    kernel_size: 3
    stride: 1
  }
}
layer {
  name: "RGBbn4b8_branch2b"
  type: "BatchNorm"
  bottom: "RGBres4b8_branch2b"
  top: "RGBres4b8_branch2b"
  param {
    lr_mult: 0
    decay_mult: 0
  }
  param {
    lr_mult: 0
    decay_mult: 0
  }
  param {
    lr_mult: 0
    decay_mult: 0
  }
  batch_norm_param {
    use_global_stats: true
  }
}
layer {
  name: "RGBscale4b8_branch2b"
  type: "Scale"
  bottom: "RGBres4b8_branch2b"
  top: "RGBres4b8_branch2b"
  param {
    lr_mult: 0.1
    decay_mult: 1
  }
  param {
    lr_mult: 0.1
    decay_mult: 1
  }
  scale_param {
    bias_term: true
  }
}
layer {
  name: "RGBres4b8_branch2b_relu"
  type: "ReLU"
  bottom: "RGBres4b8_branch2b"
  top: "RGBres4b8_branch2b"
}
layer {
  name: "RGBres4b8_branch2c"
  type: "Convolution"
  bottom: "RGBres4b8_branch2b"
  top: "RGBres4b8_branch2c"
  param {
    lr_mult: 0.1
    decay_mult: 1
  }
  convolution_param {
    num_output: 1024
    bias_term: false
    pad: 0
    kernel_size: 1
    stride: 1
  }
}
layer {
  name: "RGBbn4b8_branch2c"
  type: "BatchNorm"
  bottom: "RGBres4b8_branch2c"
  top: "RGBres4b8_branch2c"
  param {
    lr_mult: 0
    decay_mult: 0
  }
  param {
    lr_mult: 0
    decay_mult: 0
  }
  param {
    lr_mult: 0
    decay_mult: 0
  }
  batch_norm_param {
    use_global_stats: true
  }
}
layer {
  name: "RGBscale4b8_branch2c"
  type: "Scale"
  bottom: "RGBres4b8_branch2c"
  top: "RGBres4b8_branch2c"
  param {
    lr_mult: 0.1
    decay_mult: 1
  }
  param {
    lr_mult: 0.1
    decay_mult: 1
  }
  scale_param {
    bias_term: true
  }
}
layer {
  name: "RGBres4b8"
  type: "Eltwise"
  bottom: "RGBres4b7"
  bottom: "RGBres4b8_branch2c"
  top: "RGBres4b8"
  eltwise_param {
    operation: SUM
  }
}
layer {
  name: "RGBres4b8_relu"
  type: "ReLU"
  bottom: "RGBres4b8"
  top: "RGBres4b8"
}
layer {
  name: "RGBres4b9_branch2a"
  type: "Convolution"
  bottom: "RGBres4b8"
  top: "RGBres4b9_branch2a"
  param {
    lr_mult: 0.1
    decay_mult: 1
  }
  convolution_param {
    num_output: 256
    bias_term: false
    pad: 0
    kernel_size: 1
    stride: 1
  }
}
layer {
  name: "RGBbn4b9_branch2a"
  type: "BatchNorm"
  bottom: "RGBres4b9_branch2a"
  top: "RGBres4b9_branch2a"
  param {
    lr_mult: 0
    decay_mult: 0
  }
  param {
    lr_mult: 0
    decay_mult: 0
  }
  param {
    lr_mult: 0
    decay_mult: 0
  }
  batch_norm_param {
    use_global_stats: true
  }
}
layer {
  name: "RGBscale4b9_branch2a"
  type: "Scale"
  bottom: "RGBres4b9_branch2a"
  top: "RGBres4b9_branch2a"
  param {
    lr_mult: 0.1
    decay_mult: 1
  }
  param {
    lr_mult: 0.1
    decay_mult: 1
  }
  scale_param {
    bias_term: true
  }
}
layer {
  name: "RGBres4b9_branch2a_relu"
  type: "ReLU"
  bottom: "RGBres4b9_branch2a"
  top: "RGBres4b9_branch2a"
}
layer {
  name: "RGBres4b9_branch2b"
  type: "Convolution"
  bottom: "RGBres4b9_branch2a"
  top: "RGBres4b9_branch2b"
  param {
    lr_mult: 0.1
    decay_mult: 1
  }
  convolution_param {
    num_output: 256
    bias_term: false
    pad: 1
    kernel_size: 3
    stride: 1
  }
}
layer {
  name: "RGBbn4b9_branch2b"
  type: "BatchNorm"
  bottom: "RGBres4b9_branch2b"
  top: "RGBres4b9_branch2b"
  param {
    lr_mult: 0
    decay_mult: 0
  }
  param {
    lr_mult: 0
    decay_mult: 0
  }
  param {
    lr_mult: 0
    decay_mult: 0
  }
  batch_norm_param {
    use_global_stats: true
  }
}
layer {
  name: "RGBscale4b9_branch2b"
  type: "Scale"
  bottom: "RGBres4b9_branch2b"
  top: "RGBres4b9_branch2b"
  param {
    lr_mult: 0.1
    decay_mult: 1
  }
  param {
    lr_mult: 0.1
    decay_mult: 1
  }
  scale_param {
    bias_term: true
  }
}
layer {
  name: "RGBres4b9_branch2b_relu"
  type: "ReLU"
  bottom: "RGBres4b9_branch2b"
  top: "RGBres4b9_branch2b"
}
layer {
  name: "RGBres4b9_branch2c"
  type: "Convolution"
  bottom: "RGBres4b9_branch2b"
  top: "RGBres4b9_branch2c"
  param {
    lr_mult: 0.1
    decay_mult: 1
  }
  convolution_param {
    num_output: 1024
    bias_term: false
    pad: 0
    kernel_size: 1
    stride: 1
  }
}
layer {
  name: "RGBbn4b9_branch2c"
  type: "BatchNorm"
  bottom: "RGBres4b9_branch2c"
  top: "RGBres4b9_branch2c"
  param {
    lr_mult: 0
    decay_mult: 0
  }
  param {
    lr_mult: 0
    decay_mult: 0
  }
  param {
    lr_mult: 0
    decay_mult: 0
  }
  batch_norm_param {
    use_global_stats: true
  }
}
layer {
  name: "RGBscale4b9_branch2c"
  type: "Scale"
  bottom: "RGBres4b9_branch2c"
  top: "RGBres4b9_branch2c"
  param {
    lr_mult: 0.1
    decay_mult: 1
  }
  param {
    lr_mult: 0.1
    decay_mult: 1
  }
  scale_param {
    bias_term: true
  }
}
layer {
  name: "RGBres4b9"
  type: "Eltwise"
  bottom: "RGBres4b8"
  bottom: "RGBres4b9_branch2c"
  top: "RGBres4b9"
  eltwise_param {
    operation: SUM
  }
}
layer {
  name: "RGBres4b9_relu"
  type: "ReLU"
  bottom: "RGBres4b9"
  top: "RGBres4b9"
}
layer {
  name: "RGBres4b10_branch2a"
  type: "Convolution"
  bottom: "RGBres4b9"
  top: "RGBres4b10_branch2a"
  param {
    lr_mult: 0.1
    decay_mult: 1
  }
  convolution_param {
    num_output: 256
    bias_term: false
    pad: 0
    kernel_size: 1
    stride: 1
  }
}
layer {
  name: "RGBbn4b10_branch2a"
  type: "BatchNorm"
  bottom: "RGBres4b10_branch2a"
  top: "RGBres4b10_branch2a"
  param {
    lr_mult: 0
    decay_mult: 0
  }
  param {
    lr_mult: 0
    decay_mult: 0
  }
  param {
    lr_mult: 0
    decay_mult: 0
  }
  batch_norm_param {
    use_global_stats: true
  }
}
layer {
  name: "RGBscale4b10_branch2a"
  type: "Scale"
  bottom: "RGBres4b10_branch2a"
  top: "RGBres4b10_branch2a"
  param {
    lr_mult: 0.1
    decay_mult: 1
  }
  param {
    lr_mult: 0.1
    decay_mult: 1
  }
  scale_param {
    bias_term: true
  }
}
layer {
  name: "RGBres4b10_branch2a_relu"
  type: "ReLU"
  bottom: "RGBres4b10_branch2a"
  top: "RGBres4b10_branch2a"
}
layer {
  name: "RGBres4b10_branch2b"
  type: "Convolution"
  bottom: "RGBres4b10_branch2a"
  top: "RGBres4b10_branch2b"
  param {
    lr_mult: 0.1
    decay_mult: 1
  }
  convolution_param {
    num_output: 256
    bias_term: false
    pad: 1
    kernel_size: 3
    stride: 1
  }
}
layer {
  name: "RGBbn4b10_branch2b"
  type: "BatchNorm"
  bottom: "RGBres4b10_branch2b"
  top: "RGBres4b10_branch2b"
  param {
    lr_mult: 0
    decay_mult: 0
  }
  param {
    lr_mult: 0
    decay_mult: 0
  }
  param {
    lr_mult: 0
    decay_mult: 0
  }
  batch_norm_param {
    use_global_stats: true
  }
}
layer {
  name: "RGBscale4b10_branch2b"
  type: "Scale"
  bottom: "RGBres4b10_branch2b"
  top: "RGBres4b10_branch2b"
  param {
    lr_mult: 0.1
    decay_mult: 1
  }
  param {
    lr_mult: 0.1
    decay_mult: 1
  }
  scale_param {
    bias_term: true
  }
}
layer {
  name: "RGBres4b10_branch2b_relu"
  type: "ReLU"
  bottom: "RGBres4b10_branch2b"
  top: "RGBres4b10_branch2b"
}
layer {
  name: "RGBres4b10_branch2c"
  type: "Convolution"
  bottom: "RGBres4b10_branch2b"
  top: "RGBres4b10_branch2c"
  param {
    lr_mult: 0.1
    decay_mult: 1
  }
  convolution_param {
    num_output: 1024
    bias_term: false
    pad: 0
    kernel_size: 1
    stride: 1
  }
}
layer {
  name: "RGBbn4b10_branch2c"
  type: "BatchNorm"
  bottom: "RGBres4b10_branch2c"
  top: "RGBres4b10_branch2c"
  param {
    lr_mult: 0
    decay_mult: 0
  }
  param {
    lr_mult: 0
    decay_mult: 0
  }
  param {
    lr_mult: 0
    decay_mult: 0
  }
  batch_norm_param {
    use_global_stats: true
  }
}
layer {
  name: "RGBscale4b10_branch2c"
  type: "Scale"
  bottom: "RGBres4b10_branch2c"
  top: "RGBres4b10_branch2c"
  param {
    lr_mult: 0.1
    decay_mult: 1
  }
  param {
    lr_mult: 0.1
    decay_mult: 1
  }
  scale_param {
    bias_term: true
  }
}
layer {
  name: "RGBres4b10"
  type: "Eltwise"
  bottom: "RGBres4b9"
  bottom: "RGBres4b10_branch2c"
  top: "RGBres4b10"
  eltwise_param {
    operation: SUM
  }
}
layer {
  name: "RGBres4b10_relu"
  type: "ReLU"
  bottom: "RGBres4b10"
  top: "RGBres4b10"
}
layer {
  name: "RGBres4b11_branch2a"
  type: "Convolution"
  bottom: "RGBres4b10"
  top: "RGBres4b11_branch2a"
  param {
    lr_mult: 0.1
    decay_mult: 1
  }
  convolution_param {
    num_output: 256
    bias_term: false
    pad: 0
    kernel_size: 1
    stride: 1
  }
}
layer {
  name: "RGBbn4b11_branch2a"
  type: "BatchNorm"
  bottom: "RGBres4b11_branch2a"
  top: "RGBres4b11_branch2a"
  param {
    lr_mult: 0
    decay_mult: 0
  }
  param {
    lr_mult: 0
    decay_mult: 0
  }
  param {
    lr_mult: 0
    decay_mult: 0
  }
  batch_norm_param {
    use_global_stats: true
  }
}
layer {
  name: "RGBscale4b11_branch2a"
  type: "Scale"
  bottom: "RGBres4b11_branch2a"
  top: "RGBres4b11_branch2a"
  param {
    lr_mult: 0.1
    decay_mult: 1
  }
  param {
    lr_mult: 0.1
    decay_mult: 1
  }
  scale_param {
    bias_term: true
  }
}
layer {
  name: "RGBres4b11_branch2a_relu"
  type: "ReLU"
  bottom: "RGBres4b11_branch2a"
  top: "RGBres4b11_branch2a"
}
layer {
  name: "RGBres4b11_branch2b"
  type: "Convolution"
  bottom: "RGBres4b11_branch2a"
  top: "RGBres4b11_branch2b"
  param {
    lr_mult: 0.1
    decay_mult: 1
  }
  convolution_param {
    num_output: 256
    bias_term: false
    pad: 1
    kernel_size: 3
    stride: 1
  }
}
layer {
  name: "RGBbn4b11_branch2b"
  type: "BatchNorm"
  bottom: "RGBres4b11_branch2b"
  top: "RGBres4b11_branch2b"
  param {
    lr_mult: 0
    decay_mult: 0
  }
  param {
    lr_mult: 0
    decay_mult: 0
  }
  param {
    lr_mult: 0
    decay_mult: 0
  }
  batch_norm_param {
    use_global_stats: true
  }
}
layer {
  name: "RGBscale4b11_branch2b"
  type: "Scale"
  bottom: "RGBres4b11_branch2b"
  top: "RGBres4b11_branch2b"
  param {
    lr_mult: 0.1
    decay_mult: 1
  }
  param {
    lr_mult: 0.1
    decay_mult: 1
  }
  scale_param {
    bias_term: true
  }
}
layer {
  name: "RGBres4b11_branch2b_relu"
  type: "ReLU"
  bottom: "RGBres4b11_branch2b"
  top: "RGBres4b11_branch2b"
}
layer {
  name: "RGBres4b11_branch2c"
  type: "Convolution"
  bottom: "RGBres4b11_branch2b"
  top: "RGBres4b11_branch2c"
  param {
    lr_mult: 0.1
    decay_mult: 1
  }
  convolution_param {
    num_output: 1024
    bias_term: false
    pad: 0
    kernel_size: 1
    stride: 1
  }
}
layer {
  name: "RGBbn4b11_branch2c"
  type: "BatchNorm"
  bottom: "RGBres4b11_branch2c"
  top: "RGBres4b11_branch2c"
  param {
    lr_mult: 0
    decay_mult: 0
  }
  param {
    lr_mult: 0
    decay_mult: 0
  }
  param {
    lr_mult: 0
    decay_mult: 0
  }
  batch_norm_param {
    use_global_stats: true
  }
}
layer {
  name: "RGBscale4b11_branch2c"
  type: "Scale"
  bottom: "RGBres4b11_branch2c"
  top: "RGBres4b11_branch2c"
  param {
    lr_mult: 0.1
    decay_mult: 1
  }
  param {
    lr_mult: 0.1
    decay_mult: 1
  }
  scale_param {
    bias_term: true
  }
}
layer {
  name: "RGBres4b11"
  type: "Eltwise"
  bottom: "RGBres4b10"
  bottom: "RGBres4b11_branch2c"
  top: "RGBres4b11"
  eltwise_param {
    operation: SUM
  }
}
layer {
  name: "RGBres4b11_relu"
  type: "ReLU"
  bottom: "RGBres4b11"
  top: "RGBres4b11"
}
layer {
  name: "RGBres4b12_branch2a"
  type: "Convolution"
  bottom: "RGBres4b11"
  top: "RGBres4b12_branch2a"
  param {
    lr_mult: 0.1
    decay_mult: 1
  }
  convolution_param {
    num_output: 256
    bias_term: false
    pad: 0
    kernel_size: 1
    stride: 1
  }
}
layer {
  name: "RGBbn4b12_branch2a"
  type: "BatchNorm"
  bottom: "RGBres4b12_branch2a"
  top: "RGBres4b12_branch2a"
  param {
    lr_mult: 0
    decay_mult: 0
  }
  param {
    lr_mult: 0
    decay_mult: 0
  }
  param {
    lr_mult: 0
    decay_mult: 0
  }
  batch_norm_param {
    use_global_stats: true
  }
}
layer {
  name: "RGBscale4b12_branch2a"
  type: "Scale"
  bottom: "RGBres4b12_branch2a"
  top: "RGBres4b12_branch2a"
  param {
    lr_mult: 0.1
    decay_mult: 1
  }
  param {
    lr_mult: 0.1
    decay_mult: 1
  }
  scale_param {
    bias_term: true
  }
}
layer {
  name: "RGBres4b12_branch2a_relu"
  type: "ReLU"
  bottom: "RGBres4b12_branch2a"
  top: "RGBres4b12_branch2a"
}
layer {
  name: "RGBres4b12_branch2b"
  type: "Convolution"
  bottom: "RGBres4b12_branch2a"
  top: "RGBres4b12_branch2b"
  param {
    lr_mult: 0.1
    decay_mult: 1
  }
  convolution_param {
    num_output: 256
    bias_term: false
    pad: 1
    kernel_size: 3
    stride: 1
  }
}
layer {
  name: "RGBbn4b12_branch2b"
  type: "BatchNorm"
  bottom: "RGBres4b12_branch2b"
  top: "RGBres4b12_branch2b"
  param {
    lr_mult: 0
    decay_mult: 0
  }
  param {
    lr_mult: 0
    decay_mult: 0
  }
  param {
    lr_mult: 0
    decay_mult: 0
  }
  batch_norm_param {
    use_global_stats: true
  }
}
layer {
  name: "RGBscale4b12_branch2b"
  type: "Scale"
  bottom: "RGBres4b12_branch2b"
  top: "RGBres4b12_branch2b"
  param {
    lr_mult: 0.1
    decay_mult: 1
  }
  param {
    lr_mult: 0.1
    decay_mult: 1
  }
  scale_param {
    bias_term: true
  }
}
layer {
  name: "RGBres4b12_branch2b_relu"
  type: "ReLU"
  bottom: "RGBres4b12_branch2b"
  top: "RGBres4b12_branch2b"
}
layer {
  name: "RGBres4b12_branch2c"
  type: "Convolution"
  bottom: "RGBres4b12_branch2b"
  top: "RGBres4b12_branch2c"
  param {
    lr_mult: 0.1
    decay_mult: 1
  }
  convolution_param {
    num_output: 1024
    bias_term: false
    pad: 0
    kernel_size: 1
    stride: 1
  }
}
layer {
  name: "RGBbn4b12_branch2c"
  type: "BatchNorm"
  bottom: "RGBres4b12_branch2c"
  top: "RGBres4b12_branch2c"
  param {
    lr_mult: 0
    decay_mult: 0
  }
  param {
    lr_mult: 0
    decay_mult: 0
  }
  param {
    lr_mult: 0
    decay_mult: 0
  }
  batch_norm_param {
    use_global_stats: true
  }
}
layer {
  name: "RGBscale4b12_branch2c"
  type: "Scale"
  bottom: "RGBres4b12_branch2c"
  top: "RGBres4b12_branch2c"
  param {
    lr_mult: 0.1
    decay_mult: 1
  }
  param {
    lr_mult: 0.1
    decay_mult: 1
  }
  scale_param {
    bias_term: true
  }
}
layer {
  name: "RGBres4b12"
  type: "Eltwise"
  bottom: "RGBres4b11"
  bottom: "RGBres4b12_branch2c"
  top: "RGBres4b12"
  eltwise_param {
    operation: SUM
  }
}
layer {
  name: "RGBres4b12_relu"
  type: "ReLU"
  bottom: "RGBres4b12"
  top: "RGBres4b12"
}
layer {
  name: "RGBres4b13_branch2a"
  type: "Convolution"
  bottom: "RGBres4b12"
  top: "RGBres4b13_branch2a"
  param {
    lr_mult: 0.1
    decay_mult: 1
  }
  convolution_param {
    num_output: 256
    bias_term: false
    pad: 0
    kernel_size: 1
    stride: 1
  }
}
layer {
  name: "RGBbn4b13_branch2a"
  type: "BatchNorm"
  bottom: "RGBres4b13_branch2a"
  top: "RGBres4b13_branch2a"
  param {
    lr_mult: 0
    decay_mult: 0
  }
  param {
    lr_mult: 0
    decay_mult: 0
  }
  param {
    lr_mult: 0
    decay_mult: 0
  }
  batch_norm_param {
    use_global_stats: true
  }
}
layer {
  name: "RGBscale4b13_branch2a"
  type: "Scale"
  bottom: "RGBres4b13_branch2a"
  top: "RGBres4b13_branch2a"
  param {
    lr_mult: 0.1
    decay_mult: 1
  }
  param {
    lr_mult: 0.1
    decay_mult: 1
  }
  scale_param {
    bias_term: true
  }
}
layer {
  name: "RGBres4b13_branch2a_relu"
  type: "ReLU"
  bottom: "RGBres4b13_branch2a"
  top: "RGBres4b13_branch2a"
}
layer {
  name: "RGBres4b13_branch2b"
  type: "Convolution"
  bottom: "RGBres4b13_branch2a"
  top: "RGBres4b13_branch2b"
  param {
    lr_mult: 0.1
    decay_mult: 1
  }
  convolution_param {
    num_output: 256
    bias_term: false
    pad: 1
    kernel_size: 3
    stride: 1
  }
}
layer {
  name: "RGBbn4b13_branch2b"
  type: "BatchNorm"
  bottom: "RGBres4b13_branch2b"
  top: "RGBres4b13_branch2b"
  param {
    lr_mult: 0
    decay_mult: 0
  }
  param {
    lr_mult: 0
    decay_mult: 0
  }
  param {
    lr_mult: 0
    decay_mult: 0
  }
  batch_norm_param {
    use_global_stats: true
  }
}
layer {
  name: "RGBscale4b13_branch2b"
  type: "Scale"
  bottom: "RGBres4b13_branch2b"
  top: "RGBres4b13_branch2b"
  param {
    lr_mult: 0.1
    decay_mult: 1
  }
  param {
    lr_mult: 0.1
    decay_mult: 1
  }
  scale_param {
    bias_term: true
  }
}
layer {
  name: "RGBres4b13_branch2b_relu"
  type: "ReLU"
  bottom: "RGBres4b13_branch2b"
  top: "RGBres4b13_branch2b"
}
layer {
  name: "RGBres4b13_branch2c"
  type: "Convolution"
  bottom: "RGBres4b13_branch2b"
  top: "RGBres4b13_branch2c"
  param {
    lr_mult: 0.1
    decay_mult: 1
  }
  convolution_param {
    num_output: 1024
    bias_term: false
    pad: 0
    kernel_size: 1
    stride: 1
  }
}
layer {
  name: "RGBbn4b13_branch2c"
  type: "BatchNorm"
  bottom: "RGBres4b13_branch2c"
  top: "RGBres4b13_branch2c"
  param {
    lr_mult: 0
    decay_mult: 0
  }
  param {
    lr_mult: 0
    decay_mult: 0
  }
  param {
    lr_mult: 0
    decay_mult: 0
  }
  batch_norm_param {
    use_global_stats: true
  }
}
layer {
  name: "RGBscale4b13_branch2c"
  type: "Scale"
  bottom: "RGBres4b13_branch2c"
  top: "RGBres4b13_branch2c"
  param {
    lr_mult: 0.1
    decay_mult: 1
  }
  param {
    lr_mult: 0.1
    decay_mult: 1
  }
  scale_param {
    bias_term: true
  }
}
layer {
  name: "RGBres4b13"
  type: "Eltwise"
  bottom: "RGBres4b12"
  bottom: "RGBres4b13_branch2c"
  top: "RGBres4b13"
  eltwise_param {
    operation: SUM
  }
}
layer {
  name: "RGBres4b13_relu"
  type: "ReLU"
  bottom: "RGBres4b13"
  top: "RGBres4b13"
}
layer {
  name: "RGBres4b14_branch2a"
  type: "Convolution"
  bottom: "RGBres4b13"
  top: "RGBres4b14_branch2a"
  param {
    lr_mult: 0.1
    decay_mult: 1
  }
  convolution_param {
    num_output: 256
    bias_term: false
    pad: 0
    kernel_size: 1
    stride: 1
  }
}
layer {
  name: "RGBbn4b14_branch2a"
  type: "BatchNorm"
  bottom: "RGBres4b14_branch2a"
  top: "RGBres4b14_branch2a"
  param {
    lr_mult: 0
    decay_mult: 0
  }
  param {
    lr_mult: 0
    decay_mult: 0
  }
  param {
    lr_mult: 0
    decay_mult: 0
  }
  batch_norm_param {
    use_global_stats: true
  }
}
layer {
  name: "RGBscale4b14_branch2a"
  type: "Scale"
  bottom: "RGBres4b14_branch2a"
  top: "RGBres4b14_branch2a"
  param {
    lr_mult: 0.1
    decay_mult: 1
  }
  param {
    lr_mult: 0.1
    decay_mult: 1
  }
  scale_param {
    bias_term: true
  }
}
layer {
  name: "RGBres4b14_branch2a_relu"
  type: "ReLU"
  bottom: "RGBres4b14_branch2a"
  top: "RGBres4b14_branch2a"
}
layer {
  name: "RGBres4b14_branch2b"
  type: "Convolution"
  bottom: "RGBres4b14_branch2a"
  top: "RGBres4b14_branch2b"
  param {
    lr_mult: 0.1
    decay_mult: 1
  }
  convolution_param {
    num_output: 256
    bias_term: false
    pad: 1
    kernel_size: 3
    stride: 1
  }
}
layer {
  name: "RGBbn4b14_branch2b"
  type: "BatchNorm"
  bottom: "RGBres4b14_branch2b"
  top: "RGBres4b14_branch2b"
  param {
    lr_mult: 0
    decay_mult: 0
  }
  param {
    lr_mult: 0
    decay_mult: 0
  }
  param {
    lr_mult: 0
    decay_mult: 0
  }
  batch_norm_param {
    use_global_stats: true
  }
}
layer {
  name: "RGBscale4b14_branch2b"
  type: "Scale"
  bottom: "RGBres4b14_branch2b"
  top: "RGBres4b14_branch2b"
  param {
    lr_mult: 0.1
    decay_mult: 1
  }
  param {
    lr_mult: 0.1
    decay_mult: 1
  }
  scale_param {
    bias_term: true
  }
}
layer {
  name: "RGBres4b14_branch2b_relu"
  type: "ReLU"
  bottom: "RGBres4b14_branch2b"
  top: "RGBres4b14_branch2b"
}
layer {
  name: "RGBres4b14_branch2c"
  type: "Convolution"
  bottom: "RGBres4b14_branch2b"
  top: "RGBres4b14_branch2c"
  param {
    lr_mult: 0.1
    decay_mult: 1
  }
  convolution_param {
    num_output: 1024
    bias_term: false
    pad: 0
    kernel_size: 1
    stride: 1
  }
}
layer {
  name: "RGBbn4b14_branch2c"
  type: "BatchNorm"
  bottom: "RGBres4b14_branch2c"
  top: "RGBres4b14_branch2c"
  param {
    lr_mult: 0
    decay_mult: 0
  }
  param {
    lr_mult: 0
    decay_mult: 0
  }
  param {
    lr_mult: 0
    decay_mult: 0
  }
  batch_norm_param {
    use_global_stats: true
  }
}
layer {
  name: "RGBscale4b14_branch2c"
  type: "Scale"
  bottom: "RGBres4b14_branch2c"
  top: "RGBres4b14_branch2c"
  param {
    lr_mult: 0.1
    decay_mult: 1
  }
  param {
    lr_mult: 0.1
    decay_mult: 1
  }
  scale_param {
    bias_term: true
  }
}
layer {
  name: "RGBres4b14"
  type: "Eltwise"
  bottom: "RGBres4b13"
  bottom: "RGBres4b14_branch2c"
  top: "RGBres4b14"
  eltwise_param {
    operation: SUM
  }
}
layer {
  name: "RGBres4b14_relu"
  type: "ReLU"
  bottom: "RGBres4b14"
  top: "RGBres4b14"
}
layer {
  name: "RGBres4b15_branch2a"
  type: "Convolution"
  bottom: "RGBres4b14"
  top: "RGBres4b15_branch2a"
  param {
    lr_mult: 0.1
    decay_mult: 1
  }
  convolution_param {
    num_output: 256
    bias_term: false
    pad: 0
    kernel_size: 1
    stride: 1
  }
}
layer {
  name: "RGBbn4b15_branch2a"
  type: "BatchNorm"
  bottom: "RGBres4b15_branch2a"
  top: "RGBres4b15_branch2a"
  param {
    lr_mult: 0
    decay_mult: 0
  }
  param {
    lr_mult: 0
    decay_mult: 0
  }
  param {
    lr_mult: 0
    decay_mult: 0
  }
  batch_norm_param {
    use_global_stats: true
  }
}
layer {
  name: "RGBscale4b15_branch2a"
  type: "Scale"
  bottom: "RGBres4b15_branch2a"
  top: "RGBres4b15_branch2a"
  param {
    lr_mult: 0.1
    decay_mult: 1
  }
  param {
    lr_mult: 0.1
    decay_mult: 1
  }
  scale_param {
    bias_term: true
  }
}
layer {
  name: "RGBres4b15_branch2a_relu"
  type: "ReLU"
  bottom: "RGBres4b15_branch2a"
  top: "RGBres4b15_branch2a"
}
layer {
  name: "RGBres4b15_branch2b"
  type: "Convolution"
  bottom: "RGBres4b15_branch2a"
  top: "RGBres4b15_branch2b"
  param {
    lr_mult: 0.1
    decay_mult: 1
  }
  convolution_param {
    num_output: 256
    bias_term: false
    pad: 1
    kernel_size: 3
    stride: 1
  }
}
layer {
  name: "RGBbn4b15_branch2b"
  type: "BatchNorm"
  bottom: "RGBres4b15_branch2b"
  top: "RGBres4b15_branch2b"
  param {
    lr_mult: 0
    decay_mult: 0
  }
  param {
    lr_mult: 0
    decay_mult: 0
  }
  param {
    lr_mult: 0
    decay_mult: 0
  }
  batch_norm_param {
    use_global_stats: true
  }
}
layer {
  name: "RGBscale4b15_branch2b"
  type: "Scale"
  bottom: "RGBres4b15_branch2b"
  top: "RGBres4b15_branch2b"
  param {
    lr_mult: 0.1
    decay_mult: 1
  }
  param {
    lr_mult: 0.1
    decay_mult: 1
  }
  scale_param {
    bias_term: true
  }
}
layer {
  name: "RGBres4b15_branch2b_relu"
  type: "ReLU"
  bottom: "RGBres4b15_branch2b"
  top: "RGBres4b15_branch2b"
}
layer {
  name: "RGBres4b15_branch2c"
  type: "Convolution"
  bottom: "RGBres4b15_branch2b"
  top: "RGBres4b15_branch2c"
  param {
    lr_mult: 0.1
    decay_mult: 1
  }
  convolution_param {
    num_output: 1024
    bias_term: false
    pad: 0
    kernel_size: 1
    stride: 1
  }
}
layer {
  name: "RGBbn4b15_branch2c"
  type: "BatchNorm"
  bottom: "RGBres4b15_branch2c"
  top: "RGBres4b15_branch2c"
  param {
    lr_mult: 0
    decay_mult: 0
  }
  param {
    lr_mult: 0
    decay_mult: 0
  }
  param {
    lr_mult: 0
    decay_mult: 0
  }
  batch_norm_param {
    use_global_stats: true
  }
}
layer {
  name: "RGBscale4b15_branch2c"
  type: "Scale"
  bottom: "RGBres4b15_branch2c"
  top: "RGBres4b15_branch2c"
  param {
    lr_mult: 0.1
    decay_mult: 1
  }
  param {
    lr_mult: 0.1
    decay_mult: 1
  }
  scale_param {
    bias_term: true
  }
}
layer {
  name: "RGBres4b15"
  type: "Eltwise"
  bottom: "RGBres4b14"
  bottom: "RGBres4b15_branch2c"
  top: "RGBres4b15"
  eltwise_param {
    operation: SUM
  }
}
layer {
  name: "RGBres4b15_relu"
  type: "ReLU"
  bottom: "RGBres4b15"
  top: "RGBres4b15"
}
layer {
  name: "RGBres4b16_branch2a"
  type: "Convolution"
  bottom: "RGBres4b15"
  top: "RGBres4b16_branch2a"
  param {
    lr_mult: 0.1
    decay_mult: 1
  }
  convolution_param {
    num_output: 256
    bias_term: false
    pad: 0
    kernel_size: 1
    stride: 1
  }
}
layer {
  name: "RGBbn4b16_branch2a"
  type: "BatchNorm"
  bottom: "RGBres4b16_branch2a"
  top: "RGBres4b16_branch2a"
  param {
    lr_mult: 0
    decay_mult: 0
  }
  param {
    lr_mult: 0
    decay_mult: 0
  }
  param {
    lr_mult: 0
    decay_mult: 0
  }
  batch_norm_param {
    use_global_stats: true
  }
}
layer {
  name: "RGBscale4b16_branch2a"
  type: "Scale"
  bottom: "RGBres4b16_branch2a"
  top: "RGBres4b16_branch2a"
  param {
    lr_mult: 0.1
    decay_mult: 1
  }
  param {
    lr_mult: 0.1
    decay_mult: 1
  }
  scale_param {
    bias_term: true
  }
}
layer {
  name: "RGBres4b16_branch2a_relu"
  type: "ReLU"
  bottom: "RGBres4b16_branch2a"
  top: "RGBres4b16_branch2a"
}
layer {
  name: "RGBres4b16_branch2b"
  type: "Convolution"
  bottom: "RGBres4b16_branch2a"
  top: "RGBres4b16_branch2b"
  param {
    lr_mult: 0.1
    decay_mult: 1
  }
  convolution_param {
    num_output: 256
    bias_term: false
    pad: 1
    kernel_size: 3
    stride: 1
  }
}
layer {
  name: "RGBbn4b16_branch2b"
  type: "BatchNorm"
  bottom: "RGBres4b16_branch2b"
  top: "RGBres4b16_branch2b"
  param {
    lr_mult: 0
    decay_mult: 0
  }
  param {
    lr_mult: 0
    decay_mult: 0
  }
  param {
    lr_mult: 0
    decay_mult: 0
  }
  batch_norm_param {
    use_global_stats: true
  }
}
layer {
  name: "RGBscale4b16_branch2b"
  type: "Scale"
  bottom: "RGBres4b16_branch2b"
  top: "RGBres4b16_branch2b"
  param {
    lr_mult: 0.1
    decay_mult: 1
  }
  param {
    lr_mult: 0.1
    decay_mult: 1
  }
  scale_param {
    bias_term: true
  }
}
layer {
  name: "RGBres4b16_branch2b_relu"
  type: "ReLU"
  bottom: "RGBres4b16_branch2b"
  top: "RGBres4b16_branch2b"
}
layer {
  name: "RGBres4b16_branch2c"
  type: "Convolution"
  bottom: "RGBres4b16_branch2b"
  top: "RGBres4b16_branch2c"
  param {
    lr_mult: 0.1
    decay_mult: 1
  }
  convolution_param {
    num_output: 1024
    bias_term: false
    pad: 0
    kernel_size: 1
    stride: 1
  }
}
layer {
  name: "RGBbn4b16_branch2c"
  type: "BatchNorm"
  bottom: "RGBres4b16_branch2c"
  top: "RGBres4b16_branch2c"
  param {
    lr_mult: 0
    decay_mult: 0
  }
  param {
    lr_mult: 0
    decay_mult: 0
  }
  param {
    lr_mult: 0
    decay_mult: 0
  }
  batch_norm_param {
    use_global_stats: true
  }
}
layer {
  name: "RGBscale4b16_branch2c"
  type: "Scale"
  bottom: "RGBres4b16_branch2c"
  top: "RGBres4b16_branch2c"
  param {
    lr_mult: 0.1
    decay_mult: 1
  }
  param {
    lr_mult: 0.1
    decay_mult: 1
  }
  scale_param {
    bias_term: true
  }
}
layer {
  name: "RGBres4b16"
  type: "Eltwise"
  bottom: "RGBres4b15"
  bottom: "RGBres4b16_branch2c"
  top: "RGBres4b16"
  eltwise_param {
    operation: SUM
  }
}
layer {
  name: "RGBres4b16_relu"
  type: "ReLU"
  bottom: "RGBres4b16"
  top: "RGBres4b16"
}
layer {
  name: "RGBres4b17_branch2a"
  type: "Convolution"
  bottom: "RGBres4b16"
  top: "RGBres4b17_branch2a"
  param {
    lr_mult: 0.1
    decay_mult: 1
  }
  convolution_param {
    num_output: 256
    bias_term: false
    pad: 0
    kernel_size: 1
    stride: 1
  }
}
layer {
  name: "RGBbn4b17_branch2a"
  type: "BatchNorm"
  bottom: "RGBres4b17_branch2a"
  top: "RGBres4b17_branch2a"
  param {
    lr_mult: 0
    decay_mult: 0
  }
  param {
    lr_mult: 0
    decay_mult: 0
  }
  param {
    lr_mult: 0
    decay_mult: 0
  }
  batch_norm_param {
    use_global_stats: true
  }
}
layer {
  name: "RGBscale4b17_branch2a"
  type: "Scale"
  bottom: "RGBres4b17_branch2a"
  top: "RGBres4b17_branch2a"
  param {
    lr_mult: 0.1
    decay_mult: 1
  }
  param {
    lr_mult: 0.1
    decay_mult: 1
  }
  scale_param {
    bias_term: true
  }
}
layer {
  name: "RGBres4b17_branch2a_relu"
  type: "ReLU"
  bottom: "RGBres4b17_branch2a"
  top: "RGBres4b17_branch2a"
}
layer {
  name: "RGBres4b17_branch2b"
  type: "Convolution"
  bottom: "RGBres4b17_branch2a"
  top: "RGBres4b17_branch2b"
  param {
    lr_mult: 0.1
    decay_mult: 1
  }
  convolution_param {
    num_output: 256
    bias_term: false
    pad: 1
    kernel_size: 3
    stride: 1
  }
}
layer {
  name: "RGBbn4b17_branch2b"
  type: "BatchNorm"
  bottom: "RGBres4b17_branch2b"
  top: "RGBres4b17_branch2b"
  param {
    lr_mult: 0
    decay_mult: 0
  }
  param {
    lr_mult: 0
    decay_mult: 0
  }
  param {
    lr_mult: 0
    decay_mult: 0
  }
  batch_norm_param {
    use_global_stats: true
  }
}
layer {
  name: "RGBscale4b17_branch2b"
  type: "Scale"
  bottom: "RGBres4b17_branch2b"
  top: "RGBres4b17_branch2b"
  param {
    lr_mult: 0.1
    decay_mult: 1
  }
  param {
    lr_mult: 0.1
    decay_mult: 1
  }
  scale_param {
    bias_term: true
  }
}
layer {
  name: "RGBres4b17_branch2b_relu"
  type: "ReLU"
  bottom: "RGBres4b17_branch2b"
  top: "RGBres4b17_branch2b"
}
layer {
  name: "RGBres4b17_branch2c"
  type: "Convolution"
  bottom: "RGBres4b17_branch2b"
  top: "RGBres4b17_branch2c"
  param {
    lr_mult: 0.1
    decay_mult: 1
  }
  convolution_param {
    num_output: 1024
    bias_term: false
    pad: 0
    kernel_size: 1
    stride: 1
  }
}
layer {
  name: "RGBbn4b17_branch2c"
  type: "BatchNorm"
  bottom: "RGBres4b17_branch2c"
  top: "RGBres4b17_branch2c"
  param {
    lr_mult: 0
    decay_mult: 0
  }
  param {
    lr_mult: 0
    decay_mult: 0
  }
  param {
    lr_mult: 0
    decay_mult: 0
  }
  batch_norm_param {
    use_global_stats: true
  }
}
layer {
  name: "RGBscale4b17_branch2c"
  type: "Scale"
  bottom: "RGBres4b17_branch2c"
  top: "RGBres4b17_branch2c"
  param {
    lr_mult: 0.1
    decay_mult: 1
  }
  param {
    lr_mult: 0.1
    decay_mult: 1
  }
  scale_param {
    bias_term: true
  }
}
layer {
  name: "RGBres4b17"
  type: "Eltwise"
  bottom: "RGBres4b16"
  bottom: "RGBres4b17_branch2c"
  top: "RGBres4b17"
  eltwise_param {
    operation: SUM
  }
}
layer {
  name: "RGBres4b17_relu"
  type: "ReLU"
  bottom: "RGBres4b17"
  top: "RGBres4b17"
}
layer {
  name: "RGBres4b18_branch2a"
  type: "Convolution"
  bottom: "RGBres4b17"
  top: "RGBres4b18_branch2a"
  param {
    lr_mult: 0.1
    decay_mult: 1
  }
  convolution_param {
    num_output: 256
    bias_term: false
    pad: 0
    kernel_size: 1
    stride: 1
  }
}
layer {
  name: "RGBbn4b18_branch2a"
  type: "BatchNorm"
  bottom: "RGBres4b18_branch2a"
  top: "RGBres4b18_branch2a"
  param {
    lr_mult: 0
    decay_mult: 0
  }
  param {
    lr_mult: 0
    decay_mult: 0
  }
  param {
    lr_mult: 0
    decay_mult: 0
  }
  batch_norm_param {
    use_global_stats: true
  }
}
layer {
  name: "RGBscale4b18_branch2a"
  type: "Scale"
  bottom: "RGBres4b18_branch2a"
  top: "RGBres4b18_branch2a"
  param {
    lr_mult: 0.1
    decay_mult: 1
  }
  param {
    lr_mult: 0.1
    decay_mult: 1
  }
  scale_param {
    bias_term: true
  }
}
layer {
  name: "RGBres4b18_branch2a_relu"
  type: "ReLU"
  bottom: "RGBres4b18_branch2a"
  top: "RGBres4b18_branch2a"
}
layer {
  name: "RGBres4b18_branch2b"
  type: "Convolution"
  bottom: "RGBres4b18_branch2a"
  top: "RGBres4b18_branch2b"
  param {
    lr_mult: 0.1
    decay_mult: 1
  }
  convolution_param {
    num_output: 256
    bias_term: false
    pad: 1
    kernel_size: 3
    stride: 1
  }
}
layer {
  name: "RGBbn4b18_branch2b"
  type: "BatchNorm"
  bottom: "RGBres4b18_branch2b"
  top: "RGBres4b18_branch2b"
  param {
    lr_mult: 0
    decay_mult: 0
  }
  param {
    lr_mult: 0
    decay_mult: 0
  }
  param {
    lr_mult: 0
    decay_mult: 0
  }
  batch_norm_param {
    use_global_stats: true
  }
}
layer {
  name: "RGBscale4b18_branch2b"
  type: "Scale"
  bottom: "RGBres4b18_branch2b"
  top: "RGBres4b18_branch2b"
  param {
    lr_mult: 0.1
    decay_mult: 1
  }
  param {
    lr_mult: 0.1
    decay_mult: 1
  }
  scale_param {
    bias_term: true
  }
}
layer {
  name: "RGBres4b18_branch2b_relu"
  type: "ReLU"
  bottom: "RGBres4b18_branch2b"
  top: "RGBres4b18_branch2b"
}
layer {
  name: "RGBres4b18_branch2c"
  type: "Convolution"
  bottom: "RGBres4b18_branch2b"
  top: "RGBres4b18_branch2c"
  param {
    lr_mult: 0.1
    decay_mult: 1
  }
  convolution_param {
    num_output: 1024
    bias_term: false
    pad: 0
    kernel_size: 1
    stride: 1
  }
}
layer {
  name: "RGBbn4b18_branch2c"
  type: "BatchNorm"
  bottom: "RGBres4b18_branch2c"
  top: "RGBres4b18_branch2c"
  param {
    lr_mult: 0
    decay_mult: 0
  }
  param {
    lr_mult: 0
    decay_mult: 0
  }
  param {
    lr_mult: 0
    decay_mult: 0
  }
  batch_norm_param {
    use_global_stats: true
  }
}
layer {
  name: "RGBscale4b18_branch2c"
  type: "Scale"
  bottom: "RGBres4b18_branch2c"
  top: "RGBres4b18_branch2c"
  param {
    lr_mult: 0.1
    decay_mult: 1
  }
  param {
    lr_mult: 0.1
    decay_mult: 1
  }
  scale_param {
    bias_term: true
  }
}
layer {
  name: "RGBres4b18"
  type: "Eltwise"
  bottom: "RGBres4b17"
  bottom: "RGBres4b18_branch2c"
  top: "RGBres4b18"
  eltwise_param {
    operation: SUM
  }
}
layer {
  name: "RGBres4b18_relu"
  type: "ReLU"
  bottom: "RGBres4b18"
  top: "RGBres4b18"
}
layer {
  name: "RGBres4b19_branch2a"
  type: "Convolution"
  bottom: "RGBres4b18"
  top: "RGBres4b19_branch2a"
  param {
    lr_mult: 0.1
    decay_mult: 1
  }
  convolution_param {
    num_output: 256
    bias_term: false
    pad: 0
    kernel_size: 1
    stride: 1
  }
}
layer {
  name: "RGBbn4b19_branch2a"
  type: "BatchNorm"
  bottom: "RGBres4b19_branch2a"
  top: "RGBres4b19_branch2a"
  param {
    lr_mult: 0
    decay_mult: 0
  }
  param {
    lr_mult: 0
    decay_mult: 0
  }
  param {
    lr_mult: 0
    decay_mult: 0
  }
  batch_norm_param {
    use_global_stats: true
  }
}
layer {
  name: "RGBscale4b19_branch2a"
  type: "Scale"
  bottom: "RGBres4b19_branch2a"
  top: "RGBres4b19_branch2a"
  param {
    lr_mult: 0.1
    decay_mult: 1
  }
  param {
    lr_mult: 0.1
    decay_mult: 1
  }
  scale_param {
    bias_term: true
  }
}
layer {
  name: "RGBres4b19_branch2a_relu"
  type: "ReLU"
  bottom: "RGBres4b19_branch2a"
  top: "RGBres4b19_branch2a"
}
layer {
  name: "RGBres4b19_branch2b"
  type: "Convolution"
  bottom: "RGBres4b19_branch2a"
  top: "RGBres4b19_branch2b"
  param {
    lr_mult: 0.1
    decay_mult: 1
  }
  convolution_param {
    num_output: 256
    bias_term: false
    pad: 1
    kernel_size: 3
    stride: 1
  }
}
layer {
  name: "RGBbn4b19_branch2b"
  type: "BatchNorm"
  bottom: "RGBres4b19_branch2b"
  top: "RGBres4b19_branch2b"
  param {
    lr_mult: 0
    decay_mult: 0
  }
  param {
    lr_mult: 0
    decay_mult: 0
  }
  param {
    lr_mult: 0
    decay_mult: 0
  }
  batch_norm_param {
    use_global_stats: true
  }
}
layer {
  name: "RGBscale4b19_branch2b"
  type: "Scale"
  bottom: "RGBres4b19_branch2b"
  top: "RGBres4b19_branch2b"
  param {
    lr_mult: 0.1
    decay_mult: 1
  }
  param {
    lr_mult: 0.1
    decay_mult: 1
  }
  scale_param {
    bias_term: true
  }
}
layer {
  name: "RGBres4b19_branch2b_relu"
  type: "ReLU"
  bottom: "RGBres4b19_branch2b"
  top: "RGBres4b19_branch2b"
}
layer {
  name: "RGBres4b19_branch2c"
  type: "Convolution"
  bottom: "RGBres4b19_branch2b"
  top: "RGBres4b19_branch2c"
  param {
    lr_mult: 0.1
    decay_mult: 1
  }
  convolution_param {
    num_output: 1024
    bias_term: false
    pad: 0
    kernel_size: 1
    stride: 1
  }
}
layer {
  name: "RGBbn4b19_branch2c"
  type: "BatchNorm"
  bottom: "RGBres4b19_branch2c"
  top: "RGBres4b19_branch2c"
  param {
    lr_mult: 0
    decay_mult: 0
  }
  param {
    lr_mult: 0
    decay_mult: 0
  }
  param {
    lr_mult: 0
    decay_mult: 0
  }
  batch_norm_param {
    use_global_stats: true
  }
}
layer {
  name: "RGBscale4b19_branch2c"
  type: "Scale"
  bottom: "RGBres4b19_branch2c"
  top: "RGBres4b19_branch2c"
  param {
    lr_mult: 0.1
    decay_mult: 1
  }
  param {
    lr_mult: 0.1
    decay_mult: 1
  }
  scale_param {
    bias_term: true
  }
}
layer {
  name: "RGBres4b19"
  type: "Eltwise"
  bottom: "RGBres4b18"
  bottom: "RGBres4b19_branch2c"
  top: "RGBres4b19"
  eltwise_param {
    operation: SUM
  }
}
layer {
  name: "RGBres4b19_relu"
  type: "ReLU"
  bottom: "RGBres4b19"
  top: "RGBres4b19"
}
layer {
  name: "RGBres4b20_branch2a"
  type: "Convolution"
  bottom: "RGBres4b19"
  top: "RGBres4b20_branch2a"
  param {
    lr_mult: 0.1
    decay_mult: 1
  }
  convolution_param {
    num_output: 256
    bias_term: false
    pad: 0
    kernel_size: 1
    stride: 1
  }
}
layer {
  name: "RGBbn4b20_branch2a"
  type: "BatchNorm"
  bottom: "RGBres4b20_branch2a"
  top: "RGBres4b20_branch2a"
  param {
    lr_mult: 0
    decay_mult: 0
  }
  param {
    lr_mult: 0
    decay_mult: 0
  }
  param {
    lr_mult: 0
    decay_mult: 0
  }
  batch_norm_param {
    use_global_stats: true
  }
}
layer {
  name: "RGBscale4b20_branch2a"
  type: "Scale"
  bottom: "RGBres4b20_branch2a"
  top: "RGBres4b20_branch2a"
  param {
    lr_mult: 0.1
    decay_mult: 1
  }
  param {
    lr_mult: 0.1
    decay_mult: 1
  }
  scale_param {
    bias_term: true
  }
}
layer {
  name: "RGBres4b20_branch2a_relu"
  type: "ReLU"
  bottom: "RGBres4b20_branch2a"
  top: "RGBres4b20_branch2a"
}
layer {
  name: "RGBres4b20_branch2b"
  type: "Convolution"
  bottom: "RGBres4b20_branch2a"
  top: "RGBres4b20_branch2b"
  param {
    lr_mult: 0.1
    decay_mult: 1
  }
  convolution_param {
    num_output: 256
    bias_term: false
    pad: 1
    kernel_size: 3
    stride: 1
  }
}
layer {
  name: "RGBbn4b20_branch2b"
  type: "BatchNorm"
  bottom: "RGBres4b20_branch2b"
  top: "RGBres4b20_branch2b"
  param {
    lr_mult: 0
    decay_mult: 0
  }
  param {
    lr_mult: 0
    decay_mult: 0
  }
  param {
    lr_mult: 0
    decay_mult: 0
  }
  batch_norm_param {
    use_global_stats: true
  }
}
layer {
  name: "RGBscale4b20_branch2b"
  type: "Scale"
  bottom: "RGBres4b20_branch2b"
  top: "RGBres4b20_branch2b"
  param {
    lr_mult: 0.1
    decay_mult: 1
  }
  param {
    lr_mult: 0.1
    decay_mult: 1
  }
  scale_param {
    bias_term: true
  }
}
layer {
  name: "RGBres4b20_branch2b_relu"
  type: "ReLU"
  bottom: "RGBres4b20_branch2b"
  top: "RGBres4b20_branch2b"
}
layer {
  name: "RGBres4b20_branch2c"
  type: "Convolution"
  bottom: "RGBres4b20_branch2b"
  top: "RGBres4b20_branch2c"
  param {
    lr_mult: 0.1
    decay_mult: 1
  }
  convolution_param {
    num_output: 1024
    bias_term: false
    pad: 0
    kernel_size: 1
    stride: 1
  }
}
layer {
  name: "RGBbn4b20_branch2c"
  type: "BatchNorm"
  bottom: "RGBres4b20_branch2c"
  top: "RGBres4b20_branch2c"
  param {
    lr_mult: 0
    decay_mult: 0
  }
  param {
    lr_mult: 0
    decay_mult: 0
  }
  param {
    lr_mult: 0
    decay_mult: 0
  }
  batch_norm_param {
    use_global_stats: true
  }
}
layer {
  name: "RGBscale4b20_branch2c"
  type: "Scale"
  bottom: "RGBres4b20_branch2c"
  top: "RGBres4b20_branch2c"
  param {
    lr_mult: 0.1
    decay_mult: 1
  }
  param {
    lr_mult: 0.1
    decay_mult: 1
  }
  scale_param {
    bias_term: true
  }
}
layer {
  name: "RGBres4b20"
  type: "Eltwise"
  bottom: "RGBres4b19"
  bottom: "RGBres4b20_branch2c"
  top: "RGBres4b20"
  eltwise_param {
    operation: SUM
  }
}
layer {
  name: "RGBres4b20_relu"
  type: "ReLU"
  bottom: "RGBres4b20"
  top: "RGBres4b20"
}
layer {
  name: "RGBres4b21_branch2a"
  type: "Convolution"
  bottom: "RGBres4b20"
  top: "RGBres4b21_branch2a"
  param {
    lr_mult: 0.1
    decay_mult: 1
  }
  convolution_param {
    num_output: 256
    bias_term: false
    pad: 0
    kernel_size: 1
    stride: 1
  }
}
layer {
  name: "RGBbn4b21_branch2a"
  type: "BatchNorm"
  bottom: "RGBres4b21_branch2a"
  top: "RGBres4b21_branch2a"
  param {
    lr_mult: 0
    decay_mult: 0
  }
  param {
    lr_mult: 0
    decay_mult: 0
  }
  param {
    lr_mult: 0
    decay_mult: 0
  }
  batch_norm_param {
    use_global_stats: true
  }
}
layer {
  name: "RGBscale4b21_branch2a"
  type: "Scale"
  bottom: "RGBres4b21_branch2a"
  top: "RGBres4b21_branch2a"
  param {
    lr_mult: 0.1
    decay_mult: 1
  }
  param {
    lr_mult: 0.1
    decay_mult: 1
  }
  scale_param {
    bias_term: true
  }
}
layer {
  name: "RGBres4b21_branch2a_relu"
  type: "ReLU"
  bottom: "RGBres4b21_branch2a"
  top: "RGBres4b21_branch2a"
}
layer {
  name: "RGBres4b21_branch2b"
  type: "Convolution"
  bottom: "RGBres4b21_branch2a"
  top: "RGBres4b21_branch2b"
  param {
    lr_mult: 0.1
    decay_mult: 1
  }
  convolution_param {
    num_output: 256
    bias_term: false
    pad: 1
    kernel_size: 3
    stride: 1
  }
}
layer {
  name: "RGBbn4b21_branch2b"
  type: "BatchNorm"
  bottom: "RGBres4b21_branch2b"
  top: "RGBres4b21_branch2b"
  param {
    lr_mult: 0
    decay_mult: 0
  }
  param {
    lr_mult: 0
    decay_mult: 0
  }
  param {
    lr_mult: 0
    decay_mult: 0
  }
  batch_norm_param {
    use_global_stats: true
  }
}
layer {
  name: "RGBscale4b21_branch2b"
  type: "Scale"
  bottom: "RGBres4b21_branch2b"
  top: "RGBres4b21_branch2b"
  param {
    lr_mult: 0.1
    decay_mult: 1
  }
  param {
    lr_mult: 0.1
    decay_mult: 1
  }
  scale_param {
    bias_term: true
  }
}
layer {
  name: "RGBres4b21_branch2b_relu"
  type: "ReLU"
  bottom: "RGBres4b21_branch2b"
  top: "RGBres4b21_branch2b"
}
layer {
  name: "RGBres4b21_branch2c"
  type: "Convolution"
  bottom: "RGBres4b21_branch2b"
  top: "RGBres4b21_branch2c"
  param {
    lr_mult: 0.1
    decay_mult: 1
  }
  convolution_param {
    num_output: 1024
    bias_term: false
    pad: 0
    kernel_size: 1
    stride: 1
  }
}
layer {
  name: "RGBbn4b21_branch2c"
  type: "BatchNorm"
  bottom: "RGBres4b21_branch2c"
  top: "RGBres4b21_branch2c"
  param {
    lr_mult: 0
    decay_mult: 0
  }
  param {
    lr_mult: 0
    decay_mult: 0
  }
  param {
    lr_mult: 0
    decay_mult: 0
  }
  batch_norm_param {
    use_global_stats: true
  }
}
layer {
  name: "RGBscale4b21_branch2c"
  type: "Scale"
  bottom: "RGBres4b21_branch2c"
  top: "RGBres4b21_branch2c"
  param {
    lr_mult: 0.1
    decay_mult: 1
  }
  param {
    lr_mult: 0.1
    decay_mult: 1
  }
  scale_param {
    bias_term: true
  }
}
layer {
  name: "RGBres4b21"
  type: "Eltwise"
  bottom: "RGBres4b20"
  bottom: "RGBres4b21_branch2c"
  top: "RGBres4b21"
  eltwise_param {
    operation: SUM
  }
}
layer {
  name: "RGBres4b21_relu"
  type: "ReLU"
  bottom: "RGBres4b21"
  top: "RGBres4b21"
}
layer {
  name: "RGBres4b22_branch2a"
  type: "Convolution"
  bottom: "RGBres4b21"
  top: "RGBres4b22_branch2a"
  param {
    lr_mult: 0.1
    decay_mult: 1
  }
  convolution_param {
    num_output: 256
    bias_term: false
    pad: 0
    kernel_size: 1
    stride: 1
  }
}
layer {
  name: "RGBbn4b22_branch2a"
  type: "BatchNorm"
  bottom: "RGBres4b22_branch2a"
  top: "RGBres4b22_branch2a"
  param {
    lr_mult: 0
    decay_mult: 0
  }
  param {
    lr_mult: 0
    decay_mult: 0
  }
  param {
    lr_mult: 0
    decay_mult: 0
  }
  batch_norm_param {
    use_global_stats: true
  }
}
layer {
  name: "RGBscale4b22_branch2a"
  type: "Scale"
  bottom: "RGBres4b22_branch2a"
  top: "RGBres4b22_branch2a"
  param {
    lr_mult: 0.1
    decay_mult: 1
  }
  param {
    lr_mult: 0.1
    decay_mult: 1
  }
  scale_param {
    bias_term: true
  }
}
layer {
  name: "RGBres4b22_branch2a_relu"
  type: "ReLU"
  bottom: "RGBres4b22_branch2a"
  top: "RGBres4b22_branch2a"
}
layer {
  name: "RGBres4b22_branch2b"
  type: "Convolution"
  bottom: "RGBres4b22_branch2a"
  top: "RGBres4b22_branch2b"
  param {
    lr_mult: 0.1
    decay_mult: 1
  }
  convolution_param {
    num_output: 256
    bias_term: false
    pad: 1
    kernel_size: 3
    stride: 1
  }
}
layer {
  name: "RGBbn4b22_branch2b"
  type: "BatchNorm"
  bottom: "RGBres4b22_branch2b"
  top: "RGBres4b22_branch2b"
  param {
    lr_mult: 0
    decay_mult: 0
  }
  param {
    lr_mult: 0
    decay_mult: 0
  }
  param {
    lr_mult: 0
    decay_mult: 0
  }
  batch_norm_param {
    use_global_stats: true
  }
}
layer {
  name: "RGBscale4b22_branch2b"
  type: "Scale"
  bottom: "RGBres4b22_branch2b"
  top: "RGBres4b22_branch2b"
  param {
    lr_mult: 0.1
    decay_mult: 1
  }
  param {
    lr_mult: 0.1
    decay_mult: 1
  }
  scale_param {
    bias_term: true
  }
}
layer {
  name: "RGBres4b22_branch2b_relu"
  type: "ReLU"
  bottom: "RGBres4b22_branch2b"
  top: "RGBres4b22_branch2b"
}
layer {
  name: "RGBres4b22_branch2c"
  type: "Convolution"
  bottom: "RGBres4b22_branch2b"
  top: "RGBres4b22_branch2c"
  param {
    lr_mult: 0.1
    decay_mult: 1
  }
  convolution_param {
    num_output: 1024
    bias_term: false
    pad: 0
    kernel_size: 1
    stride: 1
  }
}
layer {
  name: "RGBbn4b22_branch2c"
  type: "BatchNorm"
  bottom: "RGBres4b22_branch2c"
  top: "RGBres4b22_branch2c"
  param {
    lr_mult: 0
    decay_mult: 0
  }
  param {
    lr_mult: 0
    decay_mult: 0
  }
  param {
    lr_mult: 0
    decay_mult: 0
  }
  batch_norm_param {
    use_global_stats: true
  }
}
layer {
  name: "RGBscale4b22_branch2c"
  type: "Scale"
  bottom: "RGBres4b22_branch2c"
  top: "RGBres4b22_branch2c"
  param {
    lr_mult: 0.1
    decay_mult: 1
  }
  param {
    lr_mult: 0.1
    decay_mult: 1
  }
  scale_param {
    bias_term: true
  }
}
layer {
  name: "RGBres4b22"
  type: "Eltwise"
  bottom: "RGBres4b21"
  bottom: "RGBres4b22_branch2c"
  top: "RGBres4b22"
  eltwise_param {
    operation: SUM
  }
}
layer {
  name: "RGBres4b22_relu"
  type: "ReLU"
  bottom: "RGBres4b22"
  top: "RGBres4b22"
}
layer {
  name: "RGBres4b23_branch2a"
  type: "Convolution"
  bottom: "RGBres4b22"
  top: "RGBres4b23_branch2a"
  param {
    lr_mult: 0.1
    decay_mult: 1
  }
  convolution_param {
    num_output: 256
    bias_term: false
    pad: 0
    kernel_size: 1
    stride: 1
  }
}
layer {
  name: "RGBbn4b23_branch2a"
  type: "BatchNorm"
  bottom: "RGBres4b23_branch2a"
  top: "RGBres4b23_branch2a"
  param {
    lr_mult: 0
    decay_mult: 0
  }
  param {
    lr_mult: 0
    decay_mult: 0
  }
  param {
    lr_mult: 0
    decay_mult: 0
  }
  batch_norm_param {
    use_global_stats: true
  }
}
layer {
  name: "RGBscale4b23_branch2a"
  type: "Scale"
  bottom: "RGBres4b23_branch2a"
  top: "RGBres4b23_branch2a"
  param {
    lr_mult: 0.1
    decay_mult: 1
  }
  param {
    lr_mult: 0.1
    decay_mult: 1
  }
  scale_param {
    bias_term: true
  }
}
layer {
  name: "RGBres4b23_branch2a_relu"
  type: "ReLU"
  bottom: "RGBres4b23_branch2a"
  top: "RGBres4b23_branch2a"
}
layer {
  name: "RGBres4b23_branch2b"
  type: "Convolution"
  bottom: "RGBres4b23_branch2a"
  top: "RGBres4b23_branch2b"
  param {
    lr_mult: 0.1
    decay_mult: 1
  }
  convolution_param {
    num_output: 256
    bias_term: false
    pad: 1
    kernel_size: 3
    stride: 1
  }
}
layer {
  name: "RGBbn4b23_branch2b"
  type: "BatchNorm"
  bottom: "RGBres4b23_branch2b"
  top: "RGBres4b23_branch2b"
  param {
    lr_mult: 0
    decay_mult: 0
  }
  param {
    lr_mult: 0
    decay_mult: 0
  }
  param {
    lr_mult: 0
    decay_mult: 0
  }
  batch_norm_param {
    use_global_stats: true
  }
}
layer {
  name: "RGBscale4b23_branch2b"
  type: "Scale"
  bottom: "RGBres4b23_branch2b"
  top: "RGBres4b23_branch2b"
  param {
    lr_mult: 0.1
    decay_mult: 1
  }
  param {
    lr_mult: 0.1
    decay_mult: 1
  }
  scale_param {
    bias_term: true
  }
}
layer {
  name: "RGBres4b23_branch2b_relu"
  type: "ReLU"
  bottom: "RGBres4b23_branch2b"
  top: "RGBres4b23_branch2b"
}
layer {
  name: "RGBres4b23_branch2c"
  type: "Convolution"
  bottom: "RGBres4b23_branch2b"
  top: "RGBres4b23_branch2c"
  param {
    lr_mult: 0.1
    decay_mult: 1
  }
  convolution_param {
    num_output: 1024
    bias_term: false
    pad: 0
    kernel_size: 1
    stride: 1
  }
}
layer {
  name: "RGBbn4b23_branch2c"
  type: "BatchNorm"
  bottom: "RGBres4b23_branch2c"
  top: "RGBres4b23_branch2c"
  param {
    lr_mult: 0
    decay_mult: 0
  }
  param {
    lr_mult: 0
    decay_mult: 0
  }
  param {
    lr_mult: 0
    decay_mult: 0
  }
  batch_norm_param {
    use_global_stats: true
  }
}
layer {
  name: "RGBscale4b23_branch2c"
  type: "Scale"
  bottom: "RGBres4b23_branch2c"
  top: "RGBres4b23_branch2c"
  param {
    lr_mult: 0.1
    decay_mult: 1
  }
  param {
    lr_mult: 0.1
    decay_mult: 1
  }
  scale_param {
    bias_term: true
  }
}
layer {
  name: "RGBres4b23"
  type: "Eltwise"
  bottom: "RGBres4b22"
  bottom: "RGBres4b23_branch2c"
  top: "RGBres4b23"
  eltwise_param {
    operation: SUM
  }
}
layer {
  name: "RGBres4b23_relu"
  type: "ReLU"
  bottom: "RGBres4b23"
  top: "RGBres4b23"
}
layer {
  name: "RGBres4b24_branch2a"
  type: "Convolution"
  bottom: "RGBres4b23"
  top: "RGBres4b24_branch2a"
  param {
    lr_mult: 0.1
    decay_mult: 1
  }
  convolution_param {
    num_output: 256
    bias_term: false
    pad: 0
    kernel_size: 1
    stride: 1
  }
}
layer {
  name: "RGBbn4b24_branch2a"
  type: "BatchNorm"
  bottom: "RGBres4b24_branch2a"
  top: "RGBres4b24_branch2a"
  param {
    lr_mult: 0
    decay_mult: 0
  }
  param {
    lr_mult: 0
    decay_mult: 0
  }
  param {
    lr_mult: 0
    decay_mult: 0
  }
  batch_norm_param {
    use_global_stats: true
  }
}
layer {
  name: "RGBscale4b24_branch2a"
  type: "Scale"
  bottom: "RGBres4b24_branch2a"
  top: "RGBres4b24_branch2a"
  param {
    lr_mult: 0.1
    decay_mult: 1
  }
  param {
    lr_mult: 0.1
    decay_mult: 1
  }
  scale_param {
    bias_term: true
  }
}
layer {
  name: "RGBres4b24_branch2a_relu"
  type: "ReLU"
  bottom: "RGBres4b24_branch2a"
  top: "RGBres4b24_branch2a"
}
layer {
  name: "RGBres4b24_branch2b"
  type: "Convolution"
  bottom: "RGBres4b24_branch2a"
  top: "RGBres4b24_branch2b"
  param {
    lr_mult: 0.1
    decay_mult: 1
  }
  convolution_param {
    num_output: 256
    bias_term: false
    pad: 1
    kernel_size: 3
    stride: 1
  }
}
layer {
  name: "RGBbn4b24_branch2b"
  type: "BatchNorm"
  bottom: "RGBres4b24_branch2b"
  top: "RGBres4b24_branch2b"
  param {
    lr_mult: 0
    decay_mult: 0
  }
  param {
    lr_mult: 0
    decay_mult: 0
  }
  param {
    lr_mult: 0
    decay_mult: 0
  }
  batch_norm_param {
    use_global_stats: true
  }
}
layer {
  name: "RGBscale4b24_branch2b"
  type: "Scale"
  bottom: "RGBres4b24_branch2b"
  top: "RGBres4b24_branch2b"
  param {
    lr_mult: 0.1
    decay_mult: 1
  }
  param {
    lr_mult: 0.1
    decay_mult: 1
  }
  scale_param {
    bias_term: true
  }
}
layer {
  name: "RGBres4b24_branch2b_relu"
  type: "ReLU"
  bottom: "RGBres4b24_branch2b"
  top: "RGBres4b24_branch2b"
}
layer {
  name: "RGBres4b24_branch2c"
  type: "Convolution"
  bottom: "RGBres4b24_branch2b"
  top: "RGBres4b24_branch2c"
  param {
    lr_mult: 0.1
    decay_mult: 1
  }
  convolution_param {
    num_output: 1024
    bias_term: false
    pad: 0
    kernel_size: 1
    stride: 1
  }
}
layer {
  name: "RGBbn4b24_branch2c"
  type: "BatchNorm"
  bottom: "RGBres4b24_branch2c"
  top: "RGBres4b24_branch2c"
  param {
    lr_mult: 0
    decay_mult: 0
  }
  param {
    lr_mult: 0
    decay_mult: 0
  }
  param {
    lr_mult: 0
    decay_mult: 0
  }
  batch_norm_param {
    use_global_stats: true
  }
}
layer {
  name: "RGBscale4b24_branch2c"
  type: "Scale"
  bottom: "RGBres4b24_branch2c"
  top: "RGBres4b24_branch2c"
  param {
    lr_mult: 0.1
    decay_mult: 1
  }
  param {
    lr_mult: 0.1
    decay_mult: 1
  }
  scale_param {
    bias_term: true
  }
}
layer {
  name: "RGBres4b24"
  type: "Eltwise"
  bottom: "RGBres4b23"
  bottom: "RGBres4b24_branch2c"
  top: "RGBres4b24"
  eltwise_param {
    operation: SUM
  }
}
layer {
  name: "RGBres4b24_relu"
  type: "ReLU"
  bottom: "RGBres4b24"
  top: "RGBres4b24"
}
layer {
  name: "RGBres4b25_branch2a"
  type: "Convolution"
  bottom: "RGBres4b24"
  top: "RGBres4b25_branch2a"
  param {
    lr_mult: 0.1
    decay_mult: 1
  }
  convolution_param {
    num_output: 256
    bias_term: false
    pad: 0
    kernel_size: 1
    stride: 1
  }
}
layer {
  name: "RGBbn4b25_branch2a"
  type: "BatchNorm"
  bottom: "RGBres4b25_branch2a"
  top: "RGBres4b25_branch2a"
  param {
    lr_mult: 0
    decay_mult: 0
  }
  param {
    lr_mult: 0
    decay_mult: 0
  }
  param {
    lr_mult: 0
    decay_mult: 0
  }
  batch_norm_param {
    use_global_stats: true
  }
}
layer {
  name: "RGBscale4b25_branch2a"
  type: "Scale"
  bottom: "RGBres4b25_branch2a"
  top: "RGBres4b25_branch2a"
  param {
    lr_mult: 0.1
    decay_mult: 1
  }
  param {
    lr_mult: 0.1
    decay_mult: 1
  }
  scale_param {
    bias_term: true
  }
}
layer {
  name: "RGBres4b25_branch2a_relu"
  type: "ReLU"
  bottom: "RGBres4b25_branch2a"
  top: "RGBres4b25_branch2a"
}
layer {
  name: "RGBres4b25_branch2b"
  type: "Convolution"
  bottom: "RGBres4b25_branch2a"
  top: "RGBres4b25_branch2b"
  param {
    lr_mult: 0.1
    decay_mult: 1
  }
  convolution_param {
    num_output: 256
    bias_term: false
    pad: 1
    kernel_size: 3
    stride: 1
  }
}
layer {
  name: "RGBbn4b25_branch2b"
  type: "BatchNorm"
  bottom: "RGBres4b25_branch2b"
  top: "RGBres4b25_branch2b"
  param {
    lr_mult: 0
    decay_mult: 0
  }
  param {
    lr_mult: 0
    decay_mult: 0
  }
  param {
    lr_mult: 0
    decay_mult: 0
  }
  batch_norm_param {
    use_global_stats: true
  }
}
layer {
  name: "RGBscale4b25_branch2b"
  type: "Scale"
  bottom: "RGBres4b25_branch2b"
  top: "RGBres4b25_branch2b"
  param {
    lr_mult: 0.1
    decay_mult: 1
  }
  param {
    lr_mult: 0.1
    decay_mult: 1
  }
  scale_param {
    bias_term: true
  }
}
layer {
  name: "RGBres4b25_branch2b_relu"
  type: "ReLU"
  bottom: "RGBres4b25_branch2b"
  top: "RGBres4b25_branch2b"
}
layer {
  name: "RGBres4b25_branch2c"
  type: "Convolution"
  bottom: "RGBres4b25_branch2b"
  top: "RGBres4b25_branch2c"
  param {
    lr_mult: 0.1
    decay_mult: 1
  }
  convolution_param {
    num_output: 1024
    bias_term: false
    pad: 0
    kernel_size: 1
    stride: 1
  }
}
layer {
  name: "RGBbn4b25_branch2c"
  type: "BatchNorm"
  bottom: "RGBres4b25_branch2c"
  top: "RGBres4b25_branch2c"
  param {
    lr_mult: 0
    decay_mult: 0
  }
  param {
    lr_mult: 0
    decay_mult: 0
  }
  param {
    lr_mult: 0
    decay_mult: 0
  }
  batch_norm_param {
    use_global_stats: true
  }
}
layer {
  name: "RGBscale4b25_branch2c"
  type: "Scale"
  bottom: "RGBres4b25_branch2c"
  top: "RGBres4b25_branch2c"
  param {
    lr_mult: 0.1
    decay_mult: 1
  }
  param {
    lr_mult: 0.1
    decay_mult: 1
  }
  scale_param {
    bias_term: true
  }
}
layer {
  name: "RGBres4b25"
  type: "Eltwise"
  bottom: "RGBres4b24"
  bottom: "RGBres4b25_branch2c"
  top: "RGBres4b25"
  eltwise_param {
    operation: SUM
  }
}
layer {
  name: "RGBres4b25_relu"
  type: "ReLU"
  bottom: "RGBres4b25"
  top: "RGBres4b25"
}
layer {
  name: "RGBres4b26_branch2a"
  type: "Convolution"
  bottom: "RGBres4b25"
  top: "RGBres4b26_branch2a"
  param {
    lr_mult: 0.1
    decay_mult: 1
  }
  convolution_param {
    num_output: 256
    bias_term: false
    pad: 0
    kernel_size: 1
    stride: 1
  }
}
layer {
  name: "RGBbn4b26_branch2a"
  type: "BatchNorm"
  bottom: "RGBres4b26_branch2a"
  top: "RGBres4b26_branch2a"
  param {
    lr_mult: 0
    decay_mult: 0
  }
  param {
    lr_mult: 0
    decay_mult: 0
  }
  param {
    lr_mult: 0
    decay_mult: 0
  }
  batch_norm_param {
    use_global_stats: true
  }
}
layer {
  name: "RGBscale4b26_branch2a"
  type: "Scale"
  bottom: "RGBres4b26_branch2a"
  top: "RGBres4b26_branch2a"
  param {
    lr_mult: 0.1
    decay_mult: 1
  }
  param {
    lr_mult: 0.1
    decay_mult: 1
  }
  scale_param {
    bias_term: true
  }
}
layer {
  name: "RGBres4b26_branch2a_relu"
  type: "ReLU"
  bottom: "RGBres4b26_branch2a"
  top: "RGBres4b26_branch2a"
}
layer {
  name: "RGBres4b26_branch2b"
  type: "Convolution"
  bottom: "RGBres4b26_branch2a"
  top: "RGBres4b26_branch2b"
  param {
    lr_mult: 0.1
    decay_mult: 1
  }
  convolution_param {
    num_output: 256
    bias_term: false
    pad: 1
    kernel_size: 3
    stride: 1
  }
}
layer {
  name: "RGBbn4b26_branch2b"
  type: "BatchNorm"
  bottom: "RGBres4b26_branch2b"
  top: "RGBres4b26_branch2b"
  param {
    lr_mult: 0
    decay_mult: 0
  }
  param {
    lr_mult: 0
    decay_mult: 0
  }
  param {
    lr_mult: 0
    decay_mult: 0
  }
  batch_norm_param {
    use_global_stats: true
  }
}
layer {
  name: "RGBscale4b26_branch2b"
  type: "Scale"
  bottom: "RGBres4b26_branch2b"
  top: "RGBres4b26_branch2b"
  param {
    lr_mult: 0.1
    decay_mult: 1
  }
  param {
    lr_mult: 0.1
    decay_mult: 1
  }
  scale_param {
    bias_term: true
  }
}
layer {
  name: "RGBres4b26_branch2b_relu"
  type: "ReLU"
  bottom: "RGBres4b26_branch2b"
  top: "RGBres4b26_branch2b"
}
layer {
  name: "RGBres4b26_branch2c"
  type: "Convolution"
  bottom: "RGBres4b26_branch2b"
  top: "RGBres4b26_branch2c"
  param {
    lr_mult: 0.1
    decay_mult: 1
  }
  convolution_param {
    num_output: 1024
    bias_term: false
    pad: 0
    kernel_size: 1
    stride: 1
  }
}
layer {
  name: "RGBbn4b26_branch2c"
  type: "BatchNorm"
  bottom: "RGBres4b26_branch2c"
  top: "RGBres4b26_branch2c"
  param {
    lr_mult: 0
    decay_mult: 0
  }
  param {
    lr_mult: 0
    decay_mult: 0
  }
  param {
    lr_mult: 0
    decay_mult: 0
  }
  batch_norm_param {
    use_global_stats: true
  }
}
layer {
  name: "RGBscale4b26_branch2c"
  type: "Scale"
  bottom: "RGBres4b26_branch2c"
  top: "RGBres4b26_branch2c"
  param {
    lr_mult: 0.1
    decay_mult: 1
  }
  param {
    lr_mult: 0.1
    decay_mult: 1
  }
  scale_param {
    bias_term: true
  }
}
layer {
  name: "RGBres4b26"
  type: "Eltwise"
  bottom: "RGBres4b25"
  bottom: "RGBres4b26_branch2c"
  top: "RGBres4b26"
  eltwise_param {
    operation: SUM
  }
}
layer {
  name: "RGBres4b26_relu"
  type: "ReLU"
  bottom: "RGBres4b26"
  top: "RGBres4b26"
}
layer {
  name: "RGBres4b27_branch2a"
  type: "Convolution"
  bottom: "RGBres4b26"
  top: "RGBres4b27_branch2a"
  param {
    lr_mult: 0.1
    decay_mult: 1
  }
  convolution_param {
    num_output: 256
    bias_term: false
    pad: 0
    kernel_size: 1
    stride: 1
  }
}
layer {
  name: "RGBbn4b27_branch2a"
  type: "BatchNorm"
  bottom: "RGBres4b27_branch2a"
  top: "RGBres4b27_branch2a"
  param {
    lr_mult: 0
    decay_mult: 0
  }
  param {
    lr_mult: 0
    decay_mult: 0
  }
  param {
    lr_mult: 0
    decay_mult: 0
  }
  batch_norm_param {
    use_global_stats: true
  }
}
layer {
  name: "RGBscale4b27_branch2a"
  type: "Scale"
  bottom: "RGBres4b27_branch2a"
  top: "RGBres4b27_branch2a"
  param {
    lr_mult: 0.1
    decay_mult: 1
  }
  param {
    lr_mult: 0.1
    decay_mult: 1
  }
  scale_param {
    bias_term: true
  }
}
layer {
  name: "RGBres4b27_branch2a_relu"
  type: "ReLU"
  bottom: "RGBres4b27_branch2a"
  top: "RGBres4b27_branch2a"
}
layer {
  name: "RGBres4b27_branch2b"
  type: "Convolution"
  bottom: "RGBres4b27_branch2a"
  top: "RGBres4b27_branch2b"
  param {
    lr_mult: 0.1
    decay_mult: 1
  }
  convolution_param {
    num_output: 256
    bias_term: false
    pad: 1
    kernel_size: 3
    stride: 1
  }
}
layer {
  name: "RGBbn4b27_branch2b"
  type: "BatchNorm"
  bottom: "RGBres4b27_branch2b"
  top: "RGBres4b27_branch2b"
  param {
    lr_mult: 0
    decay_mult: 0
  }
  param {
    lr_mult: 0
    decay_mult: 0
  }
  param {
    lr_mult: 0
    decay_mult: 0
  }
  batch_norm_param {
    use_global_stats: true
  }
}
layer {
  name: "RGBscale4b27_branch2b"
  type: "Scale"
  bottom: "RGBres4b27_branch2b"
  top: "RGBres4b27_branch2b"
  param {
    lr_mult: 0.1
    decay_mult: 1
  }
  param {
    lr_mult: 0.1
    decay_mult: 1
  }
  scale_param {
    bias_term: true
  }
}
layer {
  name: "RGBres4b27_branch2b_relu"
  type: "ReLU"
  bottom: "RGBres4b27_branch2b"
  top: "RGBres4b27_branch2b"
}
layer {
  name: "RGBres4b27_branch2c"
  type: "Convolution"
  bottom: "RGBres4b27_branch2b"
  top: "RGBres4b27_branch2c"
  param {
    lr_mult: 0.1
    decay_mult: 1
  }
  convolution_param {
    num_output: 1024
    bias_term: false
    pad: 0
    kernel_size: 1
    stride: 1
  }
}
layer {
  name: "RGBbn4b27_branch2c"
  type: "BatchNorm"
  bottom: "RGBres4b27_branch2c"
  top: "RGBres4b27_branch2c"
  param {
    lr_mult: 0
    decay_mult: 0
  }
  param {
    lr_mult: 0
    decay_mult: 0
  }
  param {
    lr_mult: 0
    decay_mult: 0
  }
  batch_norm_param {
    use_global_stats: true
  }
}
layer {
  name: "RGBscale4b27_branch2c"
  type: "Scale"
  bottom: "RGBres4b27_branch2c"
  top: "RGBres4b27_branch2c"
  param {
    lr_mult: 0.1
    decay_mult: 1
  }
  param {
    lr_mult: 0.1
    decay_mult: 1
  }
  scale_param {
    bias_term: true
  }
}
layer {
  name: "RGBres4b27"
  type: "Eltwise"
  bottom: "RGBres4b26"
  bottom: "RGBres4b27_branch2c"
  top: "RGBres4b27"
  eltwise_param {
    operation: SUM
  }
}
layer {
  name: "RGBres4b27_relu"
  type: "ReLU"
  bottom: "RGBres4b27"
  top: "RGBres4b27"
}
layer {
  name: "RGBres4b28_branch2a"
  type: "Convolution"
  bottom: "RGBres4b27"
  top: "RGBres4b28_branch2a"
  param {
    lr_mult: 0.1
    decay_mult: 1
  }
  convolution_param {
    num_output: 256
    bias_term: false
    pad: 0
    kernel_size: 1
    stride: 1
  }
}
layer {
  name: "RGBbn4b28_branch2a"
  type: "BatchNorm"
  bottom: "RGBres4b28_branch2a"
  top: "RGBres4b28_branch2a"
  param {
    lr_mult: 0
    decay_mult: 0
  }
  param {
    lr_mult: 0
    decay_mult: 0
  }
  param {
    lr_mult: 0
    decay_mult: 0
  }
  batch_norm_param {
    use_global_stats: true
  }
}
layer {
  name: "RGBscale4b28_branch2a"
  type: "Scale"
  bottom: "RGBres4b28_branch2a"
  top: "RGBres4b28_branch2a"
  param {
    lr_mult: 0.1
    decay_mult: 1
  }
  param {
    lr_mult: 0.1
    decay_mult: 1
  }
  scale_param {
    bias_term: true
  }
}
layer {
  name: "RGBres4b28_branch2a_relu"
  type: "ReLU"
  bottom: "RGBres4b28_branch2a"
  top: "RGBres4b28_branch2a"
}
layer {
  name: "RGBres4b28_branch2b"
  type: "Convolution"
  bottom: "RGBres4b28_branch2a"
  top: "RGBres4b28_branch2b"
  param {
    lr_mult: 0.1
    decay_mult: 1
  }
  convolution_param {
    num_output: 256
    bias_term: false
    pad: 1
    kernel_size: 3
    stride: 1
  }
}
layer {
  name: "RGBbn4b28_branch2b"
  type: "BatchNorm"
  bottom: "RGBres4b28_branch2b"
  top: "RGBres4b28_branch2b"
  param {
    lr_mult: 0
    decay_mult: 0
  }
  param {
    lr_mult: 0
    decay_mult: 0
  }
  param {
    lr_mult: 0
    decay_mult: 0
  }
  batch_norm_param {
    use_global_stats: true
  }
}
layer {
  name: "RGBscale4b28_branch2b"
  type: "Scale"
  bottom: "RGBres4b28_branch2b"
  top: "RGBres4b28_branch2b"
  param {
    lr_mult: 0.1
    decay_mult: 1
  }
  param {
    lr_mult: 0.1
    decay_mult: 1
  }
  scale_param {
    bias_term: true
  }
}
layer {
  name: "RGBres4b28_branch2b_relu"
  type: "ReLU"
  bottom: "RGBres4b28_branch2b"
  top: "RGBres4b28_branch2b"
}
layer {
  name: "RGBres4b28_branch2c"
  type: "Convolution"
  bottom: "RGBres4b28_branch2b"
  top: "RGBres4b28_branch2c"
  param {
    lr_mult: 0.1
    decay_mult: 1
  }
  convolution_param {
    num_output: 1024
    bias_term: false
    pad: 0
    kernel_size: 1
    stride: 1
  }
}
layer {
  name: "RGBbn4b28_branch2c"
  type: "BatchNorm"
  bottom: "RGBres4b28_branch2c"
  top: "RGBres4b28_branch2c"
  param {
    lr_mult: 0
    decay_mult: 0
  }
  param {
    lr_mult: 0
    decay_mult: 0
  }
  param {
    lr_mult: 0
    decay_mult: 0
  }
  batch_norm_param {
    use_global_stats: true
  }
}
layer {
  name: "RGBscale4b28_branch2c"
  type: "Scale"
  bottom: "RGBres4b28_branch2c"
  top: "RGBres4b28_branch2c"
  param {
    lr_mult: 0.1
    decay_mult: 1
  }
  param {
    lr_mult: 0.1
    decay_mult: 1
  }
  scale_param {
    bias_term: true
  }
}
layer {
  name: "RGBres4b28"
  type: "Eltwise"
  bottom: "RGBres4b27"
  bottom: "RGBres4b28_branch2c"
  top: "RGBres4b28"
  eltwise_param {
    operation: SUM
  }
}
layer {
  name: "RGBres4b28_relu"
  type: "ReLU"
  bottom: "RGBres4b28"
  top: "RGBres4b28"
}
layer {
  name: "RGBres4b29_branch2a"
  type: "Convolution"
  bottom: "RGBres4b28"
  top: "RGBres4b29_branch2a"
  param {
    lr_mult: 0.1
    decay_mult: 1
  }
  convolution_param {
    num_output: 256
    bias_term: false
    pad: 0
    kernel_size: 1
    stride: 1
  }
}
layer {
  name: "RGBbn4b29_branch2a"
  type: "BatchNorm"
  bottom: "RGBres4b29_branch2a"
  top: "RGBres4b29_branch2a"
  param {
    lr_mult: 0
    decay_mult: 0
  }
  param {
    lr_mult: 0
    decay_mult: 0
  }
  param {
    lr_mult: 0
    decay_mult: 0
  }
  batch_norm_param {
    use_global_stats: true
  }
}
layer {
  name: "RGBscale4b29_branch2a"
  type: "Scale"
  bottom: "RGBres4b29_branch2a"
  top: "RGBres4b29_branch2a"
  param {
    lr_mult: 0.1
    decay_mult: 1
  }
  param {
    lr_mult: 0.1
    decay_mult: 1
  }
  scale_param {
    bias_term: true
  }
}
layer {
  name: "RGBres4b29_branch2a_relu"
  type: "ReLU"
  bottom: "RGBres4b29_branch2a"
  top: "RGBres4b29_branch2a"
}
layer {
  name: "RGBres4b29_branch2b"
  type: "Convolution"
  bottom: "RGBres4b29_branch2a"
  top: "RGBres4b29_branch2b"
  param {
    lr_mult: 0.1
    decay_mult: 1
  }
  convolution_param {
    num_output: 256
    bias_term: false
    pad: 1
    kernel_size: 3
    stride: 1
  }
}
layer {
  name: "RGBbn4b29_branch2b"
  type: "BatchNorm"
  bottom: "RGBres4b29_branch2b"
  top: "RGBres4b29_branch2b"
  param {
    lr_mult: 0
    decay_mult: 0
  }
  param {
    lr_mult: 0
    decay_mult: 0
  }
  param {
    lr_mult: 0
    decay_mult: 0
  }
  batch_norm_param {
    use_global_stats: true
  }
}
layer {
  name: "RGBscale4b29_branch2b"
  type: "Scale"
  bottom: "RGBres4b29_branch2b"
  top: "RGBres4b29_branch2b"
  param {
    lr_mult: 0.1
    decay_mult: 1
  }
  param {
    lr_mult: 0.1
    decay_mult: 1
  }
  scale_param {
    bias_term: true
  }
}
layer {
  name: "RGBres4b29_branch2b_relu"
  type: "ReLU"
  bottom: "RGBres4b29_branch2b"
  top: "RGBres4b29_branch2b"
}
layer {
  name: "RGBres4b29_branch2c"
  type: "Convolution"
  bottom: "RGBres4b29_branch2b"
  top: "RGBres4b29_branch2c"
  param {
    lr_mult: 0.1
    decay_mult: 1
  }
  convolution_param {
    num_output: 1024
    bias_term: false
    pad: 0
    kernel_size: 1
    stride: 1
  }
}
layer {
  name: "RGBbn4b29_branch2c"
  type: "BatchNorm"
  bottom: "RGBres4b29_branch2c"
  top: "RGBres4b29_branch2c"
  param {
    lr_mult: 0
    decay_mult: 0
  }
  param {
    lr_mult: 0
    decay_mult: 0
  }
  param {
    lr_mult: 0
    decay_mult: 0
  }
  batch_norm_param {
    use_global_stats: true
  }
}
layer {
  name: "RGBscale4b29_branch2c"
  type: "Scale"
  bottom: "RGBres4b29_branch2c"
  top: "RGBres4b29_branch2c"
  param {
    lr_mult: 0.1
    decay_mult: 1
  }
  param {
    lr_mult: 0.1
    decay_mult: 1
  }
  scale_param {
    bias_term: true
  }
}
layer {
  name: "RGBres4b29"
  type: "Eltwise"
  bottom: "RGBres4b28"
  bottom: "RGBres4b29_branch2c"
  top: "RGBres4b29"
  eltwise_param {
    operation: SUM
  }
}
layer {
  name: "RGBres4b29_relu"
  type: "ReLU"
  bottom: "RGBres4b29"
  top: "RGBres4b29"
}
layer {
  name: "RGBres4b30_branch2a"
  type: "Convolution"
  bottom: "RGBres4b29"
  top: "RGBres4b30_branch2a"
  param {
    lr_mult: 0.1
    decay_mult: 1
  }
  convolution_param {
    num_output: 256
    bias_term: false
    pad: 0
    kernel_size: 1
    stride: 1
  }
}
layer {
  name: "RGBbn4b30_branch2a"
  type: "BatchNorm"
  bottom: "RGBres4b30_branch2a"
  top: "RGBres4b30_branch2a"
  param {
    lr_mult: 0
    decay_mult: 0
  }
  param {
    lr_mult: 0
    decay_mult: 0
  }
  param {
    lr_mult: 0
    decay_mult: 0
  }
  batch_norm_param {
    use_global_stats: true
  }
}
layer {
  name: "RGBscale4b30_branch2a"
  type: "Scale"
  bottom: "RGBres4b30_branch2a"
  top: "RGBres4b30_branch2a"
  param {
    lr_mult: 0.1
    decay_mult: 1
  }
  param {
    lr_mult: 0.1
    decay_mult: 1
  }
  scale_param {
    bias_term: true
  }
}
layer {
  name: "RGBres4b30_branch2a_relu"
  type: "ReLU"
  bottom: "RGBres4b30_branch2a"
  top: "RGBres4b30_branch2a"
}
layer {
  name: "RGBres4b30_branch2b"
  type: "Convolution"
  bottom: "RGBres4b30_branch2a"
  top: "RGBres4b30_branch2b"
  param {
    lr_mult: 0.1
    decay_mult: 1
  }
  convolution_param {
    num_output: 256
    bias_term: false
    pad: 1
    kernel_size: 3
    stride: 1
  }
}
layer {
  name: "RGBbn4b30_branch2b"
  type: "BatchNorm"
  bottom: "RGBres4b30_branch2b"
  top: "RGBres4b30_branch2b"
  param {
    lr_mult: 0
    decay_mult: 0
  }
  param {
    lr_mult: 0
    decay_mult: 0
  }
  param {
    lr_mult: 0
    decay_mult: 0
  }
  batch_norm_param {
    use_global_stats: true
  }
}
layer {
  name: "RGBscale4b30_branch2b"
  type: "Scale"
  bottom: "RGBres4b30_branch2b"
  top: "RGBres4b30_branch2b"
  param {
    lr_mult: 0.1
    decay_mult: 1
  }
  param {
    lr_mult: 0.1
    decay_mult: 1
  }
  scale_param {
    bias_term: true
  }
}
layer {
  name: "RGBres4b30_branch2b_relu"
  type: "ReLU"
  bottom: "RGBres4b30_branch2b"
  top: "RGBres4b30_branch2b"
}
layer {
  name: "RGBres4b30_branch2c"
  type: "Convolution"
  bottom: "RGBres4b30_branch2b"
  top: "RGBres4b30_branch2c"
  param {
    lr_mult: 0.1
    decay_mult: 1
  }
  convolution_param {
    num_output: 1024
    bias_term: false
    pad: 0
    kernel_size: 1
    stride: 1
  }
}
layer {
  name: "RGBbn4b30_branch2c"
  type: "BatchNorm"
  bottom: "RGBres4b30_branch2c"
  top: "RGBres4b30_branch2c"
  param {
    lr_mult: 0
    decay_mult: 0
  }
  param {
    lr_mult: 0
    decay_mult: 0
  }
  param {
    lr_mult: 0
    decay_mult: 0
  }
  batch_norm_param {
    use_global_stats: true
  }
}
layer {
  name: "RGBscale4b30_branch2c"
  type: "Scale"
  bottom: "RGBres4b30_branch2c"
  top: "RGBres4b30_branch2c"
  param {
    lr_mult: 0.1
    decay_mult: 1
  }
  param {
    lr_mult: 0.1
    decay_mult: 1
  }
  scale_param {
    bias_term: true
  }
}
layer {
  name: "RGBres4b30"
  type: "Eltwise"
  bottom: "RGBres4b29"
  bottom: "RGBres4b30_branch2c"
  top: "RGBres4b30"
  eltwise_param {
    operation: SUM
  }
}
layer {
  name: "RGBres4b30_relu"
  type: "ReLU"
  bottom: "RGBres4b30"
  top: "RGBres4b30"
}
layer {
  name: "RGBres4b31_branch2a"
  type: "Convolution"
  bottom: "RGBres4b30"
  top: "RGBres4b31_branch2a"
  param {
    lr_mult: 0.1
    decay_mult: 1
  }
  convolution_param {
    num_output: 256
    bias_term: false
    pad: 0
    kernel_size: 1
    stride: 1
  }
}
layer {
  name: "RGBbn4b31_branch2a"
  type: "BatchNorm"
  bottom: "RGBres4b31_branch2a"
  top: "RGBres4b31_branch2a"
  param {
    lr_mult: 0
    decay_mult: 0
  }
  param {
    lr_mult: 0
    decay_mult: 0
  }
  param {
    lr_mult: 0
    decay_mult: 0
  }
  batch_norm_param {
    use_global_stats: true
  }
}
layer {
  name: "RGBscale4b31_branch2a"
  type: "Scale"
  bottom: "RGBres4b31_branch2a"
  top: "RGBres4b31_branch2a"
  param {
    lr_mult: 0.1
    decay_mult: 1
  }
  param {
    lr_mult: 0.1
    decay_mult: 1
  }
  scale_param {
    bias_term: true
  }
}
layer {
  name: "RGBres4b31_branch2a_relu"
  type: "ReLU"
  bottom: "RGBres4b31_branch2a"
  top: "RGBres4b31_branch2a"
}
layer {
  name: "RGBres4b31_branch2b"
  type: "Convolution"
  bottom: "RGBres4b31_branch2a"
  top: "RGBres4b31_branch2b"
  param {
    lr_mult: 0.1
    decay_mult: 1
  }
  convolution_param {
    num_output: 256
    bias_term: false
    pad: 1
    kernel_size: 3
    stride: 1
  }
}
layer {
  name: "RGBbn4b31_branch2b"
  type: "BatchNorm"
  bottom: "RGBres4b31_branch2b"
  top: "RGBres4b31_branch2b"
  param {
    lr_mult: 0
    decay_mult: 0
  }
  param {
    lr_mult: 0
    decay_mult: 0
  }
  param {
    lr_mult: 0
    decay_mult: 0
  }
  batch_norm_param {
    use_global_stats: true
  }
}
layer {
  name: "RGBscale4b31_branch2b"
  type: "Scale"
  bottom: "RGBres4b31_branch2b"
  top: "RGBres4b31_branch2b"
  param {
    lr_mult: 0.1
    decay_mult: 1
  }
  param {
    lr_mult: 0.1
    decay_mult: 1
  }
  scale_param {
    bias_term: true
  }
}
layer {
  name: "RGBres4b31_branch2b_relu"
  type: "ReLU"
  bottom: "RGBres4b31_branch2b"
  top: "RGBres4b31_branch2b"
}
layer {
  name: "RGBres4b31_branch2c"
  type: "Convolution"
  bottom: "RGBres4b31_branch2b"
  top: "RGBres4b31_branch2c"
  param {
    lr_mult: 0.1
    decay_mult: 1
  }
  convolution_param {
    num_output: 1024
    bias_term: false
    pad: 0
    kernel_size: 1
    stride: 1
  }
}
layer {
  name: "RGBbn4b31_branch2c"
  type: "BatchNorm"
  bottom: "RGBres4b31_branch2c"
  top: "RGBres4b31_branch2c"
  param {
    lr_mult: 0
    decay_mult: 0
  }
  param {
    lr_mult: 0
    decay_mult: 0
  }
  param {
    lr_mult: 0
    decay_mult: 0
  }
  batch_norm_param {
    use_global_stats: true
  }
}
layer {
  name: "RGBscale4b31_branch2c"
  type: "Scale"
  bottom: "RGBres4b31_branch2c"
  top: "RGBres4b31_branch2c"
  param {
    lr_mult: 0.1
    decay_mult: 1
  }
  param {
    lr_mult: 0.1
    decay_mult: 1
  }
  scale_param {
    bias_term: true
  }
}
layer {
  name: "RGBres4b31"
  type: "Eltwise"
  bottom: "RGBres4b30"
  bottom: "RGBres4b31_branch2c"
  top: "RGBres4b31"
  eltwise_param {
    operation: SUM
  }
}
layer {
  name: "RGBres4b31_relu"
  type: "ReLU"
  bottom: "RGBres4b31"
  top: "RGBres4b31"
}
layer {
  name: "RGBres4b32_branch2a"
  type: "Convolution"
  bottom: "RGBres4b31"
  top: "RGBres4b32_branch2a"
  param {
    lr_mult: 0.1
    decay_mult: 1
  }
  convolution_param {
    num_output: 256
    bias_term: false
    pad: 0
    kernel_size: 1
    stride: 1
  }
}
layer {
  name: "RGBbn4b32_branch2a"
  type: "BatchNorm"
  bottom: "RGBres4b32_branch2a"
  top: "RGBres4b32_branch2a"
  param {
    lr_mult: 0
    decay_mult: 0
  }
  param {
    lr_mult: 0
    decay_mult: 0
  }
  param {
    lr_mult: 0
    decay_mult: 0
  }
  batch_norm_param {
    use_global_stats: true
  }
}
layer {
  name: "RGBscale4b32_branch2a"
  type: "Scale"
  bottom: "RGBres4b32_branch2a"
  top: "RGBres4b32_branch2a"
  param {
    lr_mult: 0.1
    decay_mult: 1
  }
  param {
    lr_mult: 0.1
    decay_mult: 1
  }
  scale_param {
    bias_term: true
  }
}
layer {
  name: "RGBres4b32_branch2a_relu"
  type: "ReLU"
  bottom: "RGBres4b32_branch2a"
  top: "RGBres4b32_branch2a"
}
layer {
  name: "RGBres4b32_branch2b"
  type: "Convolution"
  bottom: "RGBres4b32_branch2a"
  top: "RGBres4b32_branch2b"
  param {
    lr_mult: 0.1
    decay_mult: 1
  }
  convolution_param {
    num_output: 256
    bias_term: false
    pad: 1
    kernel_size: 3
    stride: 1
  }
}
layer {
  name: "RGBbn4b32_branch2b"
  type: "BatchNorm"
  bottom: "RGBres4b32_branch2b"
  top: "RGBres4b32_branch2b"
  param {
    lr_mult: 0
    decay_mult: 0
  }
  param {
    lr_mult: 0
    decay_mult: 0
  }
  param {
    lr_mult: 0
    decay_mult: 0
  }
  batch_norm_param {
    use_global_stats: true
  }
}
layer {
  name: "RGBscale4b32_branch2b"
  type: "Scale"
  bottom: "RGBres4b32_branch2b"
  top: "RGBres4b32_branch2b"
  param {
    lr_mult: 0.1
    decay_mult: 1
  }
  param {
    lr_mult: 0.1
    decay_mult: 1
  }
  scale_param {
    bias_term: true
  }
}
layer {
  name: "RGBres4b32_branch2b_relu"
  type: "ReLU"
  bottom: "RGBres4b32_branch2b"
  top: "RGBres4b32_branch2b"
}
layer {
  name: "RGBres4b32_branch2c"
  type: "Convolution"
  bottom: "RGBres4b32_branch2b"
  top: "RGBres4b32_branch2c"
  param {
    lr_mult: 0.1
    decay_mult: 1
  }
  convolution_param {
    num_output: 1024
    bias_term: false
    pad: 0
    kernel_size: 1
    stride: 1
  }
}
layer {
  name: "RGBbn4b32_branch2c"
  type: "BatchNorm"
  bottom: "RGBres4b32_branch2c"
  top: "RGBres4b32_branch2c"
  param {
    lr_mult: 0
    decay_mult: 0
  }
  param {
    lr_mult: 0
    decay_mult: 0
  }
  param {
    lr_mult: 0
    decay_mult: 0
  }
  batch_norm_param {
    use_global_stats: true
  }
}
layer {
  name: "RGBscale4b32_branch2c"
  type: "Scale"
  bottom: "RGBres4b32_branch2c"
  top: "RGBres4b32_branch2c"
  param {
    lr_mult: 0.1
    decay_mult: 1
  }
  param {
    lr_mult: 0.1
    decay_mult: 1
  }
  scale_param {
    bias_term: true
  }
}
layer {
  name: "RGBres4b32"
  type: "Eltwise"
  bottom: "RGBres4b31"
  bottom: "RGBres4b32_branch2c"
  top: "RGBres4b32"
  eltwise_param {
    operation: SUM
  }
}
layer {
  name: "RGBres4b32_relu"
  type: "ReLU"
  bottom: "RGBres4b32"
  top: "RGBres4b32"
}
layer {
  name: "RGBres4b33_branch2a"
  type: "Convolution"
  bottom: "RGBres4b32"
  top: "RGBres4b33_branch2a"
  param {
    lr_mult: 0.1
    decay_mult: 1
  }
  convolution_param {
    num_output: 256
    bias_term: false
    pad: 0
    kernel_size: 1
    stride: 1
  }
}
layer {
  name: "RGBbn4b33_branch2a"
  type: "BatchNorm"
  bottom: "RGBres4b33_branch2a"
  top: "RGBres4b33_branch2a"
  param {
    lr_mult: 0
    decay_mult: 0
  }
  param {
    lr_mult: 0
    decay_mult: 0
  }
  param {
    lr_mult: 0
    decay_mult: 0
  }
  batch_norm_param {
    use_global_stats: true
  }
}
layer {
  name: "RGBscale4b33_branch2a"
  type: "Scale"
  bottom: "RGBres4b33_branch2a"
  top: "RGBres4b33_branch2a"
  param {
    lr_mult: 0.1
    decay_mult: 1
  }
  param {
    lr_mult: 0.1
    decay_mult: 1
  }
  scale_param {
    bias_term: true
  }
}
layer {
  name: "RGBres4b33_branch2a_relu"
  type: "ReLU"
  bottom: "RGBres4b33_branch2a"
  top: "RGBres4b33_branch2a"
}
layer {
  name: "RGBres4b33_branch2b"
  type: "Convolution"
  bottom: "RGBres4b33_branch2a"
  top: "RGBres4b33_branch2b"
  param {
    lr_mult: 0.1
    decay_mult: 1
  }
  convolution_param {
    num_output: 256
    bias_term: false
    pad: 1
    kernel_size: 3
    stride: 1
  }
}
layer {
  name: "RGBbn4b33_branch2b"
  type: "BatchNorm"
  bottom: "RGBres4b33_branch2b"
  top: "RGBres4b33_branch2b"
  param {
    lr_mult: 0
    decay_mult: 0
  }
  param {
    lr_mult: 0
    decay_mult: 0
  }
  param {
    lr_mult: 0
    decay_mult: 0
  }
  batch_norm_param {
    use_global_stats: true
  }
}
layer {
  name: "RGBscale4b33_branch2b"
  type: "Scale"
  bottom: "RGBres4b33_branch2b"
  top: "RGBres4b33_branch2b"
  param {
    lr_mult: 0.1
    decay_mult: 1
  }
  param {
    lr_mult: 0.1
    decay_mult: 1
  }
  scale_param {
    bias_term: true
  }
}
layer {
  name: "RGBres4b33_branch2b_relu"
  type: "ReLU"
  bottom: "RGBres4b33_branch2b"
  top: "RGBres4b33_branch2b"
}
layer {
  name: "RGBres4b33_branch2c"
  type: "Convolution"
  bottom: "RGBres4b33_branch2b"
  top: "RGBres4b33_branch2c"
  param {
    lr_mult: 0.1
    decay_mult: 1
  }
  convolution_param {
    num_output: 1024
    bias_term: false
    pad: 0
    kernel_size: 1
    stride: 1
  }
}
layer {
  name: "RGBbn4b33_branch2c"
  type: "BatchNorm"
  bottom: "RGBres4b33_branch2c"
  top: "RGBres4b33_branch2c"
  param {
    lr_mult: 0
    decay_mult: 0
  }
  param {
    lr_mult: 0
    decay_mult: 0
  }
  param {
    lr_mult: 0
    decay_mult: 0
  }
  batch_norm_param {
    use_global_stats: true
  }
}
layer {
  name: "RGBscale4b33_branch2c"
  type: "Scale"
  bottom: "RGBres4b33_branch2c"
  top: "RGBres4b33_branch2c"
  param {
    lr_mult: 0.1
    decay_mult: 1
  }
  param {
    lr_mult: 0.1
    decay_mult: 1
  }
  scale_param {
    bias_term: true
  }
}
layer {
  name: "RGBres4b33"
  type: "Eltwise"
  bottom: "RGBres4b32"
  bottom: "RGBres4b33_branch2c"
  top: "RGBres4b33"
  eltwise_param {
    operation: SUM
  }
}
layer {
  name: "RGBres4b33_relu"
  type: "ReLU"
  bottom: "RGBres4b33"
  top: "RGBres4b33"
}
layer {
  name: "RGBres4b34_branch2a"
  type: "Convolution"
  bottom: "RGBres4b33"
  top: "RGBres4b34_branch2a"
  param {
    lr_mult: 0.1
    decay_mult: 1
  }
  convolution_param {
    num_output: 256
    bias_term: false
    pad: 0
    kernel_size: 1
    stride: 1
  }
}
layer {
  name: "RGBbn4b34_branch2a"
  type: "BatchNorm"
  bottom: "RGBres4b34_branch2a"
  top: "RGBres4b34_branch2a"
  param {
    lr_mult: 0
    decay_mult: 0
  }
  param {
    lr_mult: 0
    decay_mult: 0
  }
  param {
    lr_mult: 0
    decay_mult: 0
  }
  batch_norm_param {
    use_global_stats: true
  }
}
layer {
  name: "RGBscale4b34_branch2a"
  type: "Scale"
  bottom: "RGBres4b34_branch2a"
  top: "RGBres4b34_branch2a"
  param {
    lr_mult: 0.1
    decay_mult: 1
  }
  param {
    lr_mult: 0.1
    decay_mult: 1
  }
  scale_param {
    bias_term: true
  }
}
layer {
  name: "RGBres4b34_branch2a_relu"
  type: "ReLU"
  bottom: "RGBres4b34_branch2a"
  top: "RGBres4b34_branch2a"
}
layer {
  name: "RGBres4b34_branch2b"
  type: "Convolution"
  bottom: "RGBres4b34_branch2a"
  top: "RGBres4b34_branch2b"
  param {
    lr_mult: 0.1
    decay_mult: 1
  }
  convolution_param {
    num_output: 256
    bias_term: false
    pad: 1
    kernel_size: 3
    stride: 1
  }
}
layer {
  name: "RGBbn4b34_branch2b"
  type: "BatchNorm"
  bottom: "RGBres4b34_branch2b"
  top: "RGBres4b34_branch2b"
  param {
    lr_mult: 0
    decay_mult: 0
  }
  param {
    lr_mult: 0
    decay_mult: 0
  }
  param {
    lr_mult: 0
    decay_mult: 0
  }
  batch_norm_param {
    use_global_stats: true
  }
}
layer {
  name: "RGBscale4b34_branch2b"
  type: "Scale"
  bottom: "RGBres4b34_branch2b"
  top: "RGBres4b34_branch2b"
  param {
    lr_mult: 0.1
    decay_mult: 1
  }
  param {
    lr_mult: 0.1
    decay_mult: 1
  }
  scale_param {
    bias_term: true
  }
}
layer {
  name: "RGBres4b34_branch2b_relu"
  type: "ReLU"
  bottom: "RGBres4b34_branch2b"
  top: "RGBres4b34_branch2b"
}
layer {
  name: "RGBres4b34_branch2c"
  type: "Convolution"
  bottom: "RGBres4b34_branch2b"
  top: "RGBres4b34_branch2c"
  param {
    lr_mult: 0.1
    decay_mult: 1
  }
  convolution_param {
    num_output: 1024
    bias_term: false
    pad: 0
    kernel_size: 1
    stride: 1
  }
}
layer {
  name: "RGBbn4b34_branch2c"
  type: "BatchNorm"
  bottom: "RGBres4b34_branch2c"
  top: "RGBres4b34_branch2c"
  param {
    lr_mult: 0
    decay_mult: 0
  }
  param {
    lr_mult: 0
    decay_mult: 0
  }
  param {
    lr_mult: 0
    decay_mult: 0
  }
  batch_norm_param {
    use_global_stats: true
  }
}
layer {
  name: "RGBscale4b34_branch2c"
  type: "Scale"
  bottom: "RGBres4b34_branch2c"
  top: "RGBres4b34_branch2c"
  param {
    lr_mult: 0.1
    decay_mult: 1
  }
  param {
    lr_mult: 0.1
    decay_mult: 1
  }
  scale_param {
    bias_term: true
  }
}
layer {
  name: "RGBres4b34"
  type: "Eltwise"
  bottom: "RGBres4b33"
  bottom: "RGBres4b34_branch2c"
  top: "RGBres4b34"
  eltwise_param {
    operation: SUM
  }
}
layer {
  name: "RGBres4b34_relu"
  type: "ReLU"
  bottom: "RGBres4b34"
  top: "RGBres4b34"
}
layer {
  name: "RGBres4b35_branch2a"
  type: "Convolution"
  bottom: "RGBres4b34"
  top: "RGBres4b35_branch2a"
  param {
    lr_mult: 0.1
    decay_mult: 1
  }
  convolution_param {
    num_output: 256
    bias_term: false
    pad: 0
    kernel_size: 1
    stride: 1
  }
}
layer {
  name: "RGBbn4b35_branch2a"
  type: "BatchNorm"
  bottom: "RGBres4b35_branch2a"
  top: "RGBres4b35_branch2a"
  param {
    lr_mult: 0
    decay_mult: 0
  }
  param {
    lr_mult: 0
    decay_mult: 0
  }
  param {
    lr_mult: 0
    decay_mult: 0
  }
  batch_norm_param {
    use_global_stats: true
  }
}
layer {
  name: "RGBscale4b35_branch2a"
  type: "Scale"
  bottom: "RGBres4b35_branch2a"
  top: "RGBres4b35_branch2a"
  param {
    lr_mult: 0.1
    decay_mult: 1
  }
  param {
    lr_mult: 0.1
    decay_mult: 1
  }
  scale_param {
    bias_term: true
  }
}
layer {
  name: "RGBres4b35_branch2a_relu"
  type: "ReLU"
  bottom: "RGBres4b35_branch2a"
  top: "RGBres4b35_branch2a"
}
layer {
  name: "RGBres4b35_branch2b"
  type: "Convolution"
  bottom: "RGBres4b35_branch2a"
  top: "RGBres4b35_branch2b"
  param {
    lr_mult: 0.1
    decay_mult: 1
  }
  convolution_param {
    num_output: 256
    bias_term: false
    pad: 1
    kernel_size: 3
    stride: 1
  }
}
layer {
  name: "RGBbn4b35_branch2b"
  type: "BatchNorm"
  bottom: "RGBres4b35_branch2b"
  top: "RGBres4b35_branch2b"
  param {
    lr_mult: 0
    decay_mult: 0
  }
  param {
    lr_mult: 0
    decay_mult: 0
  }
  param {
    lr_mult: 0
    decay_mult: 0
  }
  batch_norm_param {
    use_global_stats: true
  }
}
layer {
  name: "RGBscale4b35_branch2b"
  type: "Scale"
  bottom: "RGBres4b35_branch2b"
  top: "RGBres4b35_branch2b"
  param {
    lr_mult: 0.1
    decay_mult: 1
  }
  param {
    lr_mult: 0.1
    decay_mult: 1
  }
  scale_param {
    bias_term: true
  }
}
layer {
  name: "RGBres4b35_branch2b_relu"
  type: "ReLU"
  bottom: "RGBres4b35_branch2b"
  top: "RGBres4b35_branch2b"
}
layer {
  name: "RGBres4b35_branch2c"
  type: "Convolution"
  bottom: "RGBres4b35_branch2b"
  top: "RGBres4b35_branch2c"
  param {
    lr_mult: 0.1
    decay_mult: 1
  }
  convolution_param {
    num_output: 1024
    bias_term: false
    pad: 0
    kernel_size: 1
    stride: 1
  }
}
layer {
  name: "RGBbn4b35_branch2c"
  type: "BatchNorm"
  bottom: "RGBres4b35_branch2c"
  top: "RGBres4b35_branch2c"
  param {
    lr_mult: 0
    decay_mult: 0
  }
  param {
    lr_mult: 0
    decay_mult: 0
  }
  param {
    lr_mult: 0
    decay_mult: 0
  }
  batch_norm_param {
    use_global_stats: true
  }
}
layer {
  name: "RGBscale4b35_branch2c"
  type: "Scale"
  bottom: "RGBres4b35_branch2c"
  top: "RGBres4b35_branch2c"
  param {
    lr_mult: 0.1
    decay_mult: 1
  }
  param {
    lr_mult: 0.1
    decay_mult: 1
  }
  scale_param {
    bias_term: true
  }
}
layer {
  name: "RGBres4b35"
  type: "Eltwise"
  bottom: "RGBres4b34"
  bottom: "RGBres4b35_branch2c"
  top: "RGBres4b35"
  eltwise_param {
    operation: SUM
  }
}
layer {
  name: "RGBres4b35_relu"
  type: "ReLU"
  bottom: "RGBres4b35"
  top: "RGBres4b35"
}
layer {
  name: "RGBres5a_branch1"
  type: "Convolution"
  bottom: "RGBres4b35"
  top: "RGBres5a_branch1"
  param {
    lr_mult: 0.1
    decay_mult: 1
  }
  convolution_param {
    num_output: 2048
    bias_term: false
    pad: 0
    kernel_size: 1
    stride: 2
  }
}
layer {
  name: "RGBbn5a_branch1"
  type: "BatchNorm"
  bottom: "RGBres5a_branch1"
  top: "RGBres5a_branch1"
  param {
    lr_mult: 0
    decay_mult: 0
  }
  param {
    lr_mult: 0
    decay_mult: 0
  }
  param {
    lr_mult: 0
    decay_mult: 0
  }
  batch_norm_param {
    use_global_stats: true
  }
}
layer {
  name: "RGBscale5a_branch1"
  type: "Scale"
  bottom: "RGBres5a_branch1"
  top: "RGBres5a_branch1"
  param {
    lr_mult: 0.1
    decay_mult: 1
  }
  param {
    lr_mult: 0.1
    decay_mult: 1
  }
  scale_param {
    bias_term: true
  }
}
layer {
  name: "RGBres5a_branch2a"
  type: "Convolution"
  bottom: "RGBres4b35"
  top: "RGBres5a_branch2a"
  param {
    lr_mult: 0.1
    decay_mult: 1
  }
  convolution_param {
    num_output: 512
    bias_term: false
    pad: 0
    kernel_size: 1
    stride: 2
  }
}
layer {
  name: "RGBbn5a_branch2a"
  type: "BatchNorm"
  bottom: "RGBres5a_branch2a"
  top: "RGBres5a_branch2a"
  param {
    lr_mult: 0
    decay_mult: 0
  }
  param {
    lr_mult: 0
    decay_mult: 0
  }
  param {
    lr_mult: 0
    decay_mult: 0
  }
  batch_norm_param {
    use_global_stats: true
  }
}
layer {
  name: "RGBscale5a_branch2a"
  type: "Scale"
  bottom: "RGBres5a_branch2a"
  top: "RGBres5a_branch2a"
  param {
    lr_mult: 0.1
    decay_mult: 1
  }
  param {
    lr_mult: 0.1
    decay_mult: 1
  }
  scale_param {
    bias_term: true
  }
}
layer {
  name: "RGBres5a_branch2a_relu"
  type: "ReLU"
  bottom: "RGBres5a_branch2a"
  top: "RGBres5a_branch2a"
}
layer {
  name: "RGBres5a_branch2b"
  type: "Convolution"
  bottom: "RGBres5a_branch2a"
  top: "RGBres5a_branch2b"
  param {
    lr_mult: 0.1
    decay_mult: 1
  }
  convolution_param {
    num_output: 512
    bias_term: false
    pad: 1
    kernel_size: 3
    stride: 1
  }
}
layer {
  name: "RGBbn5a_branch2b"
  type: "BatchNorm"
  bottom: "RGBres5a_branch2b"
  top: "RGBres5a_branch2b"
  param {
    lr_mult: 0
    decay_mult: 0
  }
  param {
    lr_mult: 0
    decay_mult: 0
  }
  param {
    lr_mult: 0
    decay_mult: 0
  }
  batch_norm_param {
    use_global_stats: true
  }
}
layer {
  name: "RGBscale5a_branch2b"
  type: "Scale"
  bottom: "RGBres5a_branch2b"
  top: "RGBres5a_branch2b"
  param {
    lr_mult: 0.1
    decay_mult: 1
  }
  param {
    lr_mult: 0.1
    decay_mult: 1
  }
  scale_param {
    bias_term: true
  }
}
layer {
  name: "RGBres5a_branch2b_relu"
  type: "ReLU"
  bottom: "RGBres5a_branch2b"
  top: "RGBres5a_branch2b"
}
layer {
  name: "RGBres5a_branch2c"
  type: "Convolution"
  bottom: "RGBres5a_branch2b"
  top: "RGBres5a_branch2c"
  param {
    lr_mult: 0.1
    decay_mult: 1
  }
  convolution_param {
    num_output: 2048
    bias_term: false
    pad: 0
    kernel_size: 1
    stride: 1
  }
}
layer {
  name: "RGBbn5a_branch2c"
  type: "BatchNorm"
  bottom: "RGBres5a_branch2c"
  top: "RGBres5a_branch2c"
  param {
    lr_mult: 0
    decay_mult: 0
  }
  param {
    lr_mult: 0
    decay_mult: 0
  }
  param {
    lr_mult: 0
    decay_mult: 0
  }
  batch_norm_param {
    use_global_stats: true
  }
}
layer {
  name: "RGBscale5a_branch2c"
  type: "Scale"
  bottom: "RGBres5a_branch2c"
  top: "RGBres5a_branch2c"
  param {
    lr_mult: 0.1
    decay_mult: 1
  }
  param {
    lr_mult: 0.1
    decay_mult: 1
  }
  scale_param {
    bias_term: true
  }
}
layer {
  name: "RGBres5a"
  type: "Eltwise"
  bottom: "RGBres5a_branch1"
  bottom: "RGBres5a_branch2c"
  top: "RGBres5a"
  eltwise_param {
    operation: SUM
  }
}
layer {
  name: "RGBres5a_relu"
  type: "ReLU"
  bottom: "RGBres5a"
  top: "RGBres5a"
}
layer {
…
    decay_mult: 1
  }
  convolution_param {
    num_output: 256
    bias_term: false
    pad: 0
    kernel_size: 1
    stride: 1
    weight_filler {
      type: "gaussian"
      std: 0.01
    }
  }
}
layer {
  name: "reluFuse16d_conv11"
  type: "ReLU"
  bottom: "Fuse16ddim_conv"
  top: "reluFuse16d_conv11"
}
layer {
  name: "Fuse16d_conv11"
  type: "Convolution"
  bottom: "reluFuse16d_conv11"
  top: "Fuse16d_conv11"
  param {
    lr_mult: 1
    decay_mult: 1
  }
  param {
    lr_mult: 1
    decay_mult: 1
  }
  convolution_param {
    num_output: 256
    pad: 1
    kernel_size: 3
    stride: 1
    weight_filler {
      type: "gaussian"
      std: 0.01
    }
    bias_filler {
      type: "constant"
      value: 0
    }
  }
}
layer {
  name: "reluFuse16d_conv12"
  type: "ReLU"
  bottom: "Fuse16d_conv11"
  top: "Fuse16d_conv11"
}
layer {
  name: "Fuse16d_conv12"
  type: "Convolution"
  bottom: "Fuse16d_conv11"
  top: "Fuse16d_conv12"
  param {
    lr_mult: 1
    decay_mult: 1
  }
  convolution_param {
    num_output: 256
    bias_term: false
    pad: 1
    kernel_size: 3
    stride: 1
    weight_filler {
      type: "gaussian"
      std: 0.01
    }
  }
}
layer {
  name: "Fuse16d_rcu1"
  type: "Eltwise"
  bottom: "Fuse16ddim_conv"
  bottom: "Fuse16d_conv12"
  top: "Fuse16d_rcu1"
  eltwise_param {
    operation: SUM
  }
}
layer {
  name: "reluFuse16d_conv21"
  type: "ReLU"
  bottom: "Fuse16d_rcu1"
  top: "reluFuse16d_conv21"
}
layer {
  name: "Fuse16d_conv21"
  type: "Convolution"
  bottom: "reluFuse16d_conv21"
  top: "Fuse16d_conv21"
  param {
    lr_mult: 1
    decay_mult: 1
  }
  param {
    lr_mult: 1
    decay_mult: 1
  }
  convolution_param {
    num_output: 256
    pad: 1
    kernel_size: 3
    stride: 1
    weight_filler {
      type: "gaussian"
      std: 0.01
    }
    bias_filler {
      type: "constant"
      value: 0
    }
  }
}
layer {
  name: "reluFuse16d_conv22"
  type: "ReLU"
  bottom: "Fuse16d_conv21"
  top: "Fuse16d_conv21"
}
layer {
  name: "Fuse16d_conv22"
  type: "Convolution"
  bottom: "Fuse16d_conv21"
  top: "Fuse16d_conv22"
  param {
    lr_mult: 1
    decay_mult: 1
  }
  convolution_param {
    num_output: 256
    bias_term: false
    pad: 1
    kernel_size: 3
    stride: 1
    weight_filler {
      type: "gaussian"
      std: 0.01
    }
  }
}
layer {
  name: "Fuse16d_rcu2"
  type: "Eltwise"
  bottom: "Fuse16d_rcu1"
  bottom: "Fuse16d_conv22"
  top: "Fuse16d_rcu2"
  eltwise_param {
    operation: SUM
  }
}
layer {
  name: "Fuse16d_adapt_conv"
  type: "Convolution"
  bottom: "Fuse16d_rcu2"
  top: "Fuse16d_adapt_conv"
  param {
    lr_mult: 1
    decay_mult: 1
  }
  convolution_param {
    num_output: 256
    bias_term: false
    pad: 1
    kernel_size: 3
    stride: 1
    weight_filler {
      type: "gaussian"
      std: 0.01
    }
  }
}
layer {
  name: "Fuse16_feat_t"
  type: "Eltwise"
  bottom: "Fuse16rgb_adapt_conv"
  bottom: "Fuse16d_adapt_conv"
  top: "Fuse16_feat_t"
  eltwise_param {
    operation: SUM
  }
}
layer {
  name: "reluFuse16_feat_t"
  type: "ReLU"
  bottom: "Fuse16_feat_t"
  top: "reluFuse16_feat_t"
}
layer {
  name: "reluFuse16_crppool1"
  type: "Pooling"
  bottom: "reluFuse16_feat_t"
  top: "reluFuse16_crppool1"
  pooling_param {
    pool: MAX
    kernel_size: 5
    stride: 1
    pad: 2
  }
}
layer {
  name: "reluFuse16_crppool1_crpconv1"
  type: "Convolution"
  bottom: "reluFuse16_crppool1"
  top: "reluFuse16_crppool1_crpconv1"
  param {
    lr_mult: 1
    decay_mult: 1
  }
  convolution_param {
    num_output: 256
    bias_term: false
    pad: 1
    kernel_size: 3
    stride: 1
    weight_filler {
      type: "gaussian"
      std: 0.01
    }
  }
}
layer {
  name: "Fuse16_feat"
  type: "Eltwise"
  bottom: "reluFuse16_feat_t"
  bottom: "reluFuse16_crppool1_crpconv1"
  top: "Fuse16_feat"
  eltwise_param {
    operation: SUM
  }
}
layer {
  name: "RGBres3b7_relu_drop"
  type: "Dropout"
  bottom: "RGBres3b7"
  top: "RGBres3b7_relu_drop"
  dropout_param {
    dropout_ratio: 0.5
  }
}
layer {
  name: "Fuse8rgbdim_conv"
  type: "Convolution"
  bottom: "RGBres3b7_relu_drop"
  top: "Fuse8rgbdim_conv"
  param {
    lr_mult: 1
    decay_mult: 1
  }
  convolution_param {
    num_output: 256
    bias_term: false
    pad: 0
    kernel_size: 1
    stride: 1
    weight_filler {
      type: "gaussian"
      std: 0.01
    }
  }
}
layer {
  name: "reluFuse8rgb_conv11"
  type: "ReLU"
  bottom: "Fuse8rgbdim_conv"
  top: "reluFuse8rgb_conv11"
}
layer {
  name: "Fuse8rgb_conv11"
  type: "Convolution"
  bottom: "reluFuse8rgb_conv11"
  top: "Fuse8rgb_conv11"
  param {
    lr_mult: 1
    decay_mult: 1
  }
  param {
    lr_mult: 1
    decay_mult: 1
  }
  convolution_param {
    num_output: 256
    pad: 1
    kernel_size: 3
    stride: 1
    weight_filler {
      type: "gaussian"
      std: 0.01
    }
    bias_filler {
      type: "constant"
      value: 0
    }
  }
}
layer {
  name: "reluFuse8rgb_conv12"
  type: "ReLU"
  bottom: "Fuse8rgb_conv11"
  top: "Fuse8rgb_conv11"
}
layer {
  name: "Fuse8rgb_conv12"
  type: "Convolution"
  bottom: "Fuse8rgb_conv11"
  top: "Fuse8rgb_conv12"
  param {
    lr_mult: 1
    decay_mult: 1
  }
  convolution_param {
    num_output: 256
    bias_term: false
    pad: 1
    kernel_size: 3
    stride: 1
    weight_filler {
      type: "gaussian"
      std: 0.01
    }
  }
}
layer {
  name: "Fuse8rgb_rcu1"
  type: "Eltwise"
  bottom: "Fuse8rgbdim_conv"
  bottom: "Fuse8rgb_conv12"
  top: "Fuse8rgb_rcu1"
  eltwise_param {
    operation: SUM
  }
}
layer {
  name: "reluFuse8rgb_conv21"
  type: "ReLU"
  bottom: "Fuse8rgb_rcu1"
  top: "reluFuse8rgb_conv21"
}
layer {
  name: "Fuse8rgb_conv21"
  type: "Convolution"
  bottom: "reluFuse8rgb_conv21"
  top: "Fuse8rgb_conv21"
  param {
    lr_mult: 1
    decay_mult: 1
  }
  param {
    lr_mult: 1
    decay_mult: 1
  }
  convolution_param {
    num_output: 256
    pad: 1
    kernel_size: 3
    stride: 1
    weight_filler {
      type: "gaussian"
      std: 0.01
    }
    bias_filler {
      type: "constant"
      value: 0
    }
  }
}
layer {
  name: "reluFuse8rgb_conv22"
  type: "ReLU"
  bottom: "Fuse8rgb_conv21"
  top: "Fuse8rgb_conv21"
}
layer {
  name: "Fuse8rgb_conv22"
  type: "Convolution"
  bottom: "Fuse8rgb_conv21"
  top: "Fuse8rgb_conv22"
  param {
    lr_mult: 1
    decay_mult: 1
  }
  convolution_param {
    num_output: 256
    bias_term: false
    pad: 1
    kernel_size: 3
    stride: 1
    weight_filler {
      type: "gaussian"
      std: 0.01
    }
  }
}
layer {
  name: "Fuse8rgb_rcu2"
  type: "Eltwise"
  bottom: "Fuse8rgb_rcu1"
  bottom: "Fuse8rgb_conv22"
  top: "Fuse8rgb_rcu2"
  eltwise_param {
    operation: SUM
  }
}
layer {
  name: "Fuse8rgb_adapt_conv"
  type: "Convolution"
  bottom: "Fuse8rgb_rcu2"
  top: "Fuse8rgb_adapt_conv"
  param {
    lr_mult: 1
    decay_mult: 1
  }
  convolution_param {
    num_output: 256
    bias_term: false
    pad: 1
    kernel_size: 3
    stride: 1
    weight_filler {
      type: "gaussian"
      std: 0.01
    }
  }
}
layer {
  name: "DEPres3b7_relu_drop"
  type: "Dropout"
  bottom: "DEPres3b7"
  top: "DEPres3b7_relu_drop"
  dropout_param {
    dropout_ratio: 0.5
  }
}
layer {
  name: "Fuse8ddim_conv"
  type: "Convolution"
  bottom: "DEPres3b7_relu_drop"
  top: "Fuse8ddim_conv"
  param {
    lr_mult: 1
    decay_mult: 1
  }
  convolution_param {
    num_output: 256
    bias_term: false
    pad: 0
    kernel_size: 1
    stride: 1
    weight_filler {
      type: "gaussian"
      std: 0.01
    }
  }
}
layer {
  name: "reluFuse8d_conv11"
  type: "ReLU"
  bottom: "Fuse8ddim_conv"
  top: "reluFuse8d_conv11"
}
layer {
  name: "Fuse8d_conv11"
  type: "Convolution"
  bottom: "reluFuse8d_conv11"
  top: "Fuse8d_conv11"
  param {
    lr_mult: 1
    decay_mult: 1
  }
  param {
    lr_mult: 1
    decay_mult: 1
  }
  convolution_param {
    num_output: 256
    pad: 1
    kernel_size: 3
    stride: 1
    weight_filler {
      type: "gaussian"
      std: 0.01
    }
    bias_filler {
      type: "constant"
      value: 0
    }
  }
}
layer {
  name: "reluFuse8d_conv12"
  type: "ReLU"
  bottom: "Fuse8d_conv11"
  top: "Fuse8d_conv11"
}
layer {
  name: "Fuse8d_conv12"
  type: "Convolution"
  bottom: "Fuse8d_conv11"
  top: "Fuse8d_conv12"
  param {
    lr_mult: 1
    decay_mult: 1
  }
  convolution_param {
    num_output: 256
    bias_term: false
    pad: 1
    kernel_size: 3
    stride: 1
    weight_filler {
      type: "gaussian"
      std: 0.01
    }
  }
}
layer {
  name: "Fuse8d_rcu1"
  type: "Eltwise"
  bottom: "Fuse8ddim_conv"
  bottom: "Fuse8d_conv12"
  top: "Fuse8d_rcu1"
  eltwise_param {
    operation: SUM
  }
}
layer {
  name: "reluFuse8d_conv21"
  type: "ReLU"
  bottom: "Fuse8d_rcu1"
  top: "reluFuse8d_conv21"
}
layer {
  name: "Fuse8d_conv21"
  type: "Convolution"
  bottom: "reluFuse8d_conv21"
  top: "Fuse8d_conv21"
  param {
    lr_mult: 1
    decay_mult: 1
  }
  param {
    lr_mult: 1
    decay_mult: 1
  }
  convolution_param {
    num_output: 256
    pad: 1
    kernel_size: 3
    stride: 1
    weight_filler {
      type: "gaussian"
      std: 0.01
    }
    bias_filler {
      type: "constant"
      value: 0
    }
  }
}
layer {
  name: "reluFuse8d_conv22"
  type: "ReLU"
  bottom: "Fuse8d_conv21"
  top: "Fuse8d_conv21"
}
layer {
  name: "Fuse8d_conv22"
  type: "Convolution"
  bottom: "Fuse8d_conv21"
  top: "Fuse8d_conv22"
  param {
    lr_mult: 1
    decay_mult: 1
  }
  convolution_param {
    num_output: 256
    bias_term: false
    pad: 1
    kernel_size: 3
    stride: 1
    weight_filler {
      type: "gaussian"
      std: 0.01
    }
  }
}
layer {
  name: "Fuse8d_rcu2"
  type: "Eltwise"
  bottom: "Fuse8d_rcu1"
  bottom: "Fuse8d_conv22"
  top: "Fuse8d_rcu2"
  eltwise_param {
    operation: SUM
  }
}
layer {
  name: "Fuse8d_adapt_conv"
  type: "Convolution"
  bottom: "Fuse8d_rcu2"
  top: "Fuse8d_adapt_conv"
  param {
    lr_mult: 1
    decay_mult: 1
  }
  convolution_param {
    num_output: 256
    bias_term: false
    pad: 1
    kernel_size: 3
    stride: 1
    weight_filler {
      type: "gaussian"
      std: 0.01
    }
  }
}
layer {
  name: "Fuse8_feat_t"
  type: "Eltwise"
  bottom: "Fuse8rgb_adapt_conv"
  bottom: "Fuse8d_adapt_conv"
  top: "Fuse8_feat_t"
  eltwise_param {
    operation: SUM
  }
}
layer {
  name: "reluFuse8_feat_t"
  type: "ReLU"
  bottom: "Fuse8_feat_t"
  top: "reluFuse8_feat_t"
}
layer {
  name: "reluFuse8_crppool1"
  type: "Pooling"
  bottom: "reluFuse8_feat_t"
  top: "reluFuse8_crppool1"
  pooling_param {
    pool: MAX
    kernel_size: 5
    stride: 1
    pad: 2
  }
}
layer {
  name: "reluFuse8_crppool1_crpconv1"
  type: "Convolution"
  bottom: "reluFuse8_crppool1"
  top: "reluFuse8_crppool1_crpconv1"
  param {
    lr_mult: 1
    decay_mult: 1
  }
  convolution_param {
    num_output: 256
    bias_term: false
    pad: 1
    kernel_size: 3
    stride: 1
    weight_filler {
      type: "gaussian"
      std: 0.01
    }
  }
}
layer {
  name: "Fuse8_feat"
  type: "Eltwise"
  bottom: "reluFuse8_feat_t"
  bottom: "reluFuse8_crppool1_crpconv1"
  top: "Fuse8_feat"
  eltwise_param {
    operation: SUM
  }
}
layer {
  name: "RGBres2c_relu_drop"
  type: "Dropout"
  bottom: "RGBres2c"
  top: "RGBres2c_relu_drop"
  dropout_param {
    dropout_ratio: 0.5
  }
}
layer {
  name: "Fuse4rgbdim_conv"
  type: "Convolution"
  bottom: "RGBres2c_relu_drop"
  top: "Fuse4rgbdim_conv"
  param {
    lr_mult: 1
    decay_mult: 1
  }
  convolution_param {
    num_output: 256
    bias_term: false
    pad: 0
    kernel_size: 1
    stride: 1
    weight_filler {
      type: "gaussian"
      std: 0.01
    }
  }
}
layer {
  name: "reluFuse4rgb_conv11"
  type: "ReLU"
  bottom: "Fuse4rgbdim_conv"
  top: "reluFuse4rgb_conv11"
}
layer {
  name: "Fuse4rgb_conv11"
  type: "Convolution"
  bottom: "reluFuse4rgb_conv11"
  top: "Fuse4rgb_conv11"
  param {
    lr_mult: 1
    decay_mult: 1
  }
  param {
    lr_mult: 1
    decay_mult: 1
  }
  convolution_param {
    num_output: 256
    pad: 1
    kernel_size: 3
    stride: 1
    weight_filler {
      type: "gaussian"
      std: 0.01
    }
    bias_filler {
      type: "constant"
      value: 0
    }
  }
}
layer {
  name: "reluFuse4rgb_conv12"
  type: "ReLU"
  bottom: "Fuse4rgb_conv11"
  top: "Fuse4rgb_conv11"
}
layer {
  name: "Fuse4rgb_conv12"
  type: "Convolution"
  bottom: "Fuse4rgb_conv11"
  top: "Fuse4rgb_conv12"
  param {
    lr_mult: 1
    decay_mult: 1
  }
  convolution_param {
    num_output: 256
    bias_term: false
    pad: 1
    kernel_size: 3
    stride: 1
    weight_filler {
      type: "gaussian"
      std: 0.01
    }
  }
}
layer {
  name: "Fuse4rgb_rcu1"
  type: "Eltwise"
  bottom: "Fuse4rgbdim_conv"
  bottom: "Fuse4rgb_conv12"
  top: "Fuse4rgb_rcu1"
  eltwise_param {
    operation: SUM
  }
}
layer {
  name: "reluFuse4rgb_conv21"
  type: "ReLU"
  bottom: "Fuse4rgb_rcu1"
  top: "reluFuse4rgb_conv21"
}
layer {
  name: "Fuse4rgb_conv21"
  type: "Convolution"
  bottom: "reluFuse4rgb_conv21"
  top: "Fuse4rgb_conv21"
  param {
    lr_mult: 1
    decay_mult: 1
  }
  param {
    lr_mult: 1
    decay_mult: 1
  }
  convolution_param {
    num_output: 256
    pad: 1
    kernel_size: 3
    stride: 1
    weight_filler {
      type: "gaussian"
      std: 0.01
    }
    bias_filler {
      type: "constant"
      value: 0
    }
  }
}
layer {
  name: "reluFuse4rgb_conv22"
  type: "ReLU"
  bottom: "Fuse4rgb_conv21"
  top: "Fuse4rgb_conv21"
}
layer {
  name: "Fuse4rgb_conv22"
  type: "Convolution"
  bottom: "Fuse4rgb_conv21"
  top: "Fuse4rgb_conv22"
  param {
    lr_mult: 1
    decay_mult: 1
  }
  convolution_param {
    num_output: 256
    bias_term: false
    pad: 1
    kernel_size: 3
    stride: 1
    weight_filler {
      type: "gaussian"
      std: 0.01
    }
  }
}
layer {
  name: "Fuse4rgb_rcu2"
  type: "Eltwise"
  bottom: "Fuse4rgb_rcu1"
  bottom: "Fuse4rgb_conv22"
  top: "Fuse4rgb_rcu2"
  eltwise_param {
    operation: SUM
  }
}
layer {
  name: "Fuse4rgb_adapt_conv"
  type: "Convolution"
  bottom: "Fuse4rgb_rcu2"
  top: "Fuse4rgb_adapt_conv"
  param {
    lr_mult: 1
    decay_mult: 1
  }
  convolution_param {
    num_output: 256
    bias_term: false
    pad: 1
    kernel_size: 3
    stride: 1
    weight_filler {
      type: "gaussian"
      std: 0.01
    }
  }
}
layer {
  name: "DEPres2c_relu_drop"
  type: "Dropout"
  bottom: "DEPres2c"
  top: "DEPres2c_relu_drop"
  dropout_param {
    dropout_ratio: 0.5
  }
}
layer {
  name: "Fuse4ddim_conv"
  type: "Convolution"
  bottom: "DEPres2c_relu_drop"
  top: "Fuse4ddim_conv"
  param {
    lr_mult: 1
    decay_mult: 1
  }
  convolution_param {
    num_output: 256
    bias_term: false
    pad: 0
    kernel_size: 1
    stride: 1
    weight_filler {
      type: "gaussian"
      std: 0.01
    }
  }
}
layer {
  name: "reluFuse4d_conv11"
  type: "ReLU"
  bottom: "Fuse4ddim_conv"
  top: "reluFuse4d_conv11"
}
layer {
  name: "Fuse4d_conv11"
  type: "Convolution"
  bottom: "reluFuse4d_conv11"
  top: "Fuse4d_conv11"
  param {
    lr_mult: 1
    decay_mult: 1
  }
  param {
    lr_mult: 1
    decay_mult: 1
  }
  convolution_param {
    num_output: 256
    pad: 1
    kernel_size: 3
    stride: 1
    weight_filler {
      type: "gaussian"
      std: 0.01
    }
    bias_filler {
      type: "constant"
      value: 0
    }
  }
}
layer {
  name: "reluFuse4d_conv12"
  type: "ReLU"
  bottom: "Fuse4d_conv11"
  top: "Fuse4d_conv11"
}
layer {
  name: "Fuse4d_conv12"
  type: "Convolution"
  bottom: "Fuse4d_conv11"
  top: "Fuse4d_conv12"
  param {
    lr_mult: 1
    decay_mult: 1
  }
  convolution_param {
    num_output: 256
    bias_term: false
    pad: 1
    kernel_size: 3
    stride: 1
    weight_filler {
      type: "gaussian"
      std: 0.01
    }
  }
}
layer {
  name: "Fuse4d_rcu1"
  type: "Eltwise"
  bottom: "Fuse4ddim_conv"
  bottom: "Fuse4d_conv12"
  top: "Fuse4d_rcu1"
  eltwise_param {
    operation: SUM
  }
}
layer {
  name: "reluFuse4d_conv21"
  type: "ReLU"
  bottom: "Fuse4d_rcu1"
  top: "reluFuse4d_conv21"
}
layer {
  name: "Fuse4d_conv21"
  type: "Convolution"
  bottom: "reluFuse4d_conv21"
  top: "Fuse4d_conv21"
  param {
    lr_mult: 1
    decay_mult: 1
  }
  param {
    lr_mult: 1
    decay_mult: 1
  }
  convolution_param {
    num_output: 256
    pad: 1
    kernel_size: 3
    stride: 1
    weight_filler {
      type: "gaussian"
      std: 0.01
    }
    bias_filler {
      type: "constant"
      value: 0
    }
  }
}
layer {
  name: "reluFuse4d_conv22"
  type: "ReLU"
  bottom: "Fuse4d_conv21"
  top: "Fuse4d_conv21"
}
layer {
  name: "Fuse4d_conv22"
  type: "Convolution"
  bottom: "Fuse4d_conv21"
  top: "Fuse4d_conv22"
  param {
    lr_mult: 1
    decay_mult: 1
  }
  convolution_param {
    num_output: 256
    bias_term: false
    pad: 1
    kernel_size: 3
    stride: 1
    weight_filler {
      type: "gaussian"
      std: 0.01
    }
  }
}
layer {
  name: "Fuse4d_rcu2"
  type: "Eltwise"
  bottom: "Fuse4d_rcu1"
  bottom: "Fuse4d_conv22"
  top: "Fuse4d_rcu2"
  eltwise_param {
    operation: SUM
  }
}
layer {
  name: "Fuse4d_adapt_conv"
  type: "Convolution"
  bottom: "Fuse4d_rcu2"
  top: "Fuse4d_adapt_conv"
  param {
    lr_mult: 1
    decay_mult: 1
  }
  convolution_param {
    num_output: 256
    bias_term: false
    pad: 1
    kernel_size: 3
    stride: 1
    weight_filler {
      type: "gaussian"
      std: 0.01
    }
  }
}
layer {
  name: "Fuse4_feat_t"
  type: "Eltwise"
  bottom: "Fuse4rgb_adapt_conv"
  bottom: "Fuse4d_adapt_conv"
  top: "Fuse4_feat_t"
  eltwise_param {
    operation: SUM
  }
}
layer {
  name: "reluFuse4_feat_t"
  type: "ReLU"
  bottom: "Fuse4_feat_t"
  top: "reluFuse4_feat_t"
}
layer {
  name: "reluFuse4_crppool1"
  type: "Pooling"
  bottom: "reluFuse4_feat_t"
  top: "reluFuse4_crppool1"
  pooling_param {
    pool: MAX
    kernel_size: 5
    stride: 1
    pad: 2
  }
}
layer {
  name: "reluFuse4_crppool1_crpconv1"
  type: "Convolution"
  bottom: "reluFuse4_crppool1"
  top: "reluFuse4_crppool1_crpconv1"
  param {
    lr_mult: 1
    decay_mult: 1
  }
  convolution_param {
    num_output: 256
    bias_term: false
    pad: 1
    kernel_size: 3
    stride: 1
    weight_filler {
      type: "gaussian"
      std: 0.01
    }
  }
}
layer {
  name: "Fuse4_feat"
  type: "Eltwise"
  bottom: "reluFuse4_feat_t"
  bottom: "reluFuse4_crppool1_crpconv1"
  top: "Fuse4_feat"
  eltwise_param {
    operation: SUM
  }
}
layer {
  name: "reluF32_conv11"
  type: "ReLU"
  bottom: "Fuse32_feat"
  top: "reluF32_conv11"
}
layer {
  name: "F32_conv11"
  type: "Convolution"
  bottom: "reluF32_conv11"
  top: "F32_conv11"
  param {
    lr_mult: 1
    decay_mult: 1
  }
  param {
    lr_mult: 1
    decay_mult: 1
  }
  convolution_param {
    num_output: 512
    pad: 1
    kernel_size: 3
    stride: 1
    weight_filler {
      type: "gaussian"
      std: 0.01
    }
    bias_filler {
      type: "constant"
      value: 0
    }
  }
}
layer {
  name: "reluF32_conv12"
  type: "ReLU"
  bottom: "F32_conv11"
  top: "F32_conv11"
}
layer {
  name: "F32_conv12"
  type: "Convolution"
  bottom: "F32_conv11"
  top: "F32_conv12"
  param {
    lr_mult: 1
    decay_mult: 1
  }
  convolution_param {
    num_output: 512
    bias_term: false
    pad: 1
    kernel_size: 3
    stride: 1
    weight_filler {
      type: "gaussian"
      std: 0.01
    }
  }
}
layer {
  name: "F32_rcu1"
  type: "Eltwise"
  bottom: "Fuse32_feat"
  bottom: "F32_conv12"
  top: "F32_rcu1"
  eltwise_param {
    operation: SUM
  }
}
layer {
  name: "reluF32_conv21"
  type: "ReLU"
  bottom: "F32_rcu1"
  top: "reluF32_conv21"
}
layer {
  name: "F32_conv21"
  type: "Convolution"
  bottom: "reluF32_conv21"
  top: "F32_conv21"
  param {
    lr_mult: 1
    decay_mult: 1
  }
  param {
    lr_mult: 1
    decay_mult: 1
  }
  convolution_param {
    num_output: 512
    pad: 1
    kernel_size: 3
    stride: 1
    weight_filler {
      type: "gaussian"
      std: 0.01
    }
    bias_filler {
      type: "constant"
      value: 0
    }
  }
}
layer {
  name: "reluF32_conv22"
  type: "ReLU"
  bottom: "F32_conv21"
  top: "F32_conv21"
}
layer {
  name: "F32_conv22"
  type: "Convolution"
  bottom: "F32_conv21"
  top: "F32_conv22"
  param {
    lr_mult: 1
    decay_mult: 1
  }
  convolution_param {
    num_output: 512
    bias_term: false
    pad: 1
    kernel_size: 3
    stride: 1
    weight_filler {
      type: "gaussian"
      std: 0.01
    }
  }
}
layer {
  name: "F32_rcu2"
  type: "Eltwise"
  bottom: "F32_rcu1"
  bottom: "F32_conv22"
  top: "F32_rcu2"
  eltwise_param {
    operation: SUM
  }
}
layer {
  name: "reluF32_rcu2"
  type: "ReLU"
  bottom: "F32_rcu2"
  top: "F32_rcu2"
}
layer {
  name: "reluF32_rcu2_crppool1"
  type: "Pooling"
  bottom: "F32_rcu2"
  top: "reluF32_rcu2_crppool1"
  pooling_param {
    pool: MAX
    kernel_size: 5
    stride: 1
    pad: 2
  }
}
layer {
  name: "reluF32_rcu2_crppool1_crpconv1"
  type: "Convolution"
  bottom: "reluF32_rcu2_crppool1"
  top: "reluF32_rcu2_crppool1_crpconv1"
  param {
    lr_mult: 1
    decay_mult: 1
  }
  convolution_param {
    num_output: 512
    bias_term: false
    pad: 1
    kernel_size: 3
    stride: 1
    weight_filler {
      type: "gaussian"
      std: 0.01
    }
  }
}
layer {
  name: "reluF32_rcu2_crppool2"
  type: "Pooling"
  bottom: "reluF32_rcu2_crppool1_crpconv1"
  top: "reluF32_rcu2_crppool2"
  pooling_param {
    pool: MAX
    kernel_size: 5
    stride: 1
    pad: 2
  }
}
layer {
  name: "reluF32_rcu2_crppool2_crpconv2"
  type: "Convolution"
  bottom: "reluF32_rcu2_crppool2"
  top: "reluF32_rcu2_crppool2_crpconv2"
  param {
    lr_mult: 1
    decay_mult: 1
  }
  convolution_param {
    num_output: 512
    bias_term: false
    pad: 1
    kernel_size: 3
    stride: 1
    weight_filler {
      type: "gaussian"
      std: 0.01
    }
  }
}
layer {
  name: "reluF32_crp1"
  type: "Eltwise"
  bottom: "F32_rcu2"
  bottom: "reluF32_rcu2_crppool1_crpconv1"
  top: "reluF32_crp1"
  eltwise_param {
    operation: SUM
  }
}
layer {
  name: "reluF32_crp2"
  type: "Eltwise"
  bottom: "reluF32_crp1"
  bottom: "reluF32_rcu2_crppool2_crpconv2"
  top: "reluF32_crp2"
  eltwise_param {
    operation: SUM
  }
}
layer {
  name: "reluF32_crp2_conv11"
  type: "ReLU"
  bottom: "reluF32_crp2"
  top: "reluF32_crp2_conv11"
}
layer {
  name: "F32_crp2_conv11"
  type: "Convolution"
  bottom: "reluF32_crp2_conv11"
  top: "F32_crp2_conv11"
  param {
    lr_mult: 1
    decay_mult: 1
  }
  param {
    lr_mult: 1
    decay_mult: 1
  }
  convolution_param {
    num_output: 512
    pad: 1
    kernel_size: 3
    stride: 1
    weight_filler {
      type: "gaussian"
      std: 0.01
    }
    bias_filler {
      type: "constant"
      value: 0
    }
  }
}
layer {
  name: "reluF32_crp2_conv12"
  type: "ReLU"
  bottom: "F32_crp2_conv11"
  top: "F32_crp2_conv11"
}
layer {
  name: "F32_crp2_conv12"
  type: "Convolution"
  bottom: "F32_crp2_conv11"
  top: "F32_crp2_conv12"
  param {
    lr_mult: 1
    decay_mult: 1
  }
  convolution_param {
    num_output: 512
    bias_term: false
    pad: 1
    kernel_size: 3
    stride: 1
    weight_filler {
      type: "gaussian"
      std: 0.01
    }
  }
}
layer {
  name: "F32_out"
  type: "Eltwise"
  bottom: "reluF32_crp2"
  bottom: "F32_crp2_conv12"
  top: "F32_out"
  eltwise_param {
    operation: SUM
  }
}
layer {
  name: "reluF32_out_conv21"
  type: "ReLU"
  bottom: "F32_out"
  top: "reluF32_out_conv21"
}
layer {
  name: "F32_out_conv21"
  type: "Convolution"
  bottom: "reluF32_out_conv21"
  top: "F32_out_conv21"
  param {
    lr_mult: 1
    decay_mult: 1
  }
  param {
    lr_mult: 1
    decay_mult: 1
  }
  convolution_param {
    num_output: 512
    pad: 1
    kernel_size: 3
    stride: 1
    weight_filler {
      type: "gaussian"
      std: 0.01
    }
    bias_filler {
      type: "constant"
      value: 0
    }
  }
}
layer {
  name: "reluF32_out_conv22"
  type: "ReLU"
  bottom: "F32_out_conv21"
  top: "F32_out_conv21"
}
layer {
  name: "F32_out_conv22"
  type: "Convolution"
  bottom: "F32_out_conv21"
  top: "F32_out_conv22"
  param {
    lr_mult: 1
    decay_mult: 1
  }
  convolution_param {
    num_output: 512
    bias_term: false
    pad: 1
    kernel_size: 3
    stride: 1
    weight_filler {
      type: "gaussian"
      std: 0.01
    }
  }
}
layer {
  name: "F32_out_rcu1"
  type: "Eltwise"
  bottom: "F32_out"
  bottom: "F32_out_conv22"
  top: "F32_out_rcu1"
  eltwise_param {
    operation: SUM
  }
}
layer {
  name: "reluF32_out_conv31"
  type: "ReLU"
  bottom: "F32_out_rcu1"
  top: "reluF32_out_conv31"
}
layer {
  name: "F32_out_conv31"
  type: "Convolution"
  bottom: "reluF32_out_conv31"
  top: "F32_out_conv31"
  param {
    lr_mult: 1
    decay_mult: 1
  }
  param {
    lr_mult: 1
    decay_mult: 1
  }
  convolution_param {
    num_output: 512
    pad: 1
    kernel_size: 3
    stride: 1
    weight_filler {
      type: "gaussian"
      std: 0.01
    }
    bias_filler {
      type: "constant"
      value: 0
    }
  }
}
layer {
  name: "reluF32_out_conv32"
  type: "ReLU"
  bottom: "F32_out_conv31"
  top: "F32_out_conv31"
}
layer {
  name: "F32_out_conv32"
  type: "Convolution"
  bottom: "F32_out_conv31"
  top: "F32_out_conv32"
  param {
    lr_mult: 1
    decay_mult: 1
  }
  convolution_param {
    num_output: 512
    bias_term: false
    pad: 1
    kernel_size: 3
    stride: 1
    weight_filler {
      type: "gaussian"
      std: 0.01
    }
  }
}
layer {
  name: "F32_out_rcu2"
  type: "Eltwise"
  bottom: "F32_out_rcu1"
  bottom: "F32_out_conv32"
  top: "F32_out_rcu2"
  eltwise_param {
    operation: SUM
  }
}
layer {
  name: "F32_adapt_conv"
  type: "Convolution"
  bottom: "F32_out_rcu2"
  top: "F32_adapt_conv"
  param {
    lr_mult: 1
    decay_mult: 1
  }
  convolution_param {
    num_output: 256
    bias_term: false
    pad: 1
    kernel_size: 3
    stride: 1
    weight_filler {
      type: "gaussian"
      std: 0.01
    }
  }
}
layer {
  name: "reluF16_conv11"
  type: "ReLU"
  bottom: "Fuse16_feat"
  top: "reluF16_conv11"
}
layer {
  name: "F16_conv11"
  type: "Convolution"
  bottom: "reluF16_conv11"
  top: "F16_conv11"
  param {
    lr_mult: 1
    decay_mult: 1
  }
  param {
    lr_mult: 1
    decay_mult: 1
  }
  convolution_param {
    num_output: 256
    pad: 1
    kernel_size: 3
    stride: 1
    weight_filler {
      type: "gaussian"
      std: 0.01
    }
    bias_filler {
      type: "constant"
      value: 0
    }
  }
}
layer {
  name: "reluF16_conv12"
  type: "ReLU"
  bottom: "F16_conv11"
  top: "F16_conv11"
}
layer {
  name: "F16_conv12"
  type: "Convolution"
  bottom: "F16_conv11"
  top: "F16_conv12"
  param {
    lr_mult: 1
    decay_mult: 1
  }
  convolution_param {
    num_output: 256
    bias_term: false
    pad: 1
    kernel_size: 3
    stride: 1
    weight_filler {
      type: "gaussian"
      std: 0.01
    }
  }
}
layer {
  name: "F16_rcu1"
  type: "Eltwise"
  bottom: "Fuse16_feat"
  bottom: "F16_conv12"
  top: "F16_rcu1"
  eltwise_param {
    operation: SUM
  }
}
layer {
  name: "reluF16_conv21"
  type: "ReLU"
  bottom: "F16_rcu1"
  top: "reluF16_conv21"
}
layer {
  name: "F16_conv21"
  type: "Convolution"
  bottom: "reluF16_conv21"
  top: "F16_conv21"
  param {
    lr_mult: 1
    decay_mult: 1
  }
  param {
    lr_mult: 1
    decay_mult: 1
  }
  convolution_param {
    num_output: 256
    pad: 1
    kernel_size: 3
    stride: 1
    weight_filler {
      type: "gaussian"
      std: 0.01
    }
    bias_filler {
      type: "constant"
      value: 0
    }
  }
}
layer {
  name: "reluF16_conv22"
  type: "ReLU"
  bottom: "F16_conv21"
  top: "F16_conv21"
}
layer {
  name: "F16_conv22"
  type: "Convolution"
  bottom: "F16_conv21"
  top: "F16_conv22"
  param {
    lr_mult: 1
    decay_mult: 1
  }
  convolution_param {
    num_output: 256
    bias_term: false
    pad: 1
    kernel_size: 3
    stride: 1
    weight_filler {
      type: "gaussian"
      std: 0.01
    }
  }
}
layer {
  name: "F16_rcu2"
  type: "Eltwise"
  bottom: "F16_rcu1"
  bottom: "F16_conv22"
  top: "F16_rcu2"
  eltwise_param {
    operation: SUM
  }
}
layer {
  name: "F16_adapt_conv"
  type: "Convolution"
  bottom: "F16_rcu2"
  top: "F16_adapt_conv"
  param {
    lr_mult: 1
    decay_mult: 1
  }
  convolution_param {
    num_output: 256
    bias_term: false
    pad: 1
    kernel_size: 3
    stride: 1
    weight_filler {
      type: "gaussian"
      std: 0.01
    }
  }
}
layer {
  name: "F32_adapt_up"
  type: "Resize"
  bottom: "F32_adapt_conv"
  bottom: "F16_adapt_conv"
  top: "F32_adapt_up"
  propagate_down: true
  propagate_down: false
}
layer {
  name: "Refine16"
  type: "Eltwise"
  bottom: "F16_adapt_conv"
  bottom: "F32_adapt_up"
  top: "Refine16"
  eltwise_param {
    operation: SUM
  }
}
layer {
  name: "reluRefine16"
  type: "ReLU"
  bottom: "Refine16"
  top: "Refine16"
}
layer {
  name: "Refine16_crppool1"
  type: "Pooling"
  bottom: "Refine16"
  top: "Refine16_crppool1"
  pooling_param {
    pool: MAX
    kernel_size: 5
    stride: 1
    pad: 2
  }
}
layer {
  name: "Refine16_crpconv1"
  type: "Convolution"
  bottom: "Refine16_crppool1"
  top: "Refine16_crpconv1"
  param {
    lr_mult: 1
    decay_mult: 1
  }
  convolution_param {
    num_output: 256
    bias_term: false
    pad: 1
    kernel_size: 3
    stride: 1
    weight_filler {
      type: "gaussian"
      std: 0.01
    }
  }
}
layer {
  name: "Refine16_crppool2"
  type: "Pooling"
  bottom: "Refine16_crpconv1"
  top: "Refine16_crppool2"
  pooling_param {
    pool: MAX
    kernel_size: 5
    stride: 1
    pad: 2
  }
}
layer {
  name: "Refine16_crpconv2"
  type: "Convolution"
  bottom: "Refine16_crppool2"
  top: "Refine16_crpconv2"
  param {
    lr_mult: 1
    decay_mult: 1
  }
  convolution_param {
    num_output: 256
    bias_term: false
    pad: 1
    kernel_size: 3
    stride: 1
    weight_filler {
      type: "gaussian"
      std: 0.01
    }
  }
}
layer {
  name: "Refine16_crp1"
  type: "Eltwise"
  bottom: "Refine16"
  bottom: "Refine16_crpconv1"
  top: "Refine16_crp1"
  eltwise_param {
    operation: SUM
  }
}
layer {
  name: "Refine16_crp2"
  type: "Eltwise"
  bottom: "Refine16_crp1"
  bottom: "Refine16_crpconv2"
  top: "Refine16_crp2"
  eltwise_param {
    operation: SUM
  }
}
layer {
  name: "reluRefine16_conv11"
  type: "ReLU"
  bottom: "Refine16_crp2"
  top: "reluRefine16_conv11"
}
layer {
  name: "Refine16_conv11"
  type: "Convolution"
  bottom: "reluRefine16_conv11"
  top: "Refine16_conv11"
  param {
    lr_mult: 1
    decay_mult: 1
  }
  param {
    lr_mult: 1
    decay_mult: 1
  }
  convolution_param {
    num_output: 256
    pad: 1
    kernel_size: 3
    stride: 1
    weight_filler {
      type: "gaussian"
      std: 0.01
    }
    bias_filler {
      type: "constant"
      value: 0
    }
  }
}
layer {
  name: "reluRefine16_conv12"
  type: "ReLU"
  bottom: "Refine16_conv11"
  top: "Refine16_conv11"
}
layer {
  name: "Refine16_conv12"
  type: "Convolution"
  bottom: "Refine16_conv11"
  top: "Refine16_conv12"
  param {
    lr_mult: 1
    decay_mult: 1
  }
  convolution_param {
    num_output: 256
    bias_term: false
    pad: 1
    kernel_size: 3
    stride: 1
    weight_filler {
      type: "gaussian"
      std: 0.01
    }
  }
}
layer {
  name: "Refine16_out"
  type: "Eltwise"
  bottom: "Refine16_crp2"
  bottom: "Refine16_conv12"
  top: "Refine16_out"
  eltwise_param {
    operation: SUM
  }
}
layer {
  name: "reluRefine16_conv21"
  type: "ReLU"
  bottom: "Refine16_out"
  top: "reluRefine16_conv21"
}
layer {
  name: "Refine16_conv21"
  type: "Convolution"
  bottom: "reluRefine16_conv21"
  top: "Refine16_conv21"
  param {
    lr_mult: 1
    decay_mult: 1
  }
  param {
    lr_mult: 1
    decay_mult: 1
  }
  convolution_param {
    num_output: 256
    pad: 1
    kernel_size: 3
    stride: 1
    weight_filler {
      type: "gaussian"
      std: 0.01
    }
    bias_filler {
      type: "constant"
      value: 0
    }
  }
}
layer {
  name: "reluRefine16_conv22"
  type: "ReLU"
  bottom: "Refine16_conv21"
  top: "Refine16_conv21"
}
layer {
  name: "Refine16_conv22"
  type: "Convolution"
  bottom: "Refine16_conv21"
  top: "Refine16_conv22"
  param {
    lr_mult: 1
    decay_mult: 1
  }
  convolution_param {
    num_output: 256
    bias_term: false
    pad: 1
    kernel_size: 3
    stride: 1
    weight_filler {
      type: "gaussian"
      std: 0.01
    }
  }
}
layer {
  name: "Refine16_rcu1"
  type: "Eltwise"
  bottom: "Refine16_out"
  bottom: "Refine16_conv22"
  top: "Refine16_rcu1"
  eltwise_param {
    operation: SUM
  }
}
layer {
  name: "reluRefine16_conv31"
  type: "ReLU"
  bottom: "Refine16_rcu1"
  top: "reluRefine16_conv31"
}
layer {
  name: "Refine16_conv31"
  type: "Convolution"
  bottom: "reluRefine16_conv31"
  top: "Refine16_conv31"
  param {
    lr_mult: 1
    decay_mult: 1
  }
  param {
    lr_mult: 1
    decay_mult: 1
  }
  convolution_param {
    num_output: 256
    pad: 1
    kernel_size: 3
    stride: 1
    weight_filler {
      type: "gaussian"
      std: 0.01
    }
    bias_filler {
      type: "constant"
      value: 0
    }
  }
}
layer {
  name: "reluRefine16_conv32"
  type: "ReLU"
  bottom: "Refine16_conv31"
  top: "Refine16_conv31"
}
layer {
  name: "Refine16_conv32"
  type: "Convolution"
  bottom: "Refine16_conv31"
  top: "Refine16_conv32"
  param {
    lr_mult: 1
    decay_mult: 1
  }
  convolution_param {
    num_output: 256
    bias_term: false
    pad: 1
    kernel_size: 3
    stride: 1
    weight_filler {
      type: "gaussian"
      std: 0.01
    }
  }
}
layer {
  name: "Refine16_rcu2"
  type: "Eltwise"
  bottom: "Refine16_rcu1"
  bottom: "Refine16_conv32"
  top: "Refine16_rcu2"
  eltwise_param {
    operation: SUM
  }
}
layer {
  name: "Refine16_adapt_conv"
  type: "Convolution"
  bottom: "Refine16_rcu2"
  top: "Refine16_adapt_conv"
  param {
    lr_mult: 1
    decay_mult: 1
  }
  convolution_param {
    num_output: 256
    bias_term: false
    pad: 1
    kernel_size: 3
    stride: 1
    weight_filler {
      type: "gaussian"
      std: 0.01
    }
  }
}
layer {
  name: "reluF8_conv11"
  type: "ReLU"
  bottom: "Fuse8_feat"
  top: "reluF8_conv11"
}
layer {
  name: "F8_conv11"
  type: "Convolution"
  bottom: "reluF8_conv11"
  top: "F8_conv11"
  param {
    lr_mult: 1
    decay_mult: 1
  }
  param {
    lr_mult: 1
    decay_mult: 1
  }
  convolution_param {
    num_output: 256
    pad: 1
    kernel_size: 3
    stride: 1
    weight_filler {
      type: "gaussian"
      std: 0.01
    }
    bias_filler {
      type: "constant"
      value: 0
    }
  }
}
layer {
  name: "reluF8_conv12"
  type: "ReLU"
  bottom: "F8_conv11"
  top: "F8_conv11"
}
layer {
  name: "F8_conv12"
  type: "Convolution"
  bottom: "F8_conv11"
  top: "F8_conv12"
  param {
    lr_mult: 1
    decay_mult: 1
  }
  convolution_param {
    num_output: 256
    bias_term: false
    pad: 1
    kernel_size: 3
    stride: 1
    weight_filler {
      type: "gaussian"
      std: 0.01
    }
  }
}
layer {
  name: "F8_rcu1"
  type: "Eltwise"
  bottom: "Fuse8_feat"
  bottom: "F8_conv12"
  top: "F8_rcu1"
  eltwise_param {
    operation: SUM
  }
}
layer {
  name: "reluF8_conv21"
  type: "ReLU"
  bottom: "F8_rcu1"
  top: "reluF8_conv21"
}
layer {
  name: "F8_conv21"
  type: "Convolution"
  bottom: "reluF8_conv21"
  top: "F8_conv21"
  param {
    lr_mult: 1
    decay_mult: 1
  }
  param {
    lr_mult: 1
    decay_mult: 1
  }
  convolution_param {
    num_output: 256
    pad: 1
    kernel_size: 3
    stride: 1
    weight_filler {
      type: "gaussian"
      std: 0.01
    }
    bias_filler {
      type: "constant"
      value: 0
    }
  }
}
layer {
  name: "reluF8_conv22"
  type: "ReLU"
  bottom: "F8_conv21"
  top: "F8_conv21"
}
layer {
  name: "F8_conv22"
  type: "Convolution"
  bottom: "F8_conv21"
  top: "F8_conv22"
  param {
    lr_mult: 1
    decay_mult: 1
  }
  convolution_param {
    num_output: 256
    bias_term: false
    pad: 1
    kernel_size: 3
    stride: 1
    weight_filler {
      type: "gaussian"
      std: 0.01
    }
  }
}
layer {
  name: "F8_rcu2"
  type: "Eltwise"
  bottom: "F8_rcu1"
  bottom: "F8_conv22"
  top: "F8_rcu2"
  eltwise_param {
    operation: SUM
  }
}
layer {
  name: "F8_adapt_conv"
  type: "Convolution"
  bottom: "F8_rcu2"
  top: "F8_adapt_conv"
  param {
    lr_mult: 1
    decay_mult: 1
  }
  convolution_param {
    num_output: 256
    bias_term: false
    pad: 1
    kernel_size: 3
    stride: 1
    weight_filler {
      type: "gaussian"
      std: 0.01
    }
  }
}
layer {
  name: "Refine16_adapt_up"
  type: "Resize"
  bottom: "Refine16_adapt_conv"
  bottom: "F8_adapt_conv"
  top: "Refine16_adapt_up"
  propagate_down: true
  propagate_down: false
}
layer {
  name: "Refine8"
  type: "Eltwise"
  bottom: "F8_adapt_conv"
  bottom: "Refine16_adapt_up"
  top: "Refine8"
  eltwise_param {
    operation: SUM
  }
}
layer {
  name: "reluRefine8"
  type: "ReLU"
  bottom: "Refine8"
  top: "Refine8"
}
layer {
  name: "Refine8_crppool1"
  type: "Pooling"
  bottom: "Refine8"
  top: "Refine8_crppool1"
  pooling_param {
    pool: MAX
    kernel_size: 5
    stride: 1
    pad: 2
  }
}
layer {
  name: "Refine8_crpconv1"
  type: "Convolution"
  bottom: "Refine8_crppool1"
  top: "Refine8_crpconv1"
  param {
    lr_mult: 1
    decay_mult: 1
  }
  convolution_param {
    num_output: 256
    bias_term: false
    pad: 1
    kernel_size: 3
    stride: 1
    weight_filler {
      type: "gaussian"
      std: 0.01
    }
  }
}
layer {
  name: "Refine8_crppool2"
  type: "Pooling"
  bottom: "Refine8_crpconv1"
  top: "Refine8_crppool2"
  pooling_param {
    pool: MAX
    kernel_size: 5
    stride: 1
    pad: 2
  }
}
layer {
  name: "Refine8_crpconv2"
  type: "Convolution"
  bottom: "Refine8_crppool2"
  top: "Refine8_crpconv2"
  param {
    lr_mult: 1
    decay_mult: 1
  }
  convolution_param {
    num_output: 256
    bias_term: false
    pad: 1
    kernel_size: 3
    stride: 1
    weight_filler {
      type: "gaussian"
      std: 0.01
    }
  }
}
layer {
  name: "Refine8_crp1"
  type: "Eltwise"
  bottom: "Refine8"
  bottom: "Refine8_crpconv1"
  top: "Refine8_crp1"
  eltwise_param {
    operation: SUM
  }
}
layer {
  name: "Refine8_crp2"
  type: "Eltwise"
  bottom: "Refine8_crp1"
  bottom: "Refine8_crpconv2"
  top: "Refine8_crp2"
  eltwise_param {
    operation: SUM
  }
}
layer {
  name: "reluRefine8_conv11"
  type: "ReLU"
  bottom: "Refine8_crp2"
  top: "reluRefine8_conv11"
}
layer {
  name: "Refine8_conv11"
  type: "Convolution"
  bottom: "reluRefine8_conv11"
  top: "Refine8_conv11"
  param {
    lr_mult: 1
    decay_mult: 1
  }
  param {
    lr_mult: 1
    decay_mult: 1
  }
  convolution_param {
    num_output: 256
    pad: 1
    kernel_size: 3
    stride: 1
    weight_filler {
      type: "gaussian"
      std: 0.01
    }
    bias_filler {
      type: "constant"
      value: 0
    }
  }
}
layer {
  name: "reluRefine8_conv12"
  type: "ReLU"
  bottom: "Refine8_conv11"
  top: "Refine8_conv11"
}
layer {
  name: "Refine8_conv12"
  type: "Convolution"
  bottom: "Refine8_conv11"
  top: "Refine8_conv12"
  param {
    lr_mult: 1
    decay_mult: 1
  }
  convolution_param {
    num_output: 256
    bias_term: false
    pad: 1
    kernel_size: 3
    stride: 1
    weight_filler {
      type: "gaussian"
      std: 0.01
    }
  }
}
layer {
  name: "Refine8_out"
  type: "Eltwise"
  bottom: "Refine8_crp2"
  bottom: "Refine8_conv12"
  top: "Refine8_out"
  eltwise_param {
    operation: SUM
  }
}
layer {
  name: "reluRefine8_conv21"
  type: "ReLU"
  bottom: "Refine8_out"
  top: "reluRefine8_conv21"
}
layer {
  name: "Refine8_conv21"
  type: "Convolution"
  bottom: "reluRefine8_conv21"
  top: "Refine8_conv21"
  param {
    lr_mult: 1
    decay_mult: 1
  }
  param {
    lr_mult: 1
    decay_mult: 1
  }
  convolution_param {
    num_output: 256
    pad: 1
    kernel_size: 3
    stride: 1
    weight_filler {
      type: "gaussian"
      std: 0.01
    }
    bias_filler {
      type: "constant"
      value: 0
    }
  }
}
layer {
  name: "reluRefine8_conv22"
  type: "ReLU"
  bottom: "Refine8_conv21"
  top: "Refine8_conv21"
}
layer {
  name: "Refine8_conv22"
  type: "Convolution"
  bottom: "Refine8_conv21"
  top: "Refine8_conv22"
  param {
    lr_mult: 1
    decay_mult: 1
  }
  convolution_param {
    num_output: 256
    bias_term: false
    pad: 1
    kernel_size: 3
    stride: 1
    weight_filler {
      type: "gaussian"
      std: 0.01
    }
  }
}
layer {
  name: "Refine8_rcu1"
  type: "Eltwise"
  bottom: "Refine8_out"
  bottom: "Refine8_conv22"
  top: "Refine8_rcu1"
  eltwise_param {
    operation: SUM
  }
}
layer {
  name: "reluRefine8_conv31"
  type: "ReLU"
  bottom: "Refine8_rcu1"
  top: "reluRefine8_conv31"
}
layer {
  name: "Refine8_conv31"
  type: "Convolution"
  bottom: "reluRefine8_conv31"
  top: "Refine8_conv31"
  param {
    lr_mult: 1
    decay_mult: 1
  }
  param {
    lr_mult: 1
    decay_mult: 1
  }
  convolution_param {
    num_output: 256
    pad: 1
    kernel_size: 3
    stride: 1
    weight_filler {
      type: "gaussian"
      std: 0.01
    }
    bias_filler {
      type: "constant"
      value: 0
    }
  }
}
layer {
  name: "reluRefine8_conv32"
  type: "ReLU"
  bottom: "Refine8_conv31"
  top: "Refine8_conv31"
}
layer {
  name: "Refine8_conv32"
  type: "Convolution"
  bottom: "Refine8_conv31"
  top: "Refine8_conv32"
  param {
    lr_mult: 1
    decay_mult: 1
  }
  convolution_param {
    num_output: 256
    bias_term: false
    pad: 1
    kernel_size: 3
    stride: 1
    weight_filler {
      type: "gaussian"
      std: 0.01
    }
  }
}
layer {
  name: "Refine8_rcu2"
  type: "Eltwise"
  bottom: "Refine8_rcu1"
  bottom: "Refine8_conv32"
  top: "Refine8_rcu2"
  eltwise_param {
    operation: SUM
  }
}
layer {
  name: "Refine8_adapt_conv"
  type: "Convolution"
  bottom: "Refine8_rcu2"
  top: "Refine8_adapt_conv"
  param {
    lr_mult: 1
    decay_mult: 1
  }
  convolution_param {
    num_output: 256
    bias_term: false
    pad: 1
    kernel_size: 3
    stride: 1
    weight_filler {
      type: "gaussian"
      std: 0.01
    }
  }
}
layer {
  name: "reluF4_conv11"
  type: "ReLU"
  bottom: "Fuse4_feat"
  top: "reluF4_conv11"
}
layer {
  name: "F4_conv11"
  type: "Convolution"
  bottom: "reluF4_conv11"
  top: "F4_conv11"
  param {
    lr_mult: 1
    decay_mult: 1
  }
  param {
    lr_mult: 1
    decay_mult: 1
  }
  convolution_param {
    num_output: 256
    pad: 1
    kernel_size: 3
    stride: 1
    weight_filler {
      type: "gaussian"
      std: 0.01
    }
    bias_filler {
      type: "constant"
      value: 0
    }
  }
}
layer {
  name: "reluF4_conv12"
  type: "ReLU"
  bottom: "F4_conv11"
  top: "F4_conv11"
}
layer {
  name: "F4_conv12"
  type: "Convolution"
  bottom: "F4_conv11"
  top: "F4_conv12"
  param {
    lr_mult: 1
    decay_mult: 1
  }
  convolution_param {
    num_output: 256
    bias_term: false
    pad: 1
    kernel_size: 3
    stride: 1
    weight_filler {
      type: "gaussian"
      std: 0.01
    }
  }
}
layer {
  name: "F4_rcu1"
  type: "Eltwise"
  bottom: "Fuse4_feat"
  bottom: "F4_conv12"
  top: "F4_rcu1"
  eltwise_param {
    operation: SUM
  }
}
layer {
  name: "reluF4_conv31"
  type: "ReLU"
  bottom: "F4_rcu1"
  top: "reluF4_conv31"
}
layer {
  name: "F4_conv31"
  type: "Convolution"
  bottom: "reluF4_conv31"
  top: "F4_conv31"
  param {
    lr_mult: 1
    decay_mult: 1
  }
  param {
    lr_mult: 1
    decay_mult: 1
  }
  convolution_param {
    num_output: 256
    pad: 1
    kernel_size: 3
    stride: 1
    weight_filler {
      type: "gaussian"
      std: 0.01
    }
    bias_filler {
      type: "constant"
      value: 0
    }
  }
}
layer {
  name: "reluF4_conv32"
  type: "ReLU"
  bottom: "F4_conv31"
  top: "F4_conv31"
}
layer {
  name: "F4_conv32"
  type: "Convolution"
  bottom: "F4_conv31"
  top: "F4_conv32"
  param {
    lr_mult: 1
    decay_mult: 1
  }
  convolution_param {
    num_output: 256
    bias_term: false
    pad: 1
    kernel_size: 3
    stride: 1
    weight_filler {
      type: "gaussian"
      std: 0.01
    }
  }
}
layer {
  name: "F4_rcu2"
  type: "Eltwise"
  bottom: "F4_rcu1"
  bottom: "F4_conv32"
  top: "F4_rcu2"
  eltwise_param {
    operation: SUM
  }
}
layer {
  name: "F4_adapt_conv"
  type: "Convolution"
  bottom: "F4_rcu2"
  top: "F4_adapt_conv"
  param {
    lr_mult: 1
    decay_mult: 1
  }
  convolution_param {
    num_output: 256
    bias_term: false
    pad: 1
    kernel_size: 3
    stride: 1
    weight_filler {
      type: "gaussian"
      std: 0.01
    }
  }
}
layer {
  name: "Refine8_adapt_up"
  type: "Resize"
  bottom: "Refine8_adapt_conv"
  bottom: "F4_adapt_conv"
  top: "Refine8_adapt_up"
  propagate_down: true
  propagate_down: false
}
layer {
  name: "Refine4"
  type: "Eltwise"
  bottom: "F4_adapt_conv"
  bottom: "Refine8_adapt_up"
  top: "Refine4"
  eltwise_param {
    operation: SUM
  }
}
layer {
  name: "reluRefine4"
  type: "ReLU"
  bottom: "Refine4"
  top: "Refine4"
}
layer {
  name: "Refine4_crppool1"
  type: "Pooling"
  bottom: "Refine4"
  top: "Refine4_crppool1"
  pooling_param {
    pool: MAX
    kernel_size: 5
    stride: 1
    pad: 2
  }
}
layer {
  name: "Refine4_crpconv1"
  type: "Convolution"
  bottom: "Refine4_crppool1"
  top: "Refine4_crpconv1"
  param {
    lr_mult: 1
    decay_mult: 1
  }
  convolution_param {
    num_output: 256
    bias_term: false
    pad: 1
    kernel_size: 3
    stride: 1
    weight_filler {
      type: "gaussian"
      std: 0.01
    }
  }
}
layer {
  name: "Refine4_crppool2"
  type: "Pooling"
  bottom: "Refine4_crpconv1"
  top: "Refine4_crppool2"
  pooling_param {
    pool: MAX
    kernel_size: 5
    stride: 1
    pad: 2
  }
}
layer {
  name: "Refine4_crpconv2"
  type: "Convolution"
  bottom: "Refine4_crppool2"
  top: "Refine4_crpconv2"
  param {
    lr_mult: 1
    decay_mult: 1
  }
  convolution_param {
    num_output: 256
    bias_term: false
    pad: 1
    kernel_size: 3
    stride: 1
    weight_filler {
      type: "gaussian"
      std: 0.01
    }
  }
}
layer {
  name: "Refine4_crp1"
  type: "Eltwise"
  bottom: "Refine4"
  bottom: "Refine4_crpconv1"
  top: "Refine4_crp1"
  eltwise_param {
    operation: SUM
  }
}
layer {
  name: "Refine4_crp2"
  type: "Eltwise"
  bottom: "Refine4_crp1"
  bottom: "Refine4_crpconv2"
  top: "Refine4_crp2"
  eltwise_param {
    operation: SUM
  }
}
layer {
  name: "reluRefine4_conv11"
  type: "ReLU"
  bottom: "Refine4_crp2"
  top: "reluRefine4_conv11"
}
layer {
  name: "Refine4_conv11"
  type: "Convolution"
  bottom: "reluRefine4_conv11"
  top: "Refine4_conv11"
  param {
    lr_mult: 1
    decay_mult: 1
  }
  param {
    lr_mult: 1
    decay_mult: 1
  }
  convolution_param {
    num_output: 256
    pad: 1
    kernel_size: 3
    stride: 1
    weight_filler {
      type: "gaussian"
      std: 0.01
    }
    bias_filler {
      type: "constant"
      value: 0
    }
  }
}
layer {
  name: "reluRefine4_conv12"
  type: "ReLU"
  bottom: "Refine4_conv11"
  top: "Refine4_conv11"
}
layer {
  name: "Refine4_conv12"
  type: "Convolution"
  bottom: "Refine4_conv11"
  top: "Refine4_conv12"
  param {
    lr_mult: 1
    decay_mult: 1
  }
  convolution_param {
    num_output: 256
    bias_term: false
    pad: 1
    kernel_size: 3
    stride: 1
    weight_filler {
      type: "gaussian"
      std: 0.01
    }
  }
}
layer {
  name: "Refine4_out"
  type: "Eltwise"
  bottom: "Refine4_crp2"
  bottom: "Refine4_conv12"
  top: "Refine4_out"
  eltwise_param {
    operation: SUM
  }
}
layer {
  name: "reluRefine4_out_conv21"
  type: "ReLU"
  bottom: "Refine4_out"
  top: "reluRefine4_out_conv21"
}
layer {
  name: "Refine4_out_conv21"
  type: "Convolution"
  bottom: "reluRefine4_out_conv21"
  top: "Refine4_out_conv21"
  param {
    lr_mult: 1
    decay_mult: 1
  }
  param {
    lr_mult: 1
    decay_mult: 1
  }
  convolution_param {
    num_output: 256
    pad: 1
    kernel_size: 3
    stride: 1
    weight_filler {
      type: "gaussian"
      std: 0.01
    }
    bias_filler {
      type: "constant"
      value: 0
    }
  }
}
layer {
  name: "reluRefine4_out_conv22"
  type: "ReLU"
  bottom: "Refine4_out_conv21"
  top: "Refine4_out_conv21"
}
layer {
  name: "Refine4_out_conv22"
  type: "Convolution"
  bottom: "Refine4_out_conv21"
  top: "Refine4_out_conv22"
  param {
    lr_mult: 1
    decay_mult: 1
  }
  convolution_param {
    num_output: 256
    bias_term: false
    pad: 1
    kernel_size: 3
    stride: 1
    weight_filler {
      type: "gaussian"
      std: 0.01
    }
  }
}
layer {
  name: "Refine4_rcu1"
  type: "Eltwise"
  bottom: "Refine4_out"
  bottom: "Refine4_out_conv22"
  top: "Refine4_rcu1"
  eltwise_param {
    operation: SUM
  }
}
layer {
  name: "reluRefine4_out_conv31"
  type: "ReLU"
  bottom: "Refine4_rcu1"
  top: "reluRefine4_out_conv31"
}
layer {
  name: "Refine4_out_conv31"
  type: "Convolution"
  bottom: "reluRefine4_out_conv31"
  top: "Refine4_out_conv31"
  param {
    lr_mult: 1
    decay_mult: 1
  }
  param {
    lr_mult: 1
    decay_mult: 1
  }
  convolution_param {
    num_output: 256
    pad: 1
    kernel_size: 3
    stride: 1
    weight_filler {
      type: "gaussian"
      std: 0.01
    }
    bias_filler {
      type: "constant"
      value: 0
    }
  }
}
layer {
  name: "reluRefine4_out_conv32"
  type: "ReLU"
  bottom: "Refine4_out_conv31"
  top: "Refine4_out_conv31"
}
layer {
  name: "Refine4_out_conv32"
  type: "Convolution"
  bottom: "Refine4_out_conv31"
  top: "Refine4_out_conv32"
  param {
    lr_mult: 1
    decay_mult: 1
  }
  convolution_param {
    num_output: 256
    bias_term: false
    pad: 1
    kernel_size: 3
    stride: 1
    weight_filler {
      type: "gaussian"
      std: 0.01
    }
  }
}
layer {
  name: "Refine4_rcu2"
  type: "Eltwise"
  bottom: "Refine4_rcu1"
  bottom: "Refine4_out_conv32"
  top: "Refine4_rcu2"
  eltwise_param {
    operation: SUM
  }
}
layer {
  name: "Refine4_rcu2_drop"
  type: "Dropout"
  bottom: "Refine4_rcu2"
  top: "Refine4_rcu2"
  dropout_param {
    dropout_ratio: 0.5
  }
}
layer {
  name: "finalscore"
  type: "Convolution"
  bottom: "Refine4_rcu2"
  top: "finalscore"
  param {
    lr_mult: 1
    decay_mult: 1
  }
  param {
    lr_mult: 1
    decay_mult: 1
  }
  convolution_param {
    num_output: 40
    pad: 0
    kernel_size: 1
    stride: 1
    weight_filler {
      type: "gaussian"
      std: 0.01
    }
    bias_filler {
      type: "constant"
      value: 0
    }
  }
}
